…
I0715 11:51:23.903729  9326 net.cpp:287] The NetState phase (0) differed from the phase (1) specified by a rule in layer accuracy
I0715 11:51:23.903902  9326 net.cpp:42] Initializing net from parameters: 
name: "LogoCaffeNet"
state {
  phase: TRAIN
}
layer {
  name: "data"
  type: "ImageData"
  top: "data"
  top: "label"
  include {
    phase: TRAIN
  }
  transform_param {
    mirror: true
    crop_size: 227
    mean_file: "data/ilsvrc12/imagenet_mean.binaryproto"
  }
  image_data_param {
    source: "/home/rips_tc/caffe/data/logos/train.txt"
    batch_size: 50
    new_height: 256
    new_width: 256
  }
}
layer {
  name: "conv1"
  type: "Convolution"
  bottom: "data"
  top: "conv1"
  param {
    lr_mult: 0.5
    decay_mult: 1
  }
  param {
    lr_mult: 1
    decay_mult: 0
  }
  convolution_param {
    num_output: 96
    kernel_size: 11
    stride: 4
    weight_filler {
      type: "gaussian"
      std: 0.01
    }
    bias_filler {
      type: "constant"
      value: 0
    }
  }
}
layer {
  name: "relu1"
  type: "ReLU"
  bottom: "conv1"
  top: "conv1"
}
layer {
  name: "pool1"
  type: "Pooling"
  bottom: "conv1"
  top: "pool1"
  pooling_param {
    pool: MAX
    kernel_size: 3
    stride: 2
  }
}
layer {
  name: "norm1"
  type: "LRN"
  bottom: "pool1"
  top: "norm1"
  lrn_param {
    local_size: 5
    alpha: 0.0001
    beta: 0.75
  }
}
layer {
  name: "conv2"
  type: "Convolution"
  bottom: "norm1"
  top: "conv2"
  param {
    lr_mult: 0.5
    decay_mult: 1
  }
  param {
    lr_mult: 1
    decay_mult: 0
  }
  convolution_param {
    num_output: 256
    pad: 2
    kernel_size: 5
    group: 2
    weight_filler {
      type: "gaussian"
      std: 0.01
    }
    bias_filler {
      type: "constant"
      value: 1
    }
  }
}
layer {
  name: "relu2"
  type: "ReLU"
  bottom: "conv2"
  top: "conv2"
}
layer {
  name: "pool2"
  type: "Pooling"
  bottom: "conv2"
  top: "pool2"
  pooling_param {
    pool: MAX
    kernel_size: 3
    stride: 2
  }
}
layer {
  name: "norm2"
  type: "LRN"
  bottom: "pool2"
  top: "norm2"
  lrn_param {
    local_size: 5
    alpha: 0.0001
    beta: 0.75
  }
}
layer {
  name: "conv3"
  type: "Convolution"
  bottom: "norm2"
  top: "conv3"
  param {
    lr_mult: 0.5
    decay_mult: 1
  }
  param {
    lr_mult: 1
    decay_mult: 0
  }
  convolution_param {
    num_output: 384
    pad: 1
    kernel_size: 3
    weight_filler {
      type: "gaussian"
      std: 0.01
    }
    bias_filler {
      type: "constant"
      value: 0
    }
  }
}
layer {
  name: "relu3"
  type: "ReLU"
  bottom: "conv3"
  top: "conv3"
}
layer {
  name: "conv4"
  type: "Convolution"
  bottom: "conv3"
  top: "conv4"
  param {
    lr_mult: 0.5
    decay_mult: 1
  }
  param {
    lr_mult: 1
    decay_mult: 0
  }
  convolution_param {
    num_output: 384
    pad: 1
    kernel_size: 3
    group: 2
    weight_filler {
      type: "gaussian"
      std: 0.01
    }
    bias_filler {
      type: "constant"
      value: 1
    }
  }
}
layer {
  name: "relu4"
  type: "ReLU"
  bottom: "conv4"
  top: "conv4"
}
layer {
  name: "conv5"
  type: "Convolution"
  bottom: "conv4"
  top: "conv5"
  param {
    lr_mult: 0.5
    decay_mult: 1
  }
  param {
    lr_mult: 1
    decay_mult: 0
  }
  convolution_param {
    num_output: 256
    pad: 1
    kernel_size: 3
    group: 2
    weight_filler {
      type: "gaussian"
      std: 0.01
    }
    bias_filler {
      type: "constant"
      value: 1
    }
  }
}
layer {
  name: "relu5"
  type: "ReLU"
  bottom: "conv5"
  top: "conv5"
}
layer {
  name: "pool5"
  type: "Pooling"
  bottom: "conv5"
  top: "pool5"
  pooling_param {
    pool: MAX
    kernel_size: 3
    stride: 2
  }
}
layer {
  name: "fc6"
  type: "InnerProduct"
  bottom: "pool5"
  top: "fc6"
  param {
    lr_mult: 1
    decay_mult: 1
  }
  param {
    lr_mult: 2
    decay_mult: 0
  }
  inner_product_param {
    num_output: 4096
    weight_filler {
      type: "gaussian"
      std: 0.005
    }
    bias_filler {
      type: "constant"
      value: 1
    }
  }
}
layer {
  name: "relu6"
  type: "ReLU"
  bottom: "fc6"
  top: "fc6"
}
layer {
  name: "drop6"
  type: "Dropout"
  bottom: "fc6"
  top: "fc6"
  dropout_param {
    dropout_ratio: 0.5
  }
}
layer {
  name: "fc7"
  type: "InnerProduct"
  bottom: "fc6"
  top: "fc7"
  param {
    lr_mult: 2
    decay_mult: 1
  }
  param {
    lr_mult: 4
    decay_mult: 0
  }
  inner_product_param {
    num_output: 4096
    weight_filler {
      type: "gaussian"
      std: 0.005
    }
    bias_filler {
      type: "constant"
      value: 1
    }
  }
}
layer {
  name: "relu7"
  type: "ReLU"
  bottom: "fc7"
  top: "fc7"
}
layer {
  name: "drop7"
  type: "Dropout"
  bottom: "fc7"
  top: "fc7"
  dropout_param {
    dropout_ratio: 0.5
  }
}
layer {
  name: "fc8_flickr"
  type: "InnerProduct"
  bottom: "fc7"
  top: "fc8_flickr"
  param {
    lr_mult: 20
    decay_mult: 1
  }
  param {
    lr_mult: 20
    decay_mult: 1
  }
  inner_product_param {
    num_output: 167
    weight_filler {
      type: "gaussian"
      std: 0.01
    }
    bias_filler {
      type: "constant"
      value: 0
    }
  }
}
layer {
  name: "loss"
  type: "SoftmaxWithLoss"
  bottom: "fc8_flickr"
  bottom: "label"
}
I0715 11:51:23.904032  9326 layer_factory.hpp:74] Creating layer data
I0715 11:51:23.904057  9326 net.cpp:90] Creating Layer data
I0715 11:51:23.904068  9326 net.cpp:368] data -> data
I0715 11:51:23.904093  9326 net.cpp:368] data -> label
I0715 11:51:23.904106  9326 net.cpp:120] Setting up data
I0715 11:51:23.904116  9326 data_transformer.cpp:22] Loading mean file from: data/ilsvrc12/imagenet_mean.binaryproto
I0715 11:51:23.905972  9326 image_data_layer.cpp:36] Opening file /home/rips_tc/caffe/data/logos/train.txt
I0715 11:51:23.910784  9326 image_data_layer.cpp:51] A total of 12220 images.
I0715 11:51:23.914985  9326 image_data_layer.cpp:74] output data size: 50,3,227,227
I0715 11:51:23.919327  9326 net.cpp:127] Top shape: 50 3 227 227 (7729350)
I0715 11:51:23.919358  9326 net.cpp:127] Top shape: 50 (50)
I0715 11:51:23.919369  9326 layer_factory.hpp:74] Creating layer conv1
I0715 11:51:23.919389  9326 net.cpp:90] Creating Layer conv1
I0715 11:51:23.919396  9326 net.cpp:410] conv1 <- data
I0715 11:51:23.919410  9326 net.cpp:368] conv1 -> conv1
I0715 11:51:23.919426  9326 net.cpp:120] Setting up conv1
I0715 11:51:23.920392  9326 net.cpp:127] Top shape: 50 96 55 55 (14520000)
I0715 11:51:23.920408  9326 layer_factory.hpp:74] Creating layer relu1
I0715 11:51:23.920418  9326 net.cpp:90] Creating Layer relu1
I0715 11:51:23.920424  9326 net.cpp:410] relu1 <- conv1
I0715 11:51:23.920431  9326 net.cpp:357] relu1 -> conv1 (in-place)
I0715 11:51:23.920439  9326 net.cpp:120] Setting up relu1
I0715 11:51:23.920451  9326 net.cpp:127] Top shape: 50 96 55 55 (14520000)
I0715 11:51:23.920459  9326 layer_factory.hpp:74] Creating layer pool1
I0715 11:51:23.920472  9326 net.cpp:90] Creating Layer pool1
I0715 11:51:23.920480  9326 net.cpp:410] pool1 <- conv1
I0715 11:51:23.920488  9326 net.cpp:368] pool1 -> pool1
I0715 11:51:23.920498  9326 net.cpp:120] Setting up pool1
I0715 11:51:23.920516  9326 net.cpp:127] Top shape: 50 96 27 27 (3499200)
I0715 11:51:23.920523  9326 layer_factory.hpp:74] Creating layer norm1
I0715 11:51:23.920533  9326 net.cpp:90] Creating Layer norm1
I0715 11:51:23.920541  9326 net.cpp:410] norm1 <- pool1
I0715 11:51:23.920548  9326 net.cpp:368] norm1 -> norm1
I0715 11:51:23.920558  9326 net.cpp:120] Setting up norm1
I0715 11:51:23.920568  9326 net.cpp:127] Top shape: 50 96 27 27 (3499200)
I0715 11:51:23.920594  9326 layer_factory.hpp:74] Creating layer conv2
I0715 11:51:23.920605  9326 net.cpp:90] Creating Layer conv2
I0715 11:51:23.920611  9326 net.cpp:410] conv2 <- norm1
I0715 11:51:23.920619  9326 net.cpp:368] conv2 -> conv2
I0715 11:51:23.920629  9326 net.cpp:120] Setting up conv2
I0715 11:51:23.928802  9326 net.cpp:127] Top shape: 50 256 27 27 (9331200)
I0715 11:51:23.928822  9326 layer_factory.hpp:74] Creating layer relu2
I0715 11:51:23.928830  9326 net.cpp:90] Creating Layer relu2
I0715 11:51:23.928838  9326 net.cpp:410] relu2 <- conv2
I0715 11:51:23.928845  9326 net.cpp:357] relu2 -> conv2 (in-place)
I0715 11:51:23.928853  9326 net.cpp:120] Setting up relu2
I0715 11:51:23.928860  9326 net.cpp:127] Top shape: 50 256 27 27 (9331200)
I0715 11:51:23.928865  9326 layer_factory.hpp:74] Creating layer pool2
I0715 11:51:23.928874  9326 net.cpp:90] Creating Layer pool2
I0715 11:51:23.928879  9326 net.cpp:410] pool2 <- conv2
I0715 11:51:23.928891  9326 net.cpp:368] pool2 -> pool2
I0715 11:51:23.928900  9326 net.cpp:120] Setting up pool2
I0715 11:51:23.928910  9326 net.cpp:127] Top shape: 50 256 13 13 (2163200)
I0715 11:51:23.928917  9326 layer_factory.hpp:74] Creating layer norm2
I0715 11:51:23.928926  9326 net.cpp:90] Creating Layer norm2
I0715 11:51:23.928935  9326 net.cpp:410] norm2 <- pool2
I0715 11:51:23.928942  9326 net.cpp:368] norm2 -> norm2
I0715 11:51:23.928953  9326 net.cpp:120] Setting up norm2
I0715 11:51:23.928961  9326 net.cpp:127] Top shape: 50 256 13 13 (2163200)
I0715 11:51:23.928969  9326 layer_factory.hpp:74] Creating layer conv3
I0715 11:51:23.928978  9326 net.cpp:90] Creating Layer conv3
I0715 11:51:23.928985  9326 net.cpp:410] conv3 <- norm2
I0715 11:51:23.928993  9326 net.cpp:368] conv3 -> conv3
I0715 11:51:23.929003  9326 net.cpp:120] Setting up conv3
I0715 11:51:23.952931  9326 net.cpp:127] Top shape: 50 384 13 13 (3244800)
I0715 11:51:23.952961  9326 layer_factory.hpp:74] Creating layer relu3
I0715 11:51:23.952975  9326 net.cpp:90] Creating Layer relu3
I0715 11:51:23.952982  9326 net.cpp:410] relu3 <- conv3
I0715 11:51:23.952991  9326 net.cpp:357] relu3 -> conv3 (in-place)
I0715 11:51:23.953001  9326 net.cpp:120] Setting up relu3
I0715 11:51:23.953009  9326 net.cpp:127] Top shape: 50 384 13 13 (3244800)
I0715 11:51:23.953014  9326 layer_factory.hpp:74] Creating layer conv4
I0715 11:51:23.953025  9326 net.cpp:90] Creating Layer conv4
I0715 11:51:23.953030  9326 net.cpp:410] conv4 <- conv3
I0715 11:51:23.953038  9326 net.cpp:368] conv4 -> conv4
I0715 11:51:23.953052  9326 net.cpp:120] Setting up conv4
I0715 11:51:23.971353  9326 net.cpp:127] Top shape: 50 384 13 13 (3244800)
I0715 11:51:23.971379  9326 layer_factory.hpp:74] Creating layer relu4
I0715 11:51:23.971392  9326 net.cpp:90] Creating Layer relu4
I0715 11:51:23.971400  9326 net.cpp:410] relu4 <- conv4
I0715 11:51:23.971408  9326 net.cpp:357] relu4 -> conv4 (in-place)
I0715 11:51:23.971418  9326 net.cpp:120] Setting up relu4
I0715 11:51:23.971426  9326 net.cpp:127] Top shape: 50 384 13 13 (3244800)
I0715 11:51:23.971432  9326 layer_factory.hpp:74] Creating layer conv5
I0715 11:51:23.971442  9326 net.cpp:90] Creating Layer conv5
I0715 11:51:23.971448  9326 net.cpp:410] conv5 <- conv4
I0715 11:51:23.971456  9326 net.cpp:368] conv5 -> conv5
I0715 11:51:23.971470  9326 net.cpp:120] Setting up conv5
I0715 11:51:23.983310  9326 net.cpp:127] Top shape: 50 256 13 13 (2163200)
I0715 11:51:23.983332  9326 layer_factory.hpp:74] Creating layer relu5
I0715 11:51:23.983342  9326 net.cpp:90] Creating Layer relu5
I0715 11:51:23.983348  9326 net.cpp:410] relu5 <- conv5
I0715 11:51:23.983356  9326 net.cpp:357] relu5 -> conv5 (in-place)
I0715 11:51:23.983366  9326 net.cpp:120] Setting up relu5
I0715 11:51:23.983373  9326 net.cpp:127] Top shape: 50 256 13 13 (2163200)
I0715 11:51:23.983378  9326 layer_factory.hpp:74] Creating layer pool5
I0715 11:51:23.983387  9326 net.cpp:90] Creating Layer pool5
I0715 11:51:23.983393  9326 net.cpp:410] pool5 <- conv5
I0715 11:51:23.983402  9326 net.cpp:368] pool5 -> pool5
I0715 11:51:23.983412  9326 net.cpp:120] Setting up pool5
I0715 11:51:23.983453  9326 net.cpp:127] Top shape: 50 256 6 6 (460800)
I0715 11:51:23.983463  9326 layer_factory.hpp:74] Creating layer fc6
I0715 11:51:23.983475  9326 net.cpp:90] Creating Layer fc6
I0715 11:51:23.983482  9326 net.cpp:410] fc6 <- pool5
I0715 11:51:23.983491  9326 net.cpp:368] fc6 -> fc6
I0715 11:51:23.983503  9326 net.cpp:120] Setting up fc6
I0715 11:51:24.986069  9326 net.cpp:127] Top shape: 50 4096 (204800)
I0715 11:51:24.986102  9326 layer_factory.hpp:74] Creating layer relu6
I0715 11:51:24.986116  9326 net.cpp:90] Creating Layer relu6
I0715 11:51:24.986124  9326 net.cpp:410] relu6 <- fc6
I0715 11:51:24.986135  9326 net.cpp:357] relu6 -> fc6 (in-place)
I0715 11:51:24.986145  9326 net.cpp:120] Setting up relu6
I0715 11:51:24.986152  9326 net.cpp:127] Top shape: 50 4096 (204800)
I0715 11:51:24.986158  9326 layer_factory.hpp:74] Creating layer drop6
I0715 11:51:24.986167  9326 net.cpp:90] Creating Layer drop6
I0715 11:51:24.986172  9326 net.cpp:410] drop6 <- fc6
I0715 11:51:24.986186  9326 net.cpp:357] drop6 -> fc6 (in-place)
I0715 11:51:24.986197  9326 net.cpp:120] Setting up drop6
I0715 11:51:24.986210  9326 net.cpp:127] Top shape: 50 4096 (204800)
I0715 11:51:24.986217  9326 layer_factory.hpp:74] Creating layer fc7
I0715 11:51:24.986227  9326 net.cpp:90] Creating Layer fc7
I0715 11:51:24.986234  9326 net.cpp:410] fc7 <- fc6
I0715 11:51:24.986243  9326 net.cpp:368] fc7 -> fc7
I0715 11:51:24.986251  9326 net.cpp:120] Setting up fc7
I0715 11:51:25.429664  9326 net.cpp:127] Top shape: 50 4096 (204800)
I0715 11:51:25.429693  9326 layer_factory.hpp:74] Creating layer relu7
I0715 11:51:25.429707  9326 net.cpp:90] Creating Layer relu7
I0715 11:51:25.429713  9326 net.cpp:410] relu7 <- fc7
I0715 11:51:25.429723  9326 net.cpp:357] relu7 -> fc7 (in-place)
I0715 11:51:25.429733  9326 net.cpp:120] Setting up relu7
I0715 11:51:25.429739  9326 net.cpp:127] Top shape: 50 4096 (204800)
I0715 11:51:25.429745  9326 layer_factory.hpp:74] Creating layer drop7
I0715 11:51:25.429756  9326 net.cpp:90] Creating Layer drop7
I0715 11:51:25.429761  9326 net.cpp:410] drop7 <- fc7
I0715 11:51:25.429774  9326 net.cpp:357] drop7 -> fc7 (in-place)
I0715 11:51:25.429781  9326 net.cpp:120] Setting up drop7
I0715 11:51:25.429791  9326 net.cpp:127] Top shape: 50 4096 (204800)
I0715 11:51:25.429800  9326 layer_factory.hpp:74] Creating layer fc8_flickr
I0715 11:51:25.429810  9326 net.cpp:90] Creating Layer fc8_flickr
I0715 11:51:25.429817  9326 net.cpp:410] fc8_flickr <- fc7
I0715 11:51:25.429826  9326 net.cpp:368] fc8_flickr -> fc8_flickr
I0715 11:51:25.429833  9326 net.cpp:120] Setting up fc8_flickr
I0715 11:51:25.447067  9326 net.cpp:127] Top shape: 50 167 (8350)
I0715 11:51:25.447084  9326 layer_factory.hpp:74] Creating layer loss
I0715 11:51:25.447099  9326 net.cpp:90] Creating Layer loss
I0715 11:51:25.447105  9326 net.cpp:410] loss <- fc8_flickr
I0715 11:51:25.447113  9326 net.cpp:410] loss <- label
I0715 11:51:25.447123  9326 net.cpp:368] loss -> (automatic)
I0715 11:51:25.447130  9326 net.cpp:120] Setting up loss
I0715 11:51:25.447139  9326 layer_factory.hpp:74] Creating layer loss
…
I0715 11:51:25.448037  9326 net.cpp:287] The NetState phase (1) differed from the phase (0) specified by a rule in layer data
I0715 11:51:25.448216  9326 net.cpp:42] Initializing net from parameters: 
name: "LogoCaffeNet"
state {
  phase: TEST
}
layer {
  name: "data"
  type: "ImageData"
  top: "data"
  top: "label"
  include {
    phase: TEST
  }
  transform_param {
    mirror: false
    crop_size: 227
    mean_file: "data/ilsvrc12/imagenet_mean.binaryproto"
  }
  image_data_param {
    source: "/home/rips_tc/caffe/data/logos/test.txt"
    batch_size: 50
    new_height: 256
    new_width: 256
  }
}
layer {
  name: "conv1"
  type: "Convolution"
  bottom: "data"
  top: "conv1"
  param {
    lr_mult: 0.5
    decay_mult: 1
  }
  param {
    lr_mult: 1
    decay_mult: 0
  }
  convolution_param {
    num_output: 96
    kernel_size: 11
    stride: 4
    weight_filler {
      type: "gaussian"
      std: 0.01
    }
    bias_filler {
      type: "constant"
      value: 0
    }
  }
}
layer {
  name: "relu1"
  type: "ReLU"
  bottom: "conv1"
  top: "conv1"
}
layer {
  name: "pool1"
  type: "Pooling"
  bottom: "conv1"
  top: "pool1"
  pooling_param {
    pool: MAX
    kernel_size: 3
    stride: 2
  }
}
layer {
  name: "norm1"
  type: "LRN"
  bottom: "pool1"
  top: "norm1"
  lrn_param {
    local_size: 5
    alpha: 0.0001
    beta: 0.75
  }
}
layer {
  name: "conv2"
  type: "Convolution"
  bottom: "norm1"
  top: "conv2"
  param {
    lr_mult: 0.5
    decay_mult: 1
  }
  param {
    lr_mult: 1
    decay_mult: 0
  }
  convolution_param {
    num_output: 256
    pad: 2
    kernel_size: 5
    group: 2
    weight_filler {
      type: "gaussian"
      std: 0.01
    }
    bias_filler {
      type: "constant"
      value: 1
    }
  }
}
layer {
  name: "relu2"
  type: "ReLU"
  bottom: "conv2"
  top: "conv2"
}
layer {
  name: "pool2"
  type: "Pooling"
  bottom: "conv2"
  top: "pool2"
  pooling_param {
    pool: MAX
    kernel_size: 3
    stride: 2
  }
}
layer {
  name: "norm2"
  type: "LRN"
  bottom: "pool2"
  top: "norm2"
  lrn_param {
    local_size: 5
    alpha: 0.0001
    beta: 0.75
  }
}
layer {
  name: "conv3"
  type: "Convolution"
  bottom: "norm2"
  top: "conv3"
  param {
    lr_mult: 0.5
    decay_mult: 1
  }
  param {
    lr_mult: 1
    decay_mult: 0
  }
  convolution_param {
    num_output: 384
    pad: 1
    kernel_size: 3
    weight_filler {
      type: "gaussian"
      std: 0.01
    }
    bias_filler {
      type: "constant"
      value: 0
    }
  }
}
layer {
  name: "relu3"
  type: "ReLU"
  bottom: "conv3"
  top: "conv3"
}
layer {
  name: "conv4"
  type: "Convolution"
  bottom: "conv3"
  top: "conv4"
  param {
    lr_mult: 0.5
    decay_mult: 1
  }
  param {
    lr_mult: 1
    decay_mult: 0
  }
  convolution_param {
    num_output: 384
    pad: 1
    kernel_size: 3
    group: 2
    weight_filler {
      type: "gaussian"
      std: 0.01
    }
    bias_filler {
      type: "constant"
      value: 1
    }
  }
}
layer {
  name: "relu4"
  type: "ReLU"
  bottom: "conv4"
  top: "conv4"
}
layer {
  name: "conv5"
  type: "Convolution"
  bottom: "conv4"
  top: "conv5"
  param {
    lr_mult: 0.5
    decay_mult: 1
  }
  param {
    lr_mult: 1
    decay_mult: 0
  }
  convolution_param {
    num_output: 256
    pad: 1
    kernel_size: 3
    group: 2
    weight_filler {
      type: "gaussian"
      std: 0.01
    }
    bias_filler {
      type: "constant"
      value: 1
    }
  }
}
layer {
  name: "relu5"
  type: "ReLU"
  bottom: "conv5"
  top: "conv5"
}
layer {
  name: "pool5"
  type: "Pooling"
  bottom: "conv5"
  top: "pool5"
  pooling_param {
    pool: MAX
    kernel_size: 3
    stride: 2
  }
}
layer {
  name: "fc6"
  type: "InnerProduct"
  bottom: "pool5"
  top: "fc6"
  param {
    lr_mult: 1
    decay_mult: 1
  }
  param {
    lr_mult: 2
    decay_mult: 0
  }
  inner_product_param {
    num_output: 4096
    weight_filler {
      type: "gaussian"
      std: 0.005
    }
    bias_filler {
      type: "constant"
      value: 1
    }
  }
}
layer {
  name: "relu6"
  type: "ReLU"
  bottom: "fc6"
  top: "fc6"
}
layer {
  name: "drop6"
  type: "Dropout"
  bottom: "fc6"
  top: "fc6"
  dropout_param {
    dropout_ratio: 0.5
  }
}
layer {
  name: "fc7"
  type: "InnerProduct"
  bottom: "fc6"
  top: "fc7"
  param {
    lr_mult: 2
    decay_mult: 1
  }
  param {
    lr_mult: 4
    decay_mult: 0
  }
  inner_product_param {
    num_output: 4096
    weight_filler {
      type: "gaussian"
      std: 0.005
    }
    bias_filler {
      type: "constant"
      value: 1
    }
  }
}
layer {
  name: "relu7"
  type: "ReLU"
  bottom: "fc7"
  top: "fc7"
}
layer {
  name: "drop7"
  type: "Dropout"
  bottom: "fc7"
  top: "fc7"
  dropout_param {
    dropout_ratio: 0.5
  }
}
layer {
  name: "fc8_flickr"
  type: "InnerProduct"
  bottom: "fc7"
  top: "fc8_flickr"
  param {
    lr_mult: 20
    decay_mult: 1
  }
  param {
    lr_mult: 20
    decay_mult: 1
  }
  inner_product_param {
    num_output: 167
    weight_filler {
      type: "gaussian"
      std: 0.01
    }
    bias_filler {
      type: "constant"
      value: 0
    }
  }
}
layer {
  name: "loss"
  type: "SoftmaxWithLoss"
  bottom: "fc8_flickr"
  bottom: "label"
}
layer {
  name: "accuracy"
  type: "Accuracy"
  bottom: "fc8_flickr"
  bottom: "label"
  top: "accuracy"
  include {
    phase: TEST
  }
  accuracy_param {
    top_k: 3
  }
}
I0715 11:51:25.448345  9326 layer_factory.hpp:74] Creating layer data
I0715 11:51:25.448359  9326 net.cpp:90] Creating Layer data
I0715 11:51:25.448366  9326 net.cpp:368] data -> data
I0715 11:51:25.448376  9326 net.cpp:368] data -> label
I0715 11:51:25.448386  9326 net.cpp:120] Setting up data
I0715 11:51:25.448393  9326 data_transformer.cpp:22] Loading mean file from: data/ilsvrc12/imagenet_mean.binaryproto
I0715 11:51:25.449697  9326 image_data_layer.cpp:36] Opening file /home/rips_tc/caffe/data/logos/test.txt
I0715 11:51:25.450209  9326 image_data_layer.cpp:51] A total of 1357 images.
I0715 11:51:25.451102  9326 image_data_layer.cpp:74] output data size: 50,3,227,227
I0715 11:51:25.454823  9326 net.cpp:127] Top shape: 50 3 227 227 (7729350)
I0715 11:51:25.454851  9326 net.cpp:127] Top shape: 50 (50)
I0715 11:51:25.454861  9326 layer_factory.hpp:74] Creating layer label_data_1_split
I0715 11:51:25.454876  9326 net.cpp:90] Creating Layer label_data_1_split
I0715 11:51:25.454884  9326 net.cpp:410] label_data_1_split <- label
I0715 11:51:25.454891  9326 net.cpp:368] label_data_1_split -> label_data_1_split_0
I0715 11:51:25.454918  9326 net.cpp:368] label_data_1_split -> label_data_1_split_1
I0715 11:51:25.454927  9326 net.cpp:120] Setting up label_data_1_split
I0715 11:51:25.454937  9326 net.cpp:127] Top shape: 50 (50)
I0715 11:51:25.454947  9326 net.cpp:127] Top shape: 50 (50)
I0715 11:51:25.454952  9326 layer_factory.hpp:74] Creating layer conv1
I0715 11:51:25.454965  9326 net.cpp:90] Creating Layer conv1
I0715 11:51:25.454987  9326 net.cpp:410] conv1 <- data
I0715 11:51:25.454996  9326 net.cpp:368] conv1 -> conv1
I0715 11:51:25.455008  9326 net.cpp:120] Setting up conv1
I0715 11:51:25.455899  9326 net.cpp:127] Top shape: 50 96 55 55 (14520000)
I0715 11:51:25.455914  9326 layer_factory.hpp:74] Creating layer relu1
I0715 11:51:25.455924  9326 net.cpp:90] Creating Layer relu1
I0715 11:51:25.455929  9326 net.cpp:410] relu1 <- conv1
I0715 11:51:25.455936  9326 net.cpp:357] relu1 -> conv1 (in-place)
I0715 11:51:25.455943  9326 net.cpp:120] Setting up relu1
I0715 11:51:25.455950  9326 net.cpp:127] Top shape: 50 96 55 55 (14520000)
I0715 11:51:25.455955  9326 layer_factory.hpp:74] Creating layer pool1
I0715 11:51:25.455965  9326 net.cpp:90] Creating Layer pool1
I0715 11:51:25.455972  9326 net.cpp:410] pool1 <- conv1
I0715 11:51:25.455979  9326 net.cpp:368] pool1 -> pool1
I0715 11:51:25.456001  9326 net.cpp:120] Setting up pool1
I0715 11:51:25.456012  9326 net.cpp:127] Top shape: 50 96 27 27 (3499200)
I0715 11:51:25.456018  9326 layer_factory.hpp:74] Creating layer norm1
I0715 11:51:25.456027  9326 net.cpp:90] Creating Layer norm1
I0715 11:51:25.456034  9326 net.cpp:410] norm1 <- pool1
I0715 11:51:25.456042  9326 net.cpp:368] norm1 -> norm1
I0715 11:51:25.456050  9326 net.cpp:120] Setting up norm1
I0715 11:51:25.456058  9326 net.cpp:127] Top shape: 50 96 27 27 (3499200)
I0715 11:51:25.456065  9326 layer_factory.hpp:74] Creating layer conv2
I0715 11:51:25.456073  9326 net.cpp:90] Creating Layer conv2
I0715 11:51:25.456080  9326 net.cpp:410] conv2 <- norm1
I0715 11:51:25.456089  9326 net.cpp:368] conv2 -> conv2
I0715 11:51:25.456097  9326 net.cpp:120] Setting up conv2
I0715 11:51:25.464005  9326 net.cpp:127] Top shape: 50 256 27 27 (9331200)
I0715 11:51:25.464030  9326 layer_factory.hpp:74] Creating layer relu2
I0715 11:51:25.464041  9326 net.cpp:90] Creating Layer relu2
I0715 11:51:25.464047  9326 net.cpp:410] relu2 <- conv2
I0715 11:51:25.464057  9326 net.cpp:357] relu2 -> conv2 (in-place)
I0715 11:51:25.464066  9326 net.cpp:120] Setting up relu2
I0715 11:51:25.464074  9326 net.cpp:127] Top shape: 50 256 27 27 (9331200)
I0715 11:51:25.464081  9326 layer_factory.hpp:74] Creating layer pool2
I0715 11:51:25.464089  9326 net.cpp:90] Creating Layer pool2
I0715 11:51:25.464095  9326 net.cpp:410] pool2 <- conv2
I0715 11:51:25.464102  9326 net.cpp:368] pool2 -> pool2
I0715 11:51:25.464112  9326 net.cpp:120] Setting up pool2
I0715 11:51:25.464123  9326 net.cpp:127] Top shape: 50 256 13 13 (2163200)
I0715 11:51:25.464128  9326 layer_factory.hpp:74] Creating layer norm2
I0715 11:51:25.464138  9326 net.cpp:90] Creating Layer norm2
I0715 11:51:25.464146  9326 net.cpp:410] norm2 <- pool2
I0715 11:51:25.464155  9326 net.cpp:368] norm2 -> norm2
I0715 11:51:25.464164  9326 net.cpp:120] Setting up norm2
I0715 11:51:25.464175  9326 net.cpp:127] Top shape: 50 256 13 13 (2163200)
I0715 11:51:25.464181  9326 layer_factory.hpp:74] Creating layer conv3
I0715 11:51:25.464191  9326 net.cpp:90] Creating Layer conv3
I0715 11:51:25.464198  9326 net.cpp:410] conv3 <- norm2
I0715 11:51:25.464206  9326 net.cpp:368] conv3 -> conv3
I0715 11:51:25.464216  9326 net.cpp:120] Setting up conv3
I0715 11:51:25.486517  9326 net.cpp:127] Top shape: 50 384 13 13 (3244800)
I0715 11:51:25.486573  9326 layer_factory.hpp:74] Creating layer relu3
I0715 11:51:25.486588  9326 net.cpp:90] Creating Layer relu3
I0715 11:51:25.486594  9326 net.cpp:410] relu3 <- conv3
I0715 11:51:25.486603  9326 net.cpp:357] relu3 -> conv3 (in-place)
I0715 11:51:25.486613  9326 net.cpp:120] Setting up relu3
I0715 11:51:25.486620  9326 net.cpp:127] Top shape: 50 384 13 13 (3244800)
I0715 11:51:25.486626  9326 layer_factory.hpp:74] Creating layer conv4
I0715 11:51:25.486639  9326 net.cpp:90] Creating Layer conv4
I0715 11:51:25.486646  9326 net.cpp:410] conv4 <- conv3
I0715 11:51:25.486654  9326 net.cpp:368] conv4 -> conv4
I0715 11:51:25.486662  9326 net.cpp:120] Setting up conv4
I0715 11:51:25.503645  9326 net.cpp:127] Top shape: 50 384 13 13 (3244800)
I0715 11:51:25.503684  9326 layer_factory.hpp:74] Creating layer relu4
I0715 11:51:25.503723  9326 net.cpp:90] Creating Layer relu4
I0715 11:51:25.503732  9326 net.cpp:410] relu4 <- conv4
I0715 11:51:25.503741  9326 net.cpp:357] relu4 -> conv4 (in-place)
I0715 11:51:25.503752  9326 net.cpp:120] Setting up relu4
I0715 11:51:25.503762  9326 net.cpp:127] Top shape: 50 384 13 13 (3244800)
I0715 11:51:25.503767  9326 layer_factory.hpp:74] Creating layer conv5
I0715 11:51:25.503777  9326 net.cpp:90] Creating Layer conv5
I0715 11:51:25.503783  9326 net.cpp:410] conv5 <- conv4
I0715 11:51:25.503790  9326 net.cpp:368] conv5 -> conv5
I0715 11:51:25.503799  9326 net.cpp:120] Setting up conv5
I0715 11:51:25.514998  9326 net.cpp:127] Top shape: 50 256 13 13 (2163200)
I0715 11:51:25.515019  9326 layer_factory.hpp:74] Creating layer relu5
I0715 11:51:25.515029  9326 net.cpp:90] Creating Layer relu5
I0715 11:51:25.515035  9326 net.cpp:410] relu5 <- conv5
I0715 11:51:25.515043  9326 net.cpp:357] relu5 -> conv5 (in-place)
I0715 11:51:25.515051  9326 net.cpp:120] Setting up relu5
I0715 11:51:25.515058  9326 net.cpp:127] Top shape: 50 256 13 13 (2163200)
I0715 11:51:25.515064  9326 layer_factory.hpp:74] Creating layer pool5
I0715 11:51:25.515076  9326 net.cpp:90] Creating Layer pool5
I0715 11:51:25.515082  9326 net.cpp:410] pool5 <- conv5
I0715 11:51:25.515089  9326 net.cpp:368] pool5 -> pool5
I0715 11:51:25.515099  9326 net.cpp:120] Setting up pool5
I0715 11:51:25.515110  9326 net.cpp:127] Top shape: 50 256 6 6 (460800)
I0715 11:51:25.515115  9326 layer_factory.hpp:74] Creating layer fc6
I0715 11:51:25.515125  9326 net.cpp:90] Creating Layer fc6
I0715 11:51:25.515130  9326 net.cpp:410] fc6 <- pool5
I0715 11:51:25.515139  9326 net.cpp:368] fc6 -> fc6
I0715 11:51:25.515148  9326 net.cpp:120] Setting up fc6
I0715 11:51:26.437230  9326 net.cpp:127] Top shape: 50 4096 (204800)
I0715 11:51:26.437260  9326 layer_factory.hpp:74] Creating layer relu6
I0715 11:51:26.437273  9326 net.cpp:90] Creating Layer relu6
I0715 11:51:26.437279  9326 net.cpp:410] relu6 <- fc6
I0715 11:51:26.437293  9326 net.cpp:357] relu6 -> fc6 (in-place)
I0715 11:51:26.437302  9326 net.cpp:120] Setting up relu6
I0715 11:51:26.437310  9326 net.cpp:127] Top shape: 50 4096 (204800)
I0715 11:51:26.437316  9326 layer_factory.hpp:74] Creating layer drop6
I0715 11:51:26.437325  9326 net.cpp:90] Creating Layer drop6
I0715 11:51:26.437330  9326 net.cpp:410] drop6 <- fc6
I0715 11:51:26.437336  9326 net.cpp:357] drop6 -> fc6 (in-place)
I0715 11:51:26.437348  9326 net.cpp:120] Setting up drop6
I0715 11:51:26.437356  9326 net.cpp:127] Top shape: 50 4096 (204800)
I0715 11:51:26.437363  9326 layer_factory.hpp:74] Creating layer fc7
I0715 11:51:26.437374  9326 net.cpp:90] Creating Layer fc7
I0715 11:51:26.437382  9326 net.cpp:410] fc7 <- fc6
I0715 11:51:26.437389  9326 net.cpp:368] fc7 -> fc7
I0715 11:51:26.437399  9326 net.cpp:120] Setting up fc7
I0715 11:51:26.847723  9326 net.cpp:127] Top shape: 50 4096 (204800)
I0715 11:51:26.847754  9326 layer_factory.hpp:74] Creating layer relu7
I0715 11:51:26.847766  9326 net.cpp:90] Creating Layer relu7
I0715 11:51:26.847774  9326 net.cpp:410] relu7 <- fc7
I0715 11:51:26.847781  9326 net.cpp:357] relu7 -> fc7 (in-place)
I0715 11:51:26.847791  9326 net.cpp:120] Setting up relu7
I0715 11:51:26.847800  9326 net.cpp:127] Top shape: 50 4096 (204800)
I0715 11:51:26.847805  9326 layer_factory.hpp:74] Creating layer drop7
I0715 11:51:26.847816  9326 net.cpp:90] Creating Layer drop7
I0715 11:51:26.847821  9326 net.cpp:410] drop7 <- fc7
I0715 11:51:26.847828  9326 net.cpp:357] drop7 -> fc7 (in-place)
I0715 11:51:26.847836  9326 net.cpp:120] Setting up drop7
I0715 11:51:26.847846  9326 net.cpp:127] Top shape: 50 4096 (204800)
I0715 11:51:26.847852  9326 layer_factory.hpp:74] Creating layer fc8_flickr
I0715 11:51:26.847865  9326 net.cpp:90] Creating Layer fc8_flickr
I0715 11:51:26.847874  9326 net.cpp:410] fc8_flickr <- fc7
I0715 11:51:26.847883  9326 net.cpp:368] fc8_flickr -> fc8_flickr
I0715 11:51:26.847898  9326 net.cpp:120] Setting up fc8_flickr
I0715 11:51:26.865165  9326 net.cpp:127] Top shape: 50 167 (8350)
I0715 11:51:26.865198  9326 layer_factory.hpp:74] Creating layer fc8_flickr_fc8_flickr_0_split
I0715 11:51:26.865208  9326 net.cpp:90] Creating Layer fc8_flickr_fc8_flickr_0_split
I0715 11:51:26.865216  9326 net.cpp:410] fc8_flickr_fc8_flickr_0_split <- fc8_flickr
I0715 11:51:26.865222  9326 net.cpp:368] fc8_flickr_fc8_flickr_0_split -> fc8_flickr_fc8_flickr_0_split_0
I0715 11:51:26.865234  9326 net.cpp:368] fc8_flickr_fc8_flickr_0_split -> fc8_flickr_fc8_flickr_0_split_1
I0715 11:51:26.865242  9326 net.cpp:120] Setting up fc8_flickr_fc8_flickr_0_split
I0715 11:51:26.865252  9326 net.cpp:127] Top shape: 50 167 (8350)
I0715 11:51:26.865258  9326 net.cpp:127] Top shape: 50 167 (8350)
I0715 11:51:26.865264  9326 layer_factory.hpp:74] Creating layer loss
I0715 11:51:26.865274  9326 net.cpp:90] Creating Layer loss
I0715 11:51:26.865280  9326 net.cpp:410] loss <- fc8_flickr_fc8_flickr_0_split_0
I0715 11:51:26.865286  9326 net.cpp:410] loss <- label_data_1_split_0
I0715 11:51:26.865298  9326 net.cpp:368] loss -> (automatic)
I0715 11:51:26.865306  9326 net.cpp:120] Setting up loss
…
