…
I0716 07:15:01.755514  6906 net.cpp:287] The NetState phase (0) differed from the phase (1) specified by a rule in layer accuracy
I0716 07:15:01.755673  6906 net.cpp:42] Initializing net from parameters: 
name: "LogoCaffeNet"
state {
  phase: TRAIN
}
layer {
  name: "data"
  type: "ImageData"
  top: "data"
  top: "label"
  include {
    phase: TRAIN
  }
  transform_param {
    mirror: true
    crop_size: 227
    mean_file: "data/ilsvrc12/imagenet_mean.binaryproto"
  }
  image_data_param {
    source: "/home/rips_tc/caffe/data/logos/train.txt"
    batch_size: 50
    new_height: 256
    new_width: 256
  }
}
layer {
  name: "conv1"
  type: "Convolution"
  bottom: "data"
  top: "conv1"
  param {
    lr_mult: 0.5
    decay_mult: 1
  }
  param {
    lr_mult: 1
    decay_mult: 0
  }
  convolution_param {
    num_output: 96
    kernel_size: 11
    stride: 4
    weight_filler {
      type: "gaussian"
      std: 0.01
    }
    bias_filler {
      type: "constant"
      value: 0
    }
  }
}
layer {
  name: "relu1"
  type: "ReLU"
  bottom: "conv1"
  top: "conv1"
}
layer {
  name: "pool1"
  type: "Pooling"
  bottom: "conv1"
  top: "pool1"
  pooling_param {
    pool: MAX
    kernel_size: 3
    stride: 2
  }
}
layer {
  name: "norm1"
  type: "LRN"
  bottom: "pool1"
  top: "norm1"
  lrn_param {
    local_size: 5
    alpha: 0.0001
    beta: 0.75
  }
}
layer {
  name: "conv2"
  type: "Convolution"
  bottom: "norm1"
  top: "conv2"
  param {
    lr_mult: 0.5
    decay_mult: 1
  }
  param {
    lr_mult: 1
    decay_mult: 0
  }
  convolution_param {
    num_output: 256
    pad: 2
    kernel_size: 5
    group: 2
    weight_filler {
      type: "gaussian"
      std: 0.01
    }
    bias_filler {
      type: "constant"
      value: 1
    }
  }
}
layer {
  name: "relu2"
  type: "ReLU"
  bottom: "conv2"
  top: "conv2"
}
layer {
  name: "pool2"
  type: "Pooling"
  bottom: "conv2"
  top: "pool2"
  pooling_param {
    pool: MAX
    kernel_size: 3
    stride: 2
  }
}
layer {
  name: "norm2"
  type: "LRN"
  bottom: "pool2"
  top: "norm2"
  lrn_param {
    local_size: 5
    alpha: 0.0001
    beta: 0.75
  }
}
layer {
  name: "conv3"
  type: "Convolution"
  bottom: "norm2"
  top: "conv3"
  param {
    lr_mult: 0.5
    decay_mult: 1
  }
  param {
    lr_mult: 1
    decay_mult: 0
  }
  convolution_param {
    num_output: 384
    pad: 1
    kernel_size: 3
    weight_filler {
      type: "gaussian"
      std: 0.01
    }
    bias_filler {
      type: "constant"
      value: 0
    }
  }
}
layer {
  name: "relu3"
  type: "ReLU"
  bottom: "conv3"
  top: "conv3"
}
layer {
  name: "conv4"
  type: "Convolution"
  bottom: "conv3"
  top: "conv4"
  param {
    lr_mult: 0.5
    decay_mult: 1
  }
  param {
    lr_mult: 1
    decay_mult: 0
  }
  convolution_param {
    num_output: 384
    pad: 1
    kernel_size: 3
    group: 2
    weight_filler {
      type: "gaussian"
      std: 0.01
    }
    bias_filler {
      type: "constant"
      value: 1
    }
  }
}
layer {
  name: "relu4"
  type: "ReLU"
  bottom: "conv4"
  top: "conv4"
}
layer {
  name: "conv5"
  type: "Convolution"
  bottom: "conv4"
  top: "conv5"
  param {
    lr_mult: 0.5
    decay_mult: 1
  }
  param {
    lr_mult: 1
    decay_mult: 0
  }
  convolution_param {
    num_output: 256
    pad: 1
    kernel_size: 3
    group: 2
    weight_filler {
      type: "gaussian"
      std: 0.01
    }
    bias_filler {
      type: "constant"
      value: 1
    }
  }
}
layer {
  name: "relu5"
  type: "ReLU"
  bottom: "conv5"
  top: "conv5"
}
layer {
  name: "pool5"
  type: "Pooling"
  bottom: "conv5"
  top: "pool5"
  pooling_param {
    pool: MAX
    kernel_size: 3
    stride: 2
  }
}
layer {
  name: "fc6"
  type: "InnerProduct"
  bottom: "pool5"
  top: "fc6"
  param {
    lr_mult: 1
    decay_mult: 1
  }
  param {
    lr_mult: 2
    decay_mult: 0
  }
  inner_product_param {
    num_output: 4096
    weight_filler {
      type: "gaussian"
      std: 0.005
    }
    bias_filler {
      type: "constant"
      value: 1
    }
  }
}
layer {
  name: "relu6"
  type: "ReLU"
  bottom: "fc6"
  top: "fc6"
}
layer {
  name: "drop6"
  type: "Dropout"
  bottom: "fc6"
  top: "fc6"
  dropout_param {
    dropout_ratio: 0.5
  }
}
layer {
  name: "fc7"
  type: "InnerProduct"
  bottom: "fc6"
  top: "fc7"
  param {
    lr_mult: 2
    decay_mult: 1
  }
  param {
    lr_mult: 4
    decay_mult: 0
  }
  inner_product_param {
    num_output: 4096
    weight_filler {
      type: "gaussian"
      std: 0.005
    }
    bias_filler {
      type: "constant"
      value: 1
    }
  }
}
layer {
  name: "relu7"
  type: "ReLU"
  bottom: "fc7"
  top: "fc7"
}
layer {
  name: "drop7"
  type: "Dropout"
  bottom: "fc7"
  top: "fc7"
  dropout_param {
    dropout_ratio: 0.5
  }
}
layer {
  name: "fc8_flickr"
  type: "InnerProduct"
  bottom: "fc7"
  top: "fc8_flickr"
  param {
    lr_mult: 20
    decay_mult: 1
  }
  param {
    lr_mult: 20
    decay_mult: 1
  }
  inner_product_param {
    num_output: 167
    weight_filler {
      type: "gaussian"
      std: 0.01
    }
    bias_filler {
      type: "constant"
      value: 0
    }
  }
}
layer {
  name: "loss"
  type: "SoftmaxWithLoss"
  bottom: "fc8_flickr"
  bottom: "label"
}
I0716 07:15:01.755794  6906 layer_factory.hpp:74] Creating layer data
I0716 07:15:01.755820  6906 net.cpp:90] Creating Layer data
I0716 07:15:01.755830  6906 net.cpp:368] data -> data
I0716 07:15:01.755853  6906 net.cpp:368] data -> label
I0716 07:15:01.755867  6906 net.cpp:120] Setting up data
I0716 07:15:01.755875  6906 data_transformer.cpp:22] Loading mean file from: data/ilsvrc12/imagenet_mean.binaryproto
I0716 07:15:01.757561  6906 image_data_layer.cpp:36] Opening file /home/rips_tc/caffe/data/logos/train.txt
I0716 07:15:01.761934  6906 image_data_layer.cpp:51] A total of 12218 images.
I0716 07:15:01.765717  6906 image_data_layer.cpp:74] output data size: 50,3,227,227
I0716 07:15:01.772907  6906 net.cpp:127] Top shape: 50 3 227 227 (7729350)
I0716 07:15:01.772940  6906 net.cpp:127] Top shape: 50 (50)
I0716 07:15:01.772950  6906 layer_factory.hpp:74] Creating layer conv1
I0716 07:15:01.772982  6906 net.cpp:90] Creating Layer conv1
I0716 07:15:01.772994  6906 net.cpp:410] conv1 <- data
I0716 07:15:01.773007  6906 net.cpp:368] conv1 -> conv1
I0716 07:15:01.773025  6906 net.cpp:120] Setting up conv1
I0716 07:15:01.773937  6906 net.cpp:127] Top shape: 50 96 55 55 (14520000)
I0716 07:15:01.773953  6906 layer_factory.hpp:74] Creating layer relu1
I0716 07:15:01.773963  6906 net.cpp:90] Creating Layer relu1
I0716 07:15:01.773970  6906 net.cpp:410] relu1 <- conv1
I0716 07:15:01.773977  6906 net.cpp:357] relu1 -> conv1 (in-place)
I0716 07:15:01.773985  6906 net.cpp:120] Setting up relu1
I0716 07:15:01.773999  6906 net.cpp:127] Top shape: 50 96 55 55 (14520000)
I0716 07:15:01.774005  6906 layer_factory.hpp:74] Creating layer pool1
I0716 07:15:01.774014  6906 net.cpp:90] Creating Layer pool1
I0716 07:15:01.774020  6906 net.cpp:410] pool1 <- conv1
I0716 07:15:01.774027  6906 net.cpp:368] pool1 -> pool1
I0716 07:15:01.774037  6906 net.cpp:120] Setting up pool1
I0716 07:15:01.774057  6906 net.cpp:127] Top shape: 50 96 27 27 (3499200)
I0716 07:15:01.774065  6906 layer_factory.hpp:74] Creating layer norm1
I0716 07:15:01.774075  6906 net.cpp:90] Creating Layer norm1
I0716 07:15:01.774082  6906 net.cpp:410] norm1 <- pool1
I0716 07:15:01.774090  6906 net.cpp:368] norm1 -> norm1
I0716 07:15:01.774101  6906 net.cpp:120] Setting up norm1
I0716 07:15:01.774109  6906 net.cpp:127] Top shape: 50 96 27 27 (3499200)
I0716 07:15:01.774132  6906 layer_factory.hpp:74] Creating layer conv2
I0716 07:15:01.774143  6906 net.cpp:90] Creating Layer conv2
I0716 07:15:01.774150  6906 net.cpp:410] conv2 <- norm1
I0716 07:15:01.774159  6906 net.cpp:368] conv2 -> conv2
I0716 07:15:01.774168  6906 net.cpp:120] Setting up conv2
I0716 07:15:01.782377  6906 net.cpp:127] Top shape: 50 256 27 27 (9331200)
I0716 07:15:01.782400  6906 layer_factory.hpp:74] Creating layer relu2
I0716 07:15:01.782410  6906 net.cpp:90] Creating Layer relu2
I0716 07:15:01.782416  6906 net.cpp:410] relu2 <- conv2
I0716 07:15:01.782426  6906 net.cpp:357] relu2 -> conv2 (in-place)
I0716 07:15:01.782438  6906 net.cpp:120] Setting up relu2
I0716 07:15:01.782445  6906 net.cpp:127] Top shape: 50 256 27 27 (9331200)
I0716 07:15:01.782452  6906 layer_factory.hpp:74] Creating layer pool2
I0716 07:15:01.782462  6906 net.cpp:90] Creating Layer pool2
I0716 07:15:01.782469  6906 net.cpp:410] pool2 <- conv2
I0716 07:15:01.782475  6906 net.cpp:368] pool2 -> pool2
I0716 07:15:01.782485  6906 net.cpp:120] Setting up pool2
I0716 07:15:01.782495  6906 net.cpp:127] Top shape: 50 256 13 13 (2163200)
I0716 07:15:01.782501  6906 layer_factory.hpp:74] Creating layer norm2
I0716 07:15:01.782510  6906 net.cpp:90] Creating Layer norm2
I0716 07:15:01.782517  6906 net.cpp:410] norm2 <- pool2
I0716 07:15:01.782536  6906 net.cpp:368] norm2 -> norm2
I0716 07:15:01.782546  6906 net.cpp:120] Setting up norm2
I0716 07:15:01.782557  6906 net.cpp:127] Top shape: 50 256 13 13 (2163200)
I0716 07:15:01.782574  6906 layer_factory.hpp:74] Creating layer conv3
I0716 07:15:01.782583  6906 net.cpp:90] Creating Layer conv3
I0716 07:15:01.782588  6906 net.cpp:410] conv3 <- norm2
I0716 07:15:01.782596  6906 net.cpp:368] conv3 -> conv3
I0716 07:15:01.782608  6906 net.cpp:120] Setting up conv3
I0716 07:15:01.804844  6906 net.cpp:127] Top shape: 50 384 13 13 (3244800)
I0716 07:15:01.804883  6906 layer_factory.hpp:74] Creating layer relu3
I0716 07:15:01.804894  6906 net.cpp:90] Creating Layer relu3
I0716 07:15:01.804901  6906 net.cpp:410] relu3 <- conv3
I0716 07:15:01.804909  6906 net.cpp:357] relu3 -> conv3 (in-place)
I0716 07:15:01.804921  6906 net.cpp:120] Setting up relu3
I0716 07:15:01.804929  6906 net.cpp:127] Top shape: 50 384 13 13 (3244800)
I0716 07:15:01.804936  6906 layer_factory.hpp:74] Creating layer conv4
I0716 07:15:01.804949  6906 net.cpp:90] Creating Layer conv4
I0716 07:15:01.804955  6906 net.cpp:410] conv4 <- conv3
I0716 07:15:01.804965  6906 net.cpp:368] conv4 -> conv4
I0716 07:15:01.804973  6906 net.cpp:120] Setting up conv4
I0716 07:15:01.821629  6906 net.cpp:127] Top shape: 50 384 13 13 (3244800)
I0716 07:15:01.821650  6906 layer_factory.hpp:74] Creating layer relu4
I0716 07:15:01.821660  6906 net.cpp:90] Creating Layer relu4
I0716 07:15:01.821667  6906 net.cpp:410] relu4 <- conv4
I0716 07:15:01.821676  6906 net.cpp:357] relu4 -> conv4 (in-place)
I0716 07:15:01.821684  6906 net.cpp:120] Setting up relu4
I0716 07:15:01.821697  6906 net.cpp:127] Top shape: 50 384 13 13 (3244800)
I0716 07:15:01.821704  6906 layer_factory.hpp:74] Creating layer conv5
I0716 07:15:01.821714  6906 net.cpp:90] Creating Layer conv5
I0716 07:15:01.821722  6906 net.cpp:410] conv5 <- conv4
I0716 07:15:01.821728  6906 net.cpp:368] conv5 -> conv5
I0716 07:15:01.821738  6906 net.cpp:120] Setting up conv5
I0716 07:15:01.832599  6906 net.cpp:127] Top shape: 50 256 13 13 (2163200)
I0716 07:15:01.832631  6906 layer_factory.hpp:74] Creating layer relu5
I0716 07:15:01.832641  6906 net.cpp:90] Creating Layer relu5
I0716 07:15:01.832646  6906 net.cpp:410] relu5 <- conv5
I0716 07:15:01.832654  6906 net.cpp:357] relu5 -> conv5 (in-place)
I0716 07:15:01.832665  6906 net.cpp:120] Setting up relu5
I0716 07:15:01.832674  6906 net.cpp:127] Top shape: 50 256 13 13 (2163200)
I0716 07:15:01.832680  6906 layer_factory.hpp:74] Creating layer pool5
I0716 07:15:01.832690  6906 net.cpp:90] Creating Layer pool5
I0716 07:15:01.832696  6906 net.cpp:410] pool5 <- conv5
I0716 07:15:01.832705  6906 net.cpp:368] pool5 -> pool5
I0716 07:15:01.832712  6906 net.cpp:120] Setting up pool5
I0716 07:15:01.832754  6906 net.cpp:127] Top shape: 50 256 6 6 (460800)
I0716 07:15:01.832762  6906 layer_factory.hpp:74] Creating layer fc6
I0716 07:15:01.832774  6906 net.cpp:90] Creating Layer fc6
I0716 07:15:01.832782  6906 net.cpp:410] fc6 <- pool5
I0716 07:15:01.832788  6906 net.cpp:368] fc6 -> fc6
I0716 07:15:01.832803  6906 net.cpp:120] Setting up fc6
I0716 07:15:04.537606  6906 net.cpp:127] Top shape: 50 4096 (204800)
I0716 07:15:04.537647  6906 layer_factory.hpp:74] Creating layer relu6
I0716 07:15:04.537660  6906 net.cpp:90] Creating Layer relu6
I0716 07:15:04.537668  6906 net.cpp:410] relu6 <- fc6
I0716 07:15:04.537678  6906 net.cpp:357] relu6 -> fc6 (in-place)
I0716 07:15:04.537688  6906 net.cpp:120] Setting up relu6
I0716 07:15:04.537698  6906 net.cpp:127] Top shape: 50 4096 (204800)
I0716 07:15:04.537704  6906 layer_factory.hpp:74] Creating layer drop6
I0716 07:15:04.537714  6906 net.cpp:90] Creating Layer drop6
I0716 07:15:04.537720  6906 net.cpp:410] drop6 <- fc6
I0716 07:15:04.537726  6906 net.cpp:357] drop6 -> fc6 (in-place)
I0716 07:15:04.537739  6906 net.cpp:120] Setting up drop6
I0716 07:15:04.537751  6906 net.cpp:127] Top shape: 50 4096 (204800)
I0716 07:15:04.537758  6906 layer_factory.hpp:74] Creating layer fc7
I0716 07:15:04.537767  6906 net.cpp:90] Creating Layer fc7
I0716 07:15:04.537775  6906 net.cpp:410] fc7 <- fc6
I0716 07:15:04.537781  6906 net.cpp:368] fc7 -> fc7
I0716 07:15:04.537792  6906 net.cpp:120] Setting up fc7
I0716 07:15:04.955230  6906 net.cpp:127] Top shape: 50 4096 (204800)
I0716 07:15:04.955266  6906 layer_factory.hpp:74] Creating layer relu7
I0716 07:15:04.955279  6906 net.cpp:90] Creating Layer relu7
I0716 07:15:04.955286  6906 net.cpp:410] relu7 <- fc7
I0716 07:15:04.955296  6906 net.cpp:357] relu7 -> fc7 (in-place)
I0716 07:15:04.955306  6906 net.cpp:120] Setting up relu7
I0716 07:15:04.955314  6906 net.cpp:127] Top shape: 50 4096 (204800)
I0716 07:15:04.955320  6906 layer_factory.hpp:74] Creating layer drop7
I0716 07:15:04.955330  6906 net.cpp:90] Creating Layer drop7
I0716 07:15:04.955337  6906 net.cpp:410] drop7 <- fc7
I0716 07:15:04.955343  6906 net.cpp:357] drop7 -> fc7 (in-place)
I0716 07:15:04.955351  6906 net.cpp:120] Setting up drop7
I0716 07:15:04.955361  6906 net.cpp:127] Top shape: 50 4096 (204800)
I0716 07:15:04.955368  6906 layer_factory.hpp:74] Creating layer fc8_flickr
I0716 07:15:04.955377  6906 net.cpp:90] Creating Layer fc8_flickr
I0716 07:15:04.955384  6906 net.cpp:410] fc8_flickr <- fc7
I0716 07:15:04.955394  6906 net.cpp:368] fc8_flickr -> fc8_flickr
I0716 07:15:04.955404  6906 net.cpp:120] Setting up fc8_flickr
I0716 07:15:04.972404  6906 net.cpp:127] Top shape: 50 167 (8350)
I0716 07:15:04.972416  6906 layer_factory.hpp:74] Creating layer loss
I0716 07:15:04.972434  6906 net.cpp:90] Creating Layer loss
I0716 07:15:04.972440  6906 net.cpp:410] loss <- fc8_flickr
I0716 07:15:04.972447  6906 net.cpp:410] loss <- label
I0716 07:15:04.972460  6906 net.cpp:368] loss -> (automatic)
I0716 07:15:04.972470  6906 net.cpp:120] Setting up loss
I0716 07:15:04.972478  6906 layer_factory.hpp:74] Creating layer loss
…
I0716 07:15:04.973387  6906 net.cpp:287] The NetState phase (1) differed from the phase (0) specified by a rule in layer data
I0716 07:15:04.973561  6906 net.cpp:42] Initializing net from parameters: 
name: "LogoCaffeNet"
state {
  phase: TEST
}
layer {
  name: "data"
  type: "ImageData"
  top: "data"
  top: "label"
  include {
    phase: TEST
  }
  transform_param {
    mirror: false
    crop_size: 227
    mean_file: "data/ilsvrc12/imagenet_mean.binaryproto"
  }
  image_data_param {
    source: "/home/rips_tc/caffe/data/logos/test.txt"
    batch_size: 50
    new_height: 256
    new_width: 256
  }
}
layer {
  name: "conv1"
  type: "Convolution"
  bottom: "data"
  top: "conv1"
  param {
    lr_mult: 0.5
    decay_mult: 1
  }
  param {
    lr_mult: 1
    decay_mult: 0
  }
  convolution_param {
    num_output: 96
    kernel_size: 11
    stride: 4
    weight_filler {
      type: "gaussian"
      std: 0.01
    }
    bias_filler {
      type: "constant"
      value: 0
    }
  }
}
layer {
  name: "relu1"
  type: "ReLU"
  bottom: "conv1"
  top: "conv1"
}
layer {
  name: "pool1"
  type: "Pooling"
  bottom: "conv1"
  top: "pool1"
  pooling_param {
    pool: MAX
    kernel_size: 3
    stride: 2
  }
}
layer {
  name: "norm1"
  type: "LRN"
  bottom: "pool1"
  top: "norm1"
  lrn_param {
    local_size: 5
    alpha: 0.0001
    beta: 0.75
  }
}
layer {
  name: "conv2"
  type: "Convolution"
  bottom: "norm1"
  top: "conv2"
  param {
    lr_mult: 0.5
    decay_mult: 1
  }
  param {
    lr_mult: 1
    decay_mult: 0
  }
  convolution_param {
    num_output: 256
    pad: 2
    kernel_size: 5
    group: 2
    weight_filler {
      type: "gaussian"
      std: 0.01
    }
    bias_filler {
      type: "constant"
      value: 1
    }
  }
}
layer {
  name: "relu2"
  type: "ReLU"
  bottom: "conv2"
  top: "conv2"
}
layer {
  name: "pool2"
  type: "Pooling"
  bottom: "conv2"
  top: "pool2"
  pooling_param {
    pool: MAX
    kernel_size: 3
    stride: 2
  }
}
layer {
  name: "norm2"
  type: "LRN"
  bottom: "pool2"
  top: "norm2"
  lrn_param {
    local_size: 5
    alpha: 0.0001
    beta: 0.75
  }
}
layer {
  name: "conv3"
  type: "Convolution"
  bottom: "norm2"
  top: "conv3"
  param {
    lr_mult: 0.5
    decay_mult: 1
  }
  param {
    lr_mult: 1
    decay_mult: 0
  }
  convolution_param {
    num_output: 384
    pad: 1
    kernel_size: 3
    weight_filler {
      type: "gaussian"
      std: 0.01
    }
    bias_filler {
      type: "constant"
      value: 0
    }
  }
}
layer {
  name: "relu3"
  type: "ReLU"
  bottom: "conv3"
  top: "conv3"
}
layer {
  name: "conv4"
  type: "Convolution"
  bottom: "conv3"
  top: "conv4"
  param {
    lr_mult: 0.5
    decay_mult: 1
  }
  param {
    lr_mult: 1
    decay_mult: 0
  }
  convolution_param {
    num_output: 384
    pad: 1
    kernel_size: 3
    group: 2
    weight_filler {
      type: "gaussian"
      std: 0.01
    }
    bias_filler {
      type: "constant"
      value: 1
    }
  }
}
layer {
  name: "relu4"
  type: "ReLU"
  bottom: "conv4"
  top: "conv4"
}
layer {
  name: "conv5"
  type: "Convolution"
  bottom: "conv4"
  top: "conv5"
  param {
    lr_mult: 0.5
    decay_mult: 1
  }
  param {
    lr_mult: 1
    decay_mult: 0
  }
  convolution_param {
    num_output: 256
    pad: 1
    kernel_size: 3
    group: 2
    weight_filler {
      type: "gaussian"
      std: 0.01
    }
    bias_filler {
      type: "constant"
      value: 1
    }
  }
}
layer {
  name: "relu5"
  type: "ReLU"
  bottom: "conv5"
  top: "conv5"
}
layer {
  name: "pool5"
  type: "Pooling"
  bottom: "conv5"
  top: "pool5"
  pooling_param {
    pool: MAX
    kernel_size: 3
    stride: 2
  }
}
layer {
  name: "fc6"
  type: "InnerProduct"
  bottom: "pool5"
  top: "fc6"
  param {
    lr_mult: 1
    decay_mult: 1
  }
  param {
    lr_mult: 2
    decay_mult: 0
  }
  inner_product_param {
    num_output: 4096
    weight_filler {
      type: "gaussian"
      std: 0.005
    }
    bias_filler {
      type: "constant"
      value: 1
    }
  }
}
layer {
  name: "relu6"
  type: "ReLU"
  bottom: "fc6"
  top: "fc6"
}
layer {
  name: "drop6"
  type: "Dropout"
  bottom: "fc6"
  top: "fc6"
  dropout_param {
    dropout_ratio: 0.5
  }
}
layer {
  name: "fc7"
  type: "InnerProduct"
  bottom: "fc6"
  top: "fc7"
  param {
    lr_mult: 2
    decay_mult: 1
  }
  param {
    lr_mult: 4
    decay_mult: 0
  }
  inner_product_param {
    num_output: 4096
    weight_filler {
      type: "gaussian"
      std: 0.005
    }
    bias_filler {
      type: "constant"
      value: 1
    }
  }
}
layer {
  name: "relu7"
  type: "ReLU"
  bottom: "fc7"
  top: "fc7"
}
layer {
  name: "drop7"
  type: "Dropout"
  bottom: "fc7"
  top: "fc7"
  dropout_param {
    dropout_ratio: 0.5
  }
}
layer {
  name: "fc8_flickr"
  type: "InnerProduct"
  bottom: "fc7"
  top: "fc8_flickr"
  param {
    lr_mult: 20
    decay_mult: 1
  }
  param {
    lr_mult: 20
    decay_mult: 1
  }
  inner_product_param {
    num_output: 167
    weight_filler {
      type: "gaussian"
      std: 0.01
    }
    bias_filler {
      type: "constant"
      value: 0
    }
  }
}
layer {
  name: "loss"
  type: "SoftmaxWithLoss"
  bottom: "fc8_flickr"
  bottom: "label"
}
layer {
  name: "accuracy"
  type: "Accuracy"
  bottom: "fc8_flickr"
  bottom: "label"
  top: "accuracy"
  include {
    phase: TEST
  }
  accuracy_param {
    top_k: 3
  }
}
I0716 07:15:04.973673  6906 layer_factory.hpp:74] Creating layer data
I0716 07:15:04.973688  6906 net.cpp:90] Creating Layer data
I0716 07:15:04.973696  6906 net.cpp:368] data -> data
I0716 07:15:04.973707  6906 net.cpp:368] data -> label
I0716 07:15:04.973717  6906 net.cpp:120] Setting up data
I0716 07:15:04.973724  6906 data_transformer.cpp:22] Loading mean file from: data/ilsvrc12/imagenet_mean.binaryproto
I0716 07:15:04.975052  6906 image_data_layer.cpp:36] Opening file /home/rips_tc/caffe/data/logos/test.txt
I0716 07:15:04.975564  6906 image_data_layer.cpp:51] A total of 1359 images.
I0716 07:15:04.976397  6906 image_data_layer.cpp:74] output data size: 50,3,227,227
I0716 07:15:04.983439  6906 net.cpp:127] Top shape: 50 3 227 227 (7729350)
I0716 07:15:04.983471  6906 net.cpp:127] Top shape: 50 (50)
I0716 07:15:04.983481  6906 layer_factory.hpp:74] Creating layer label_data_1_split
I0716 07:15:04.983510  6906 net.cpp:90] Creating Layer label_data_1_split
I0716 07:15:04.983517  6906 net.cpp:410] label_data_1_split <- label
I0716 07:15:04.983533  6906 net.cpp:368] label_data_1_split -> label_data_1_split_0
I0716 07:15:04.983561  6906 net.cpp:368] label_data_1_split -> label_data_1_split_1
I0716 07:15:04.983571  6906 net.cpp:120] Setting up label_data_1_split
I0716 07:15:04.983582  6906 net.cpp:127] Top shape: 50 (50)
I0716 07:15:04.983589  6906 net.cpp:127] Top shape: 50 (50)
I0716 07:15:04.983597  6906 layer_factory.hpp:74] Creating layer conv1
I0716 07:15:04.983609  6906 net.cpp:90] Creating Layer conv1
I0716 07:15:04.983633  6906 net.cpp:410] conv1 <- data
I0716 07:15:04.983644  6906 net.cpp:368] conv1 -> conv1
I0716 07:15:04.983654  6906 net.cpp:120] Setting up conv1
I0716 07:15:04.984545  6906 net.cpp:127] Top shape: 50 96 55 55 (14520000)
I0716 07:15:04.984560  6906 layer_factory.hpp:74] Creating layer relu1
I0716 07:15:04.984568  6906 net.cpp:90] Creating Layer relu1
I0716 07:15:04.984573  6906 net.cpp:410] relu1 <- conv1
I0716 07:15:04.984580  6906 net.cpp:357] relu1 -> conv1 (in-place)
I0716 07:15:04.984587  6906 net.cpp:120] Setting up relu1
I0716 07:15:04.984597  6906 net.cpp:127] Top shape: 50 96 55 55 (14520000)
I0716 07:15:04.984603  6906 layer_factory.hpp:74] Creating layer pool1
I0716 07:15:04.984613  6906 net.cpp:90] Creating Layer pool1
I0716 07:15:04.984621  6906 net.cpp:410] pool1 <- conv1
I0716 07:15:04.984627  6906 net.cpp:368] pool1 -> pool1
I0716 07:15:04.984635  6906 net.cpp:120] Setting up pool1
I0716 07:15:04.984647  6906 net.cpp:127] Top shape: 50 96 27 27 (3499200)
I0716 07:15:04.984653  6906 layer_factory.hpp:74] Creating layer norm1
I0716 07:15:04.984661  6906 net.cpp:90] Creating Layer norm1
I0716 07:15:04.984668  6906 net.cpp:410] norm1 <- pool1
I0716 07:15:04.984675  6906 net.cpp:368] norm1 -> norm1
I0716 07:15:04.984683  6906 net.cpp:120] Setting up norm1
I0716 07:15:04.984693  6906 net.cpp:127] Top shape: 50 96 27 27 (3499200)
I0716 07:15:04.984699  6906 layer_factory.hpp:74] Creating layer conv2
I0716 07:15:04.984709  6906 net.cpp:90] Creating Layer conv2
I0716 07:15:04.984715  6906 net.cpp:410] conv2 <- norm1
I0716 07:15:04.984724  6906 net.cpp:368] conv2 -> conv2
I0716 07:15:04.984731  6906 net.cpp:120] Setting up conv2
I0716 07:15:04.992353  6906 net.cpp:127] Top shape: 50 256 27 27 (9331200)
I0716 07:15:04.992369  6906 layer_factory.hpp:74] Creating layer relu2
I0716 07:15:04.992379  6906 net.cpp:90] Creating Layer relu2
I0716 07:15:04.992385  6906 net.cpp:410] relu2 <- conv2
I0716 07:15:04.992396  6906 net.cpp:357] relu2 -> conv2 (in-place)
I0716 07:15:04.992404  6906 net.cpp:120] Setting up relu2
I0716 07:15:04.992413  6906 net.cpp:127] Top shape: 50 256 27 27 (9331200)
I0716 07:15:04.992419  6906 layer_factory.hpp:74] Creating layer pool2
I0716 07:15:04.992427  6906 net.cpp:90] Creating Layer pool2
I0716 07:15:04.992434  6906 net.cpp:410] pool2 <- conv2
I0716 07:15:04.992441  6906 net.cpp:368] pool2 -> pool2
I0716 07:15:04.992450  6906 net.cpp:120] Setting up pool2
I0716 07:15:04.992462  6906 net.cpp:127] Top shape: 50 256 13 13 (2163200)
I0716 07:15:04.992468  6906 layer_factory.hpp:74] Creating layer norm2
I0716 07:15:04.992476  6906 net.cpp:90] Creating Layer norm2
I0716 07:15:04.992482  6906 net.cpp:410] norm2 <- pool2
I0716 07:15:04.992491  6906 net.cpp:368] norm2 -> norm2
I0716 07:15:04.992499  6906 net.cpp:120] Setting up norm2
I0716 07:15:04.992507  6906 net.cpp:127] Top shape: 50 256 13 13 (2163200)
I0716 07:15:04.992514  6906 layer_factory.hpp:74] Creating layer conv3
I0716 07:15:04.992523  6906 net.cpp:90] Creating Layer conv3
I0716 07:15:04.992529  6906 net.cpp:410] conv3 <- norm2
I0716 07:15:04.992538  6906 net.cpp:368] conv3 -> conv3
I0716 07:15:04.992547  6906 net.cpp:120] Setting up conv3
I0716 07:15:05.014699  6906 net.cpp:127] Top shape: 50 384 13 13 (3244800)
I0716 07:15:05.014739  6906 layer_factory.hpp:74] Creating layer relu3
I0716 07:15:05.014755  6906 net.cpp:90] Creating Layer relu3
I0716 07:15:05.014761  6906 net.cpp:410] relu3 <- conv3
I0716 07:15:05.014770  6906 net.cpp:357] relu3 -> conv3 (in-place)
I0716 07:15:05.014780  6906 net.cpp:120] Setting up relu3
I0716 07:15:05.014789  6906 net.cpp:127] Top shape: 50 384 13 13 (3244800)
I0716 07:15:05.014796  6906 layer_factory.hpp:74] Creating layer conv4
I0716 07:15:05.014808  6906 net.cpp:90] Creating Layer conv4
I0716 07:15:05.014816  6906 net.cpp:410] conv4 <- conv3
I0716 07:15:05.014825  6906 net.cpp:368] conv4 -> conv4
I0716 07:15:05.014834  6906 net.cpp:120] Setting up conv4
I0716 07:15:05.031457  6906 net.cpp:127] Top shape: 50 384 13 13 (3244800)
I0716 07:15:05.031479  6906 layer_factory.hpp:74] Creating layer relu4
I0716 07:15:05.031517  6906 net.cpp:90] Creating Layer relu4
I0716 07:15:05.031524  6906 net.cpp:410] relu4 <- conv4
I0716 07:15:05.031539  6906 net.cpp:357] relu4 -> conv4 (in-place)
I0716 07:15:05.031548  6906 net.cpp:120] Setting up relu4
I0716 07:15:05.031558  6906 net.cpp:127] Top shape: 50 384 13 13 (3244800)
I0716 07:15:05.031564  6906 layer_factory.hpp:74] Creating layer conv5
I0716 07:15:05.031576  6906 net.cpp:90] Creating Layer conv5
I0716 07:15:05.031584  6906 net.cpp:410] conv5 <- conv4
I0716 07:15:05.031592  6906 net.cpp:368] conv5 -> conv5
I0716 07:15:05.031602  6906 net.cpp:120] Setting up conv5
I0716 07:15:05.042681  6906 net.cpp:127] Top shape: 50 256 13 13 (2163200)
I0716 07:15:05.042702  6906 layer_factory.hpp:74] Creating layer relu5
I0716 07:15:05.042712  6906 net.cpp:90] Creating Layer relu5
I0716 07:15:05.042719  6906 net.cpp:410] relu5 <- conv5
I0716 07:15:05.042732  6906 net.cpp:357] relu5 -> conv5 (in-place)
I0716 07:15:05.042740  6906 net.cpp:120] Setting up relu5
I0716 07:15:05.042748  6906 net.cpp:127] Top shape: 50 256 13 13 (2163200)
I0716 07:15:05.042754  6906 layer_factory.hpp:74] Creating layer pool5
I0716 07:15:05.042765  6906 net.cpp:90] Creating Layer pool5
I0716 07:15:05.042773  6906 net.cpp:410] pool5 <- conv5
I0716 07:15:05.042780  6906 net.cpp:368] pool5 -> pool5
I0716 07:15:05.042789  6906 net.cpp:120] Setting up pool5
I0716 07:15:05.042800  6906 net.cpp:127] Top shape: 50 256 6 6 (460800)
I0716 07:15:05.042807  6906 layer_factory.hpp:74] Creating layer fc6
I0716 07:15:05.042819  6906 net.cpp:90] Creating Layer fc6
I0716 07:15:05.042825  6906 net.cpp:410] fc6 <- pool5
I0716 07:15:05.042834  6906 net.cpp:368] fc6 -> fc6
I0716 07:15:05.042845  6906 net.cpp:120] Setting up fc6
I0716 07:15:08.860034  6906 net.cpp:127] Top shape: 50 4096 (204800)
I0716 07:15:08.860072  6906 layer_factory.hpp:74] Creating layer relu6
I0716 07:15:08.860085  6906 net.cpp:90] Creating Layer relu6
I0716 07:15:08.860092  6906 net.cpp:410] relu6 <- fc6
I0716 07:15:08.860116  6906 net.cpp:357] relu6 -> fc6 (in-place)
I0716 07:15:08.860128  6906 net.cpp:120] Setting up relu6
I0716 07:15:08.860137  6906 net.cpp:127] Top shape: 50 4096 (204800)
I0716 07:15:08.860144  6906 layer_factory.hpp:74] Creating layer drop6
I0716 07:15:08.860153  6906 net.cpp:90] Creating Layer drop6
I0716 07:15:08.860160  6906 net.cpp:410] drop6 <- fc6
I0716 07:15:08.860170  6906 net.cpp:357] drop6 -> fc6 (in-place)
I0716 07:15:08.860178  6906 net.cpp:120] Setting up drop6
I0716 07:15:08.860188  6906 net.cpp:127] Top shape: 50 4096 (204800)
I0716 07:15:08.860195  6906 layer_factory.hpp:74] Creating layer fc7
I0716 07:15:08.860204  6906 net.cpp:90] Creating Layer fc7
I0716 07:15:08.860211  6906 net.cpp:410] fc7 <- fc6
I0716 07:15:08.860219  6906 net.cpp:368] fc7 -> fc7
I0716 07:15:08.860229  6906 net.cpp:120] Setting up fc7
I0716 07:15:10.935500  6906 net.cpp:127] Top shape: 50 4096 (204800)
I0716 07:15:10.935540  6906 layer_factory.hpp:74] Creating layer relu7
I0716 07:15:10.935554  6906 net.cpp:90] Creating Layer relu7
I0716 07:15:10.935561  6906 net.cpp:410] relu7 <- fc7
I0716 07:15:10.935571  6906 net.cpp:357] relu7 -> fc7 (in-place)
I0716 07:15:10.935581  6906 net.cpp:120] Setting up relu7
I0716 07:15:10.935591  6906 net.cpp:127] Top shape: 50 4096 (204800)
I0716 07:15:10.935597  6906 layer_factory.hpp:74] Creating layer drop7
I0716 07:15:10.935607  6906 net.cpp:90] Creating Layer drop7
I0716 07:15:10.935614  6906 net.cpp:410] drop7 <- fc7
I0716 07:15:10.935621  6906 net.cpp:357] drop7 -> fc7 (in-place)
I0716 07:15:10.935629  6906 net.cpp:120] Setting up drop7
I0716 07:15:10.935642  6906 net.cpp:127] Top shape: 50 4096 (204800)
I0716 07:15:10.935647  6906 layer_factory.hpp:74] Creating layer fc8_flickr
I0716 07:15:10.935657  6906 net.cpp:90] Creating Layer fc8_flickr
I0716 07:15:10.935663  6906 net.cpp:410] fc8_flickr <- fc7
I0716 07:15:10.935672  6906 net.cpp:368] fc8_flickr -> fc8_flickr
I0716 07:15:10.935688  6906 net.cpp:120] Setting up fc8_flickr
I0716 07:15:11.012835  6906 net.cpp:127] Top shape: 50 167 (8350)
I0716 07:15:11.012897  6906 layer_factory.hpp:74] Creating layer fc8_flickr_fc8_flickr_0_split
I0716 07:15:11.012912  6906 net.cpp:90] Creating Layer fc8_flickr_fc8_flickr_0_split
I0716 07:15:11.012920  6906 net.cpp:410] fc8_flickr_fc8_flickr_0_split <- fc8_flickr
I0716 07:15:11.012934  6906 net.cpp:368] fc8_flickr_fc8_flickr_0_split -> fc8_flickr_fc8_flickr_0_split_0
I0716 07:15:11.012946  6906 net.cpp:368] fc8_flickr_fc8_flickr_0_split -> fc8_flickr_fc8_flickr_0_split_1
I0716 07:15:11.012955  6906 net.cpp:120] Setting up fc8_flickr_fc8_flickr_0_split
I0716 07:15:11.012965  6906 net.cpp:127] Top shape: 50 167 (8350)
I0716 07:15:11.012972  6906 net.cpp:127] Top shape: 50 167 (8350)
I0716 07:15:11.012979  6906 layer_factory.hpp:74] Creating layer loss
I0716 07:15:11.012987  6906 net.cpp:90] Creating Layer loss
I0716 07:15:11.012995  6906 net.cpp:410] loss <- fc8_flickr_fc8_flickr_0_split_0
I0716 07:15:11.013001  6906 net.cpp:410] loss <- label_data_1_split_0
I0716 07:15:11.013010  6906 net.cpp:368] loss -> (automatic)
I0716 07:15:11.013018  6906 net.cpp:120] Setting up loss
…
