…
I0721 21:53:51.305861 16567 net.cpp:287] The NetState phase (0) differed from the phase (1) specified by a rule in layer accuracy
I0721 21:53:51.306056 16567 net.cpp:42] Initializing net from parameters: 
name: "LogoCaffeNet"
state {
  phase: TRAIN
}
layer {
  name: "data"
  type: "ImageData"
  top: "data"
  top: "label"
  include {
    phase: TRAIN
  }
  transform_param {
    mirror: true
    crop_size: 227
    mean_file: "data/ilsvrc12/imagenet_mean.binaryproto"
  }
  image_data_param {
    source: "/home/rips_tc/caffe/data/logos/train.txt"
    batch_size: 50
    new_height: 256
    new_width: 256
  }
}
layer {
  name: "conv1"
  type: "Convolution"
  bottom: "data"
  top: "conv1"
  param {
    lr_mult: 0.5
    decay_mult: 1
  }
  param {
    lr_mult: 1
    decay_mult: 0
  }
  convolution_param {
    num_output: 96
    kernel_size: 11
    stride: 4
    weight_filler {
      type: "gaussian"
      std: 0.01
    }
    bias_filler {
      type: "constant"
      value: 0
    }
  }
}
layer {
  name: "relu1"
  type: "ReLU"
  bottom: "conv1"
  top: "conv1"
}
layer {
  name: "pool1"
  type: "Pooling"
  bottom: "conv1"
  top: "pool1"
  pooling_param {
    pool: MAX
    kernel_size: 3
    stride: 2
  }
}
layer {
  name: "norm1"
  type: "LRN"
  bottom: "pool1"
  top: "norm1"
  lrn_param {
    local_size: 5
    alpha: 0.0001
    beta: 0.75
  }
}
layer {
  name: "conv2"
  type: "Convolution"
  bottom: "norm1"
  top: "conv2"
  param {
    lr_mult: 0.5
    decay_mult: 1
  }
  param {
    lr_mult: 1
    decay_mult: 0
  }
  convolution_param {
    num_output: 256
    pad: 2
    kernel_size: 5
    group: 2
    weight_filler {
      type: "gaussian"
      std: 0.01
    }
    bias_filler {
      type: "constant"
      value: 1
    }
  }
}
layer {
  name: "relu2"
  type: "ReLU"
  bottom: "conv2"
  top: "conv2"
}
layer {
  name: "pool2"
  type: "Pooling"
  bottom: "conv2"
  top: "pool2"
  pooling_param {
    pool: MAX
    kernel_size: 3
    stride: 2
  }
}
layer {
  name: "norm2"
  type: "LRN"
  bottom: "pool2"
  top: "norm2"
  lrn_param {
    local_size: 5
    alpha: 0.0001
    beta: 0.75
  }
}
layer {
  name: "conv3"
  type: "Convolution"
  bottom: "norm2"
  top: "conv3"
  param {
    lr_mult: 0.5
    decay_mult: 1
  }
  param {
    lr_mult: 1
    decay_mult: 0
  }
  convolution_param {
    num_output: 384
    pad: 1
    kernel_size: 3
    weight_filler {
      type: "gaussian"
      std: 0.01
    }
    bias_filler {
      type: "constant"
      value: 0
    }
  }
}
layer {
  name: "relu3"
  type: "ReLU"
  bottom: "conv3"
  top: "conv3"
}
layer {
  name: "conv4"
  type: "Convolution"
  bottom: "conv3"
  top: "conv4"
  param {
    lr_mult: 0.5
    decay_mult: 1
  }
  param {
    lr_mult: 1
    decay_mult: 0
  }
  convolution_param {
    num_output: 384
    pad: 1
    kernel_size: 3
    group: 2
    weight_filler {
      type: "gaussian"
      std: 0.01
    }
    bias_filler {
      type: "constant"
      value: 1
    }
  }
}
layer {
  name: "relu4"
  type: "ReLU"
  bottom: "conv4"
  top: "conv4"
}
layer {
  name: "conv5"
  type: "Convolution"
  bottom: "conv4"
  top: "conv5"
  param {
    lr_mult: 0.5
    decay_mult: 1
  }
  param {
    lr_mult: 1
    decay_mult: 0
  }
  convolution_param {
    num_output: 256
    pad: 1
    kernel_size: 3
    group: 2
    weight_filler {
      type: "gaussian"
      std: 0.01
    }
    bias_filler {
      type: "constant"
      value: 1
    }
  }
}
layer {
  name: "relu5"
  type: "ReLU"
  bottom: "conv5"
  top: "conv5"
}
layer {
  name: "pool5"
  type: "Pooling"
  bottom: "conv5"
  top: "pool5"
  pooling_param {
    pool: MAX
    kernel_size: 3
    stride: 2
  }
}
layer {
  name: "fc6"
  type: "InnerProduct"
  bottom: "pool5"
  top: "fc6"
  param {
    lr_mult: 1
    decay_mult: 1
  }
  param {
    lr_mult: 2
    decay_mult: 0
  }
  inner_product_param {
    num_output: 4096
    weight_filler {
      type: "gaussian"
      std: 0.005
    }
    bias_filler {
      type: "constant"
      value: 1
    }
  }
}
layer {
  name: "relu6"
  type: "ReLU"
  bottom: "fc6"
  top: "fc6"
}
layer {
  name: "drop6"
  type: "Dropout"
  bottom: "fc6"
  top: "fc6"
  dropout_param {
    dropout_ratio: 0.5
  }
}
layer {
  name: "fc7"
  type: "InnerProduct"
  bottom: "fc6"
  top: "fc7"
  param {
    lr_mult: 2
    decay_mult: 1
  }
  param {
    lr_mult: 4
    decay_mult: 0
  }
  inner_product_param {
    num_output: 4096
    weight_filler {
      type: "gaussian"
      std: 0.005
    }
    bias_filler {
      type: "constant"
      value: 1
    }
  }
}
layer {
  name: "relu7"
  type: "ReLU"
  bottom: "fc7"
  top: "fc7"
}
layer {
  name: "drop7"
  type: "Dropout"
  bottom: "fc7"
  top: "fc7"
  dropout_param {
    dropout_ratio: 0.5
  }
}
layer {
  name: "fc8_flickr"
  type: "InnerProduct"
  bottom: "fc7"
  top: "fc8_flickr"
  param {
    lr_mult: 20
    decay_mult: 1
  }
  param {
    lr_mult: 20
    decay_mult: 1
  }
  inner_product_param {
    num_output: 167
    weight_filler {
      type: "gaussian"
      std: 0.01
    }
    bias_filler {
      type: "constant"
      value: 0
    }
  }
}
layer {
  name: "loss"
  type: "SoftmaxWithLoss"
  bottom: "fc8_flickr"
  bottom: "label"
}
I0721 21:53:51.306190 16567 layer_factory.hpp:74] Creating layer data
I0721 21:53:51.352814 16567 net.cpp:90] Creating Layer data
I0721 21:53:51.352846 16567 net.cpp:368] data -> data
I0721 21:53:51.352877 16567 net.cpp:368] data -> label
I0721 21:53:51.352891 16567 net.cpp:120] Setting up data
I0721 21:53:51.352902 16567 data_transformer.cpp:22] Loading mean file from: data/ilsvrc12/imagenet_mean.binaryproto
I0721 21:53:51.519137 16567 image_data_layer.cpp:36] Opening file /home/rips_tc/caffe/data/logos/train.txt
I0721 21:53:51.567781 16567 image_data_layer.cpp:51] A total of 12219 images.
I0721 21:53:51.704993 16567 image_data_layer.cpp:74] output data size: 50,3,227,227
I0721 21:53:51.709755 16567 net.cpp:127] Top shape: 50 3 227 227 (7729350)
I0721 21:53:51.709785 16567 net.cpp:127] Top shape: 50 (50)
I0721 21:53:51.709796 16567 layer_factory.hpp:74] Creating layer conv1
I0721 21:53:51.709816 16567 net.cpp:90] Creating Layer conv1
I0721 21:53:51.709830 16567 net.cpp:410] conv1 <- data
I0721 21:53:51.709851 16567 net.cpp:368] conv1 -> conv1
I0721 21:53:51.709880 16567 net.cpp:120] Setting up conv1
I0721 21:53:51.710860 16567 net.cpp:127] Top shape: 50 96 55 55 (14520000)
I0721 21:53:51.710886 16567 layer_factory.hpp:74] Creating layer relu1
I0721 21:53:51.710904 16567 net.cpp:90] Creating Layer relu1
I0721 21:53:51.710918 16567 net.cpp:410] relu1 <- conv1
I0721 21:53:51.710935 16567 net.cpp:357] relu1 -> conv1 (in-place)
I0721 21:53:51.710945 16567 net.cpp:120] Setting up relu1
I0721 21:53:51.777945 16567 net.cpp:127] Top shape: 50 96 55 55 (14520000)
I0721 21:53:51.777978 16567 layer_factory.hpp:74] Creating layer pool1
I0721 21:53:51.777994 16567 net.cpp:90] Creating Layer pool1
I0721 21:53:51.778002 16567 net.cpp:410] pool1 <- conv1
I0721 21:53:51.778014 16567 net.cpp:368] pool1 -> pool1
I0721 21:53:51.778033 16567 net.cpp:120] Setting up pool1
I0721 21:53:51.778074 16567 net.cpp:127] Top shape: 50 96 27 27 (3499200)
I0721 21:53:51.778087 16567 layer_factory.hpp:74] Creating layer norm1
I0721 21:53:51.778112 16567 net.cpp:90] Creating Layer norm1
I0721 21:53:51.778123 16567 net.cpp:410] norm1 <- pool1
I0721 21:53:51.778138 16567 net.cpp:368] norm1 -> norm1
I0721 21:53:51.778158 16567 net.cpp:120] Setting up norm1
I0721 21:53:51.778177 16567 net.cpp:127] Top shape: 50 96 27 27 (3499200)
I0721 21:53:51.778213 16567 layer_factory.hpp:74] Creating layer conv2
I0721 21:53:51.778234 16567 net.cpp:90] Creating Layer conv2
I0721 21:53:51.778250 16567 net.cpp:410] conv2 <- norm1
I0721 21:53:51.778266 16567 net.cpp:368] conv2 -> conv2
I0721 21:53:51.778285 16567 net.cpp:120] Setting up conv2
I0721 21:53:51.786613 16567 net.cpp:127] Top shape: 50 256 27 27 (9331200)
I0721 21:53:51.786640 16567 layer_factory.hpp:74] Creating layer relu2
I0721 21:53:51.786659 16567 net.cpp:90] Creating Layer relu2
I0721 21:53:51.786669 16567 net.cpp:410] relu2 <- conv2
I0721 21:53:51.786677 16567 net.cpp:357] relu2 -> conv2 (in-place)
I0721 21:53:51.786685 16567 net.cpp:120] Setting up relu2
I0721 21:53:51.786695 16567 net.cpp:127] Top shape: 50 256 27 27 (9331200)
I0721 21:53:51.786700 16567 layer_factory.hpp:74] Creating layer pool2
I0721 21:53:51.786710 16567 net.cpp:90] Creating Layer pool2
I0721 21:53:51.786715 16567 net.cpp:410] pool2 <- conv2
I0721 21:53:51.786722 16567 net.cpp:368] pool2 -> pool2
I0721 21:53:51.786731 16567 net.cpp:120] Setting up pool2
I0721 21:53:51.786743 16567 net.cpp:127] Top shape: 50 256 13 13 (2163200)
I0721 21:53:51.786749 16567 layer_factory.hpp:74] Creating layer norm2
I0721 21:53:51.786759 16567 net.cpp:90] Creating Layer norm2
I0721 21:53:51.786764 16567 net.cpp:410] norm2 <- pool2
I0721 21:53:51.786772 16567 net.cpp:368] norm2 -> norm2
I0721 21:53:51.786782 16567 net.cpp:120] Setting up norm2
I0721 21:53:51.786790 16567 net.cpp:127] Top shape: 50 256 13 13 (2163200)
I0721 21:53:51.786798 16567 layer_factory.hpp:74] Creating layer conv3
I0721 21:53:51.786809 16567 net.cpp:90] Creating Layer conv3
I0721 21:53:51.786818 16567 net.cpp:410] conv3 <- norm2
I0721 21:53:51.786826 16567 net.cpp:368] conv3 -> conv3
I0721 21:53:51.786837 16567 net.cpp:120] Setting up conv3
I0721 21:53:51.811000 16567 net.cpp:127] Top shape: 50 384 13 13 (3244800)
I0721 21:53:51.811028 16567 layer_factory.hpp:74] Creating layer relu3
I0721 21:53:51.811048 16567 net.cpp:90] Creating Layer relu3
I0721 21:53:51.811056 16567 net.cpp:410] relu3 <- conv3
I0721 21:53:51.811064 16567 net.cpp:357] relu3 -> conv3 (in-place)
I0721 21:53:51.811074 16567 net.cpp:120] Setting up relu3
I0721 21:53:51.811084 16567 net.cpp:127] Top shape: 50 384 13 13 (3244800)
I0721 21:53:51.811090 16567 layer_factory.hpp:74] Creating layer conv4
I0721 21:53:51.811100 16567 net.cpp:90] Creating Layer conv4
I0721 21:53:51.811106 16567 net.cpp:410] conv4 <- conv3
I0721 21:53:51.811115 16567 net.cpp:368] conv4 -> conv4
I0721 21:53:51.811123 16567 net.cpp:120] Setting up conv4
I0721 21:53:51.829319 16567 net.cpp:127] Top shape: 50 384 13 13 (3244800)
I0721 21:53:51.829344 16567 layer_factory.hpp:74] Creating layer relu4
I0721 21:53:51.829355 16567 net.cpp:90] Creating Layer relu4
I0721 21:53:51.829363 16567 net.cpp:410] relu4 <- conv4
I0721 21:53:51.829371 16567 net.cpp:357] relu4 -> conv4 (in-place)
I0721 21:53:51.829381 16567 net.cpp:120] Setting up relu4
I0721 21:53:51.829391 16567 net.cpp:127] Top shape: 50 384 13 13 (3244800)
I0721 21:53:51.829397 16567 layer_factory.hpp:74] Creating layer conv5
I0721 21:53:51.829407 16567 net.cpp:90] Creating Layer conv5
I0721 21:53:51.829412 16567 net.cpp:410] conv5 <- conv4
I0721 21:53:51.829421 16567 net.cpp:368] conv5 -> conv5
I0721 21:53:51.829433 16567 net.cpp:120] Setting up conv5
I0721 21:53:51.841326 16567 net.cpp:127] Top shape: 50 256 13 13 (2163200)
I0721 21:53:51.841347 16567 layer_factory.hpp:74] Creating layer relu5
I0721 21:53:51.841357 16567 net.cpp:90] Creating Layer relu5
I0721 21:53:51.841366 16567 net.cpp:410] relu5 <- conv5
I0721 21:53:51.841374 16567 net.cpp:357] relu5 -> conv5 (in-place)
I0721 21:53:51.841382 16567 net.cpp:120] Setting up relu5
I0721 21:53:51.841390 16567 net.cpp:127] Top shape: 50 256 13 13 (2163200)
I0721 21:53:51.841398 16567 layer_factory.hpp:74] Creating layer pool5
I0721 21:53:51.841405 16567 net.cpp:90] Creating Layer pool5
I0721 21:53:51.841414 16567 net.cpp:410] pool5 <- conv5
I0721 21:53:51.841423 16567 net.cpp:368] pool5 -> pool5
I0721 21:53:51.841431 16567 net.cpp:120] Setting up pool5
I0721 21:53:51.841461 16567 net.cpp:127] Top shape: 50 256 6 6 (460800)
I0721 21:53:51.841470 16567 layer_factory.hpp:74] Creating layer fc6
I0721 21:53:51.841488 16567 net.cpp:90] Creating Layer fc6
I0721 21:53:51.841496 16567 net.cpp:410] fc6 <- pool5
I0721 21:53:51.841505 16567 net.cpp:368] fc6 -> fc6
I0721 21:53:51.841518 16567 net.cpp:120] Setting up fc6
I0721 21:53:53.311091 16567 net.cpp:127] Top shape: 50 4096 (204800)
I0721 21:53:53.311125 16567 layer_factory.hpp:74] Creating layer relu6
I0721 21:53:53.311137 16567 net.cpp:90] Creating Layer relu6
I0721 21:53:53.311146 16567 net.cpp:410] relu6 <- fc6
I0721 21:53:53.311154 16567 net.cpp:357] relu6 -> fc6 (in-place)
I0721 21:53:53.311164 16567 net.cpp:120] Setting up relu6
I0721 21:53:53.311172 16567 net.cpp:127] Top shape: 50 4096 (204800)
I0721 21:53:53.311178 16567 layer_factory.hpp:74] Creating layer drop6
I0721 21:53:53.311187 16567 net.cpp:90] Creating Layer drop6
I0721 21:53:53.311192 16567 net.cpp:410] drop6 <- fc6
I0721 21:53:53.311199 16567 net.cpp:357] drop6 -> fc6 (in-place)
I0721 21:53:53.311210 16567 net.cpp:120] Setting up drop6
I0721 21:53:53.311221 16567 net.cpp:127] Top shape: 50 4096 (204800)
I0721 21:53:53.311233 16567 layer_factory.hpp:74] Creating layer fc7
I0721 21:53:53.311242 16567 net.cpp:90] Creating Layer fc7
I0721 21:53:53.311247 16567 net.cpp:410] fc7 <- fc6
I0721 21:53:53.311255 16567 net.cpp:368] fc7 -> fc7
I0721 21:53:53.311264 16567 net.cpp:120] Setting up fc7
I0721 21:53:53.829849 16567 net.cpp:127] Top shape: 50 4096 (204800)
I0721 21:53:53.829890 16567 layer_factory.hpp:74] Creating layer relu7
I0721 21:53:53.829905 16567 net.cpp:90] Creating Layer relu7
I0721 21:53:53.829912 16567 net.cpp:410] relu7 <- fc7
I0721 21:53:53.829922 16567 net.cpp:357] relu7 -> fc7 (in-place)
I0721 21:53:53.829932 16567 net.cpp:120] Setting up relu7
I0721 21:53:53.829943 16567 net.cpp:127] Top shape: 50 4096 (204800)
I0721 21:53:53.829949 16567 layer_factory.hpp:74] Creating layer drop7
I0721 21:53:53.829958 16567 net.cpp:90] Creating Layer drop7
I0721 21:53:53.829963 16567 net.cpp:410] drop7 <- fc7
I0721 21:53:53.829970 16567 net.cpp:357] drop7 -> fc7 (in-place)
I0721 21:53:53.829978 16567 net.cpp:120] Setting up drop7
I0721 21:53:53.829989 16567 net.cpp:127] Top shape: 50 4096 (204800)
I0721 21:53:53.829998 16567 layer_factory.hpp:74] Creating layer fc8_flickr
I0721 21:53:53.830008 16567 net.cpp:90] Creating Layer fc8_flickr
I0721 21:53:53.830016 16567 net.cpp:410] fc8_flickr <- fc7
I0721 21:53:53.830027 16567 net.cpp:368] fc8_flickr -> fc8_flickr
I0721 21:53:53.830039 16567 net.cpp:120] Setting up fc8_flickr
I0721 21:53:53.848719 16567 net.cpp:127] Top shape: 50 167 (8350)
I0721 21:53:53.848744 16567 layer_factory.hpp:74] Creating layer loss
I0721 21:53:53.876668 16567 net.cpp:90] Creating Layer loss
I0721 21:53:53.876693 16567 net.cpp:410] loss <- fc8_flickr
I0721 21:53:53.876701 16567 net.cpp:410] loss <- label
I0721 21:53:53.876715 16567 net.cpp:368] loss -> (automatic)
I0721 21:53:53.876725 16567 net.cpp:120] Setting up loss
I0721 21:53:53.876736 16567 layer_factory.hpp:74] Creating layer loss
…
I0721 21:53:53.878043 16567 net.cpp:287] The NetState phase (1) differed from the phase (0) specified by a rule in layer data
I0721 21:53:53.878413 16567 net.cpp:42] Initializing net from parameters: 
name: "LogoCaffeNet"
state {
  phase: TEST
}
layer {
  name: "data"
  type: "ImageData"
  top: "data"
  top: "label"
  include {
    phase: TEST
  }
  transform_param {
    mirror: false
    crop_size: 227
    mean_file: "data/ilsvrc12/imagenet_mean.binaryproto"
  }
  image_data_param {
    source: "/home/rips_tc/caffe/data/logos/test.txt"
    batch_size: 50
    new_height: 256
    new_width: 256
  }
}
layer {
  name: "conv1"
  type: "Convolution"
  bottom: "data"
  top: "conv1"
  param {
    lr_mult: 0.5
    decay_mult: 1
  }
  param {
    lr_mult: 1
    decay_mult: 0
  }
  convolution_param {
    num_output: 96
    kernel_size: 11
    stride: 4
    weight_filler {
      type: "gaussian"
      std: 0.01
    }
    bias_filler {
      type: "constant"
      value: 0
    }
  }
}
layer {
  name: "relu1"
  type: "ReLU"
  bottom: "conv1"
  top: "conv1"
}
layer {
  name: "pool1"
  type: "Pooling"
  bottom: "conv1"
  top: "pool1"
  pooling_param {
    pool: MAX
    kernel_size: 3
    stride: 2
  }
}
layer {
  name: "norm1"
  type: "LRN"
  bottom: "pool1"
  top: "norm1"
  lrn_param {
    local_size: 5
    alpha: 0.0001
    beta: 0.75
  }
}
layer {
  name: "conv2"
  type: "Convolution"
  bottom: "norm1"
  top: "conv2"
  param {
    lr_mult: 0.5
    decay_mult: 1
  }
  param {
    lr_mult: 1
    decay_mult: 0
  }
  convolution_param {
    num_output: 256
    pad: 2
    kernel_size: 5
    group: 2
    weight_filler {
      type: "gaussian"
      std: 0.01
    }
    bias_filler {
      type: "constant"
      value: 1
    }
  }
}
layer {
  name: "relu2"
  type: "ReLU"
  bottom: "conv2"
  top: "conv2"
}
layer {
  name: "pool2"
  type: "Pooling"
  bottom: "conv2"
  top: "pool2"
  pooling_param {
    pool: MAX
    kernel_size: 3
    stride: 2
  }
}
layer {
  name: "norm2"
  type: "LRN"
  bottom: "pool2"
  top: "norm2"
  lrn_param {
    local_size: 5
    alpha: 0.0001
    beta: 0.75
  }
}
layer {
  name: "conv3"
  type: "Convolution"
  bottom: "norm2"
  top: "conv3"
  param {
    lr_mult: 0.5
    decay_mult: 1
  }
  param {
    lr_mult: 1
    decay_mult: 0
  }
  convolution_param {
    num_output: 384
    pad: 1
    kernel_size: 3
    weight_filler {
      type: "gaussian"
      std: 0.01
    }
    bias_filler {
      type: "constant"
      value: 0
    }
  }
}
layer {
  name: "relu3"
  type: "ReLU"
  bottom: "conv3"
  top: "conv3"
}
layer {
  name: "conv4"
  type: "Convolution"
  bottom: "conv3"
  top: "conv4"
  param {
    lr_mult: 0.5
    decay_mult: 1
  }
  param {
    lr_mult: 1
    decay_mult: 0
  }
  convolution_param {
    num_output: 384
    pad: 1
    kernel_size: 3
    group: 2
    weight_filler {
      type: "gaussian"
      std: 0.01
    }
    bias_filler {
      type: "constant"
      value: 1
    }
  }
}
layer {
  name: "relu4"
  type: "ReLU"
  bottom: "conv4"
  top: "conv4"
}
layer {
  name: "conv5"
  type: "Convolution"
  bottom: "conv4"
  top: "conv5"
  param {
    lr_mult: 0.5
    decay_mult: 1
  }
  param {
    lr_mult: 1
    decay_mult: 0
  }
  convolution_param {
    num_output: 256
    pad: 1
    kernel_size: 3
    group: 2
    weight_filler {
      type: "gaussian"
      std: 0.01
    }
    bias_filler {
      type: "constant"
      value: 1
    }
  }
}
layer {
  name: "relu5"
  type: "ReLU"
  bottom: "conv5"
  top: "conv5"
}
layer {
  name: "pool5"
  type: "Pooling"
  bottom: "conv5"
  top: "pool5"
  pooling_param {
    pool: MAX
    kernel_size: 3
    stride: 2
  }
}
layer {
  name: "fc6"
  type: "InnerProduct"
  bottom: "pool5"
  top: "fc6"
  param {
    lr_mult: 1
    decay_mult: 1
  }
  param {
    lr_mult: 2
    decay_mult: 0
  }
  inner_product_param {
    num_output: 4096
    weight_filler {
      type: "gaussian"
      std: 0.005
    }
    bias_filler {
      type: "constant"
      value: 1
    }
  }
}
layer {
  name: "relu6"
  type: "ReLU"
  bottom: "fc6"
  top: "fc6"
}
layer {
  name: "drop6"
  type: "Dropout"
  bottom: "fc6"
  top: "fc6"
  dropout_param {
    dropout_ratio: 0.5
  }
}
layer {
  name: "fc7"
  type: "InnerProduct"
  bottom: "fc6"
  top: "fc7"
  param {
    lr_mult: 2
    decay_mult: 1
  }
  param {
    lr_mult: 4
    decay_mult: 0
  }
  inner_product_param {
    num_output: 4096
    weight_filler {
      type: "gaussian"
      std: 0.005
    }
    bias_filler {
      type: "constant"
      value: 1
    }
  }
}
layer {
  name: "relu7"
  type: "ReLU"
  bottom: "fc7"
  top: "fc7"
}
layer {
  name: "drop7"
  type: "Dropout"
  bottom: "fc7"
  top: "fc7"
  dropout_param {
    dropout_ratio: 0.5
  }
}
layer {
  name: "fc8_flickr"
  type: "InnerProduct"
  bottom: "fc7"
  top: "fc8_flickr"
  param {
    lr_mult: 20
    decay_mult: 1
  }
  param {
    lr_mult: 20
    decay_mult: 1
  }
  inner_product_param {
    num_output: 167
    weight_filler {
      type: "gaussian"
      std: 0.01
    }
    bias_filler {
      type: "constant"
      value: 0
    }
  }
}
layer {
  name: "loss"
  type: "SoftmaxWithLoss"
  bottom: "fc8_flickr"
  bottom: "label"
}
layer {
  name: "accuracy"
  type: "Accuracy"
  bottom: "fc8_flickr"
  bottom: "label"
  top: "accuracy"
  include {
    phase: TEST
  }
  accuracy_param {
    top_k: 3
  }
}
I0721 21:53:53.878628 16567 layer_factory.hpp:74] Creating layer data
I0721 21:53:53.878654 16567 net.cpp:90] Creating Layer data
I0721 21:53:53.878671 16567 net.cpp:368] data -> data
I0721 21:53:53.878695 16567 net.cpp:368] data -> label
I0721 21:53:53.878715 16567 net.cpp:120] Setting up data
I0721 21:53:53.878731 16567 data_transformer.cpp:22] Loading mean file from: data/ilsvrc12/imagenet_mean.binaryproto
I0721 21:53:53.880625 16567 image_data_layer.cpp:36] Opening file /home/rips_tc/caffe/data/logos/test.txt
I0721 21:53:53.937382 16567 image_data_layer.cpp:51] A total of 1358 images.
I0721 21:53:53.997356 16567 image_data_layer.cpp:74] output data size: 50,3,227,227
I0721 21:53:54.061084 16567 net.cpp:127] Top shape: 50 3 227 227 (7729350)
I0721 21:53:54.061115 16567 net.cpp:127] Top shape: 50 (50)
I0721 21:53:54.061125 16567 layer_factory.hpp:74] Creating layer label_data_1_split
I0721 21:53:54.061141 16567 net.cpp:90] Creating Layer label_data_1_split
I0721 21:53:54.061148 16567 net.cpp:410] label_data_1_split <- label
I0721 21:53:54.061157 16567 net.cpp:368] label_data_1_split -> label_data_1_split_0
I0721 21:53:54.061172 16567 net.cpp:368] label_data_1_split -> label_data_1_split_1
I0721 21:53:54.061187 16567 net.cpp:120] Setting up label_data_1_split
I0721 21:53:54.061205 16567 net.cpp:127] Top shape: 50 (50)
I0721 21:53:54.061220 16567 net.cpp:127] Top shape: 50 (50)
I0721 21:53:54.061230 16567 layer_factory.hpp:74] Creating layer conv1
I0721 21:53:54.061249 16567 net.cpp:90] Creating Layer conv1
I0721 21:53:54.061280 16567 net.cpp:410] conv1 <- data
I0721 21:53:54.061295 16567 net.cpp:368] conv1 -> conv1
I0721 21:53:54.061310 16567 net.cpp:120] Setting up conv1
I0721 21:53:54.062255 16567 net.cpp:127] Top shape: 50 96 55 55 (14520000)
I0721 21:53:54.062270 16567 layer_factory.hpp:74] Creating layer relu1
I0721 21:53:54.062280 16567 net.cpp:90] Creating Layer relu1
I0721 21:53:54.062288 16567 net.cpp:410] relu1 <- conv1
I0721 21:53:54.062299 16567 net.cpp:357] relu1 -> conv1 (in-place)
I0721 21:53:54.062314 16567 net.cpp:120] Setting up relu1
I0721 21:53:54.062330 16567 net.cpp:127] Top shape: 50 96 55 55 (14520000)
I0721 21:53:54.062342 16567 layer_factory.hpp:74] Creating layer pool1
I0721 21:53:54.062356 16567 net.cpp:90] Creating Layer pool1
I0721 21:53:54.062364 16567 net.cpp:410] pool1 <- conv1
I0721 21:53:54.062374 16567 net.cpp:368] pool1 -> pool1
I0721 21:53:54.062384 16567 net.cpp:120] Setting up pool1
I0721 21:53:54.062397 16567 net.cpp:127] Top shape: 50 96 27 27 (3499200)
I0721 21:53:54.062407 16567 layer_factory.hpp:74] Creating layer norm1
I0721 21:53:54.062417 16567 net.cpp:90] Creating Layer norm1
I0721 21:53:54.062424 16567 net.cpp:410] norm1 <- pool1
I0721 21:53:54.062435 16567 net.cpp:368] norm1 -> norm1
I0721 21:53:54.062448 16567 net.cpp:120] Setting up norm1
I0721 21:53:54.062469 16567 net.cpp:127] Top shape: 50 96 27 27 (3499200)
I0721 21:53:54.062482 16567 layer_factory.hpp:74] Creating layer conv2
I0721 21:53:54.062500 16567 net.cpp:90] Creating Layer conv2
I0721 21:53:54.062508 16567 net.cpp:410] conv2 <- norm1
I0721 21:53:54.062517 16567 net.cpp:368] conv2 -> conv2
I0721 21:53:54.062527 16567 net.cpp:120] Setting up conv2
I0721 21:53:54.071682 16567 net.cpp:127] Top shape: 50 256 27 27 (9331200)
I0721 21:53:54.071705 16567 layer_factory.hpp:74] Creating layer relu2
I0721 21:53:54.071717 16567 net.cpp:90] Creating Layer relu2
I0721 21:53:54.071724 16567 net.cpp:410] relu2 <- conv2
I0721 21:53:54.071733 16567 net.cpp:357] relu2 -> conv2 (in-place)
I0721 21:53:54.071744 16567 net.cpp:120] Setting up relu2
I0721 21:53:54.071753 16567 net.cpp:127] Top shape: 50 256 27 27 (9331200)
I0721 21:53:54.071758 16567 layer_factory.hpp:74] Creating layer pool2
I0721 21:53:54.071769 16567 net.cpp:90] Creating Layer pool2
I0721 21:53:54.071779 16567 net.cpp:410] pool2 <- conv2
I0721 21:53:54.071787 16567 net.cpp:368] pool2 -> pool2
I0721 21:53:54.071797 16567 net.cpp:120] Setting up pool2
I0721 21:53:54.071815 16567 net.cpp:127] Top shape: 50 256 13 13 (2163200)
I0721 21:53:54.071830 16567 layer_factory.hpp:74] Creating layer norm2
I0721 21:53:54.071843 16567 net.cpp:90] Creating Layer norm2
I0721 21:53:54.071851 16567 net.cpp:410] norm2 <- pool2
I0721 21:53:54.071879 16567 net.cpp:368] norm2 -> norm2
I0721 21:53:54.071890 16567 net.cpp:120] Setting up norm2
I0721 21:53:54.071902 16567 net.cpp:127] Top shape: 50 256 13 13 (2163200)
I0721 21:53:54.071909 16567 layer_factory.hpp:74] Creating layer conv3
I0721 21:53:54.071919 16567 net.cpp:90] Creating Layer conv3
I0721 21:53:54.071926 16567 net.cpp:410] conv3 <- norm2
I0721 21:53:54.071935 16567 net.cpp:368] conv3 -> conv3
I0721 21:53:54.071946 16567 net.cpp:120] Setting up conv3
I0721 21:53:54.099972 16567 net.cpp:127] Top shape: 50 384 13 13 (3244800)
I0721 21:53:54.100021 16567 layer_factory.hpp:74] Creating layer relu3
I0721 21:53:54.100059 16567 net.cpp:90] Creating Layer relu3
I0721 21:53:54.100083 16567 net.cpp:410] relu3 <- conv3
I0721 21:53:54.100111 16567 net.cpp:357] relu3 -> conv3 (in-place)
I0721 21:53:54.100129 16567 net.cpp:120] Setting up relu3
I0721 21:53:54.100157 16567 net.cpp:127] Top shape: 50 384 13 13 (3244800)
I0721 21:53:54.100170 16567 layer_factory.hpp:74] Creating layer conv4
I0721 21:53:54.100203 16567 net.cpp:90] Creating Layer conv4
I0721 21:53:54.100215 16567 net.cpp:410] conv4 <- conv3
I0721 21:53:54.100231 16567 net.cpp:368] conv4 -> conv4
I0721 21:53:54.100249 16567 net.cpp:120] Setting up conv4
I0721 21:53:54.120092 16567 net.cpp:127] Top shape: 50 384 13 13 (3244800)
I0721 21:53:54.120127 16567 layer_factory.hpp:74] Creating layer relu4
I0721 21:53:54.120164 16567 net.cpp:90] Creating Layer relu4
I0721 21:53:54.120173 16567 net.cpp:410] relu4 <- conv4
I0721 21:53:54.120187 16567 net.cpp:357] relu4 -> conv4 (in-place)
I0721 21:53:54.120203 16567 net.cpp:120] Setting up relu4
I0721 21:53:54.120220 16567 net.cpp:127] Top shape: 50 384 13 13 (3244800)
I0721 21:53:54.120232 16567 layer_factory.hpp:74] Creating layer conv5
I0721 21:53:54.120255 16567 net.cpp:90] Creating Layer conv5
I0721 21:53:54.120267 16567 net.cpp:410] conv5 <- conv4
I0721 21:53:54.120285 16567 net.cpp:368] conv5 -> conv5
I0721 21:53:54.120301 16567 net.cpp:120] Setting up conv5
I0721 21:53:54.132635 16567 net.cpp:127] Top shape: 50 256 13 13 (2163200)
I0721 21:53:54.132676 16567 layer_factory.hpp:74] Creating layer relu5
I0721 21:53:54.132697 16567 net.cpp:90] Creating Layer relu5
I0721 21:53:54.132711 16567 net.cpp:410] relu5 <- conv5
I0721 21:53:54.132731 16567 net.cpp:357] relu5 -> conv5 (in-place)
I0721 21:53:54.132745 16567 net.cpp:120] Setting up relu5
I0721 21:53:54.132753 16567 net.cpp:127] Top shape: 50 256 13 13 (2163200)
I0721 21:53:54.132766 16567 layer_factory.hpp:74] Creating layer pool5
I0721 21:53:54.132786 16567 net.cpp:90] Creating Layer pool5
I0721 21:53:54.132799 16567 net.cpp:410] pool5 <- conv5
I0721 21:53:54.132813 16567 net.cpp:368] pool5 -> pool5
I0721 21:53:54.132830 16567 net.cpp:120] Setting up pool5
I0721 21:53:54.132853 16567 net.cpp:127] Top shape: 50 256 6 6 (460800)
I0721 21:53:54.132866 16567 layer_factory.hpp:74] Creating layer fc6
I0721 21:53:54.132885 16567 net.cpp:90] Creating Layer fc6
I0721 21:53:54.132897 16567 net.cpp:410] fc6 <- pool5
I0721 21:53:54.132916 16567 net.cpp:368] fc6 -> fc6
I0721 21:53:54.132931 16567 net.cpp:120] Setting up fc6
I0721 21:53:55.692370 16567 net.cpp:127] Top shape: 50 4096 (204800)
I0721 21:53:55.692405 16567 layer_factory.hpp:74] Creating layer relu6
I0721 21:53:55.692419 16567 net.cpp:90] Creating Layer relu6
I0721 21:53:55.692426 16567 net.cpp:410] relu6 <- fc6
I0721 21:53:55.692440 16567 net.cpp:357] relu6 -> fc6 (in-place)
I0721 21:53:55.692451 16567 net.cpp:120] Setting up relu6
I0721 21:53:55.692461 16567 net.cpp:127] Top shape: 50 4096 (204800)
I0721 21:53:55.692467 16567 layer_factory.hpp:74] Creating layer drop6
I0721 21:53:55.692476 16567 net.cpp:90] Creating Layer drop6
I0721 21:53:55.692481 16567 net.cpp:410] drop6 <- fc6
I0721 21:53:55.692490 16567 net.cpp:357] drop6 -> fc6 (in-place)
I0721 21:53:55.692497 16567 net.cpp:120] Setting up drop6
I0721 21:53:55.692507 16567 net.cpp:127] Top shape: 50 4096 (204800)
I0721 21:53:55.692514 16567 layer_factory.hpp:74] Creating layer fc7
I0721 21:53:55.692524 16567 net.cpp:90] Creating Layer fc7
I0721 21:53:55.692531 16567 net.cpp:410] fc7 <- fc6
I0721 21:53:55.692539 16567 net.cpp:368] fc7 -> fc7
I0721 21:53:55.692550 16567 net.cpp:120] Setting up fc7
I0721 21:53:56.273003 16567 net.cpp:127] Top shape: 50 4096 (204800)
I0721 21:53:56.273046 16567 layer_factory.hpp:74] Creating layer relu7
I0721 21:53:56.273067 16567 net.cpp:90] Creating Layer relu7
I0721 21:53:56.273078 16567 net.cpp:410] relu7 <- fc7
I0721 21:53:56.273099 16567 net.cpp:357] relu7 -> fc7 (in-place)
I0721 21:53:56.273118 16567 net.cpp:120] Setting up relu7
I0721 21:53:56.273133 16567 net.cpp:127] Top shape: 50 4096 (204800)
I0721 21:53:56.273145 16567 layer_factory.hpp:74] Creating layer drop7
I0721 21:53:56.273164 16567 net.cpp:90] Creating Layer drop7
I0721 21:53:56.273175 16567 net.cpp:410] drop7 <- fc7
I0721 21:53:56.273185 16567 net.cpp:357] drop7 -> fc7 (in-place)
I0721 21:53:56.273193 16567 net.cpp:120] Setting up drop7
I0721 21:53:56.273205 16567 net.cpp:127] Top shape: 50 4096 (204800)
I0721 21:53:56.273211 16567 layer_factory.hpp:74] Creating layer fc8_flickr
I0721 21:53:56.273223 16567 net.cpp:90] Creating Layer fc8_flickr
I0721 21:53:56.273229 16567 net.cpp:410] fc8_flickr <- fc7
I0721 21:53:56.273241 16567 net.cpp:368] fc8_flickr -> fc8_flickr
I0721 21:53:56.273257 16567 net.cpp:120] Setting up fc8_flickr
I0721 21:53:56.293092 16567 net.cpp:127] Top shape: 50 167 (8350)
I0721 21:53:56.303930 16567 layer_factory.hpp:74] Creating layer fc8_flickr_fc8_flickr_0_split
I0721 21:53:56.303946 16567 net.cpp:90] Creating Layer fc8_flickr_fc8_flickr_0_split
I0721 21:53:56.303954 16567 net.cpp:410] fc8_flickr_fc8_flickr_0_split <- fc8_flickr
I0721 21:53:56.303969 16567 net.cpp:368] fc8_flickr_fc8_flickr_0_split -> fc8_flickr_fc8_flickr_0_split_0
I0721 21:53:56.303983 16567 net.cpp:368] fc8_flickr_fc8_flickr_0_split -> fc8_flickr_fc8_flickr_0_split_1
I0721 21:53:56.303992 16567 net.cpp:120] Setting up fc8_flickr_fc8_flickr_0_split
I0721 21:53:56.304000 16567 net.cpp:127] Top shape: 50 167 (8350)
I0721 21:53:56.304008 16567 net.cpp:127] Top shape: 50 167 (8350)
I0721 21:53:56.304014 16567 layer_factory.hpp:74] Creating layer loss
I0721 21:53:56.304024 16567 net.cpp:90] Creating Layer loss
I0721 21:53:56.304033 16567 net.cpp:410] loss <- fc8_flickr_fc8_flickr_0_split_0
I0721 21:53:56.304039 16567 net.cpp:410] loss <- label_data_1_split_0
I0721 21:53:56.304047 16567 net.cpp:368] loss -> (automatic)
I0721 21:53:56.304055 16567 net.cpp:120] Setting up loss
…
