…
I0719 20:10:51.866539  4664 net.cpp:287] The NetState phase (0) differed from the phase (1) specified by a rule in layer accuracy
I0719 20:10:51.866933  4664 net.cpp:42] Initializing net from parameters: 
name: "LogoCaffeNet"
state {
  phase: TRAIN
}
layer {
  name: "data"
  type: "ImageData"
  top: "data"
  top: "label"
  include {
    phase: TRAIN
  }
  transform_param {
    mirror: true
    crop_size: 227
    mean_file: "data/ilsvrc12/imagenet_mean.binaryproto"
  }
  image_data_param {
    source: "/home/rips_tc/caffe/data/logos/train.txt"
    batch_size: 50
    new_height: 256
    new_width: 256
  }
}
layer {
  name: "conv1"
  type: "Convolution"
  bottom: "data"
  top: "conv1"
  param {
    lr_mult: 0.5
    decay_mult: 1
  }
  param {
    lr_mult: 1
    decay_mult: 0
  }
  convolution_param {
    num_output: 96
    kernel_size: 11
    stride: 4
    weight_filler {
      type: "gaussian"
      std: 0.01
    }
    bias_filler {
      type: "constant"
      value: 0
    }
  }
}
layer {
  name: "relu1"
  type: "ReLU"
  bottom: "conv1"
  top: "conv1"
}
layer {
  name: "pool1"
  type: "Pooling"
  bottom: "conv1"
  top: "pool1"
  pooling_param {
    pool: MAX
    kernel_size: 3
    stride: 2
  }
}
layer {
  name: "norm1"
  type: "LRN"
  bottom: "pool1"
  top: "norm1"
  lrn_param {
    local_size: 5
    alpha: 0.0001
    beta: 0.75
  }
}
layer {
  name: "conv2"
  type: "Convolution"
  bottom: "norm1"
  top: "conv2"
  param {
    lr_mult: 0.5
    decay_mult: 1
  }
  param {
    lr_mult: 1
    decay_mult: 0
  }
  convolution_param {
    num_output: 256
    pad: 2
    kernel_size: 5
    group: 2
    weight_filler {
      type: "gaussian"
      std: 0.01
    }
    bias_filler {
      type: "constant"
      value: 1
    }
  }
}
layer {
  name: "relu2"
  type: "ReLU"
  bottom: "conv2"
  top: "conv2"
}
layer {
  name: "pool2"
  type: "Pooling"
  bottom: "conv2"
  top: "pool2"
  pooling_param {
    pool: MAX
    kernel_size: 3
    stride: 2
  }
}
layer {
  name: "norm2"
  type: "LRN"
  bottom: "pool2"
  top: "norm2"
  lrn_param {
    local_size: 5
    alpha: 0.0001
    beta: 0.75
  }
}
layer {
  name: "conv3"
  type: "Convolution"
  bottom: "norm2"
  top: "conv3"
  param {
    lr_mult: 0.5
    decay_mult: 1
  }
  param {
    lr_mult: 1
    decay_mult: 0
  }
  convolution_param {
    num_output: 384
    pad: 1
    kernel_size: 3
    weight_filler {
      type: "gaussian"
      std: 0.01
    }
    bias_filler {
      type: "constant"
      value: 0
    }
  }
}
layer {
  name: "relu3"
  type: "ReLU"
  bottom: "conv3"
  top: "conv3"
}
layer {
  name: "conv4"
  type: "Convolution"
  bottom: "conv3"
  top: "conv4"
  param {
    lr_mult: 0.5
    decay_mult: 1
  }
  param {
    lr_mult: 1
    decay_mult: 0
  }
  convolution_param {
    num_output: 384
    pad: 1
    kernel_size: 3
    group: 2
    weight_filler {
      type: "gaussian"
      std: 0.01
    }
    bias_filler {
      type: "constant"
      value: 1
    }
  }
}
layer {
  name: "relu4"
  type: "ReLU"
  bottom: "conv4"
  top: "conv4"
}
layer {
  name: "conv5"
  type: "Convolution"
  bottom: "conv4"
  top: "conv5"
  param {
    lr_mult: 0.5
    decay_mult: 1
  }
  param {
    lr_mult: 1
    decay_mult: 0
  }
  convolution_param {
    num_output: 256
    pad: 1
    kernel_size: 3
    group: 2
    weight_filler {
      type: "gaussian"
      std: 0.01
    }
    bias_filler {
      type: "constant"
      value: 1
    }
  }
}
layer {
  name: "relu5"
  type: "ReLU"
  bottom: "conv5"
  top: "conv5"
}
layer {
  name: "pool5"
  type: "Pooling"
  bottom: "conv5"
  top: "pool5"
  pooling_param {
    pool: MAX
    kernel_size: 3
    stride: 2
  }
}
layer {
  name: "fc6"
  type: "InnerProduct"
  bottom: "pool5"
  top: "fc6"
  param {
    lr_mult: 1
    decay_mult: 1
  }
  param {
    lr_mult: 2
    decay_mult: 0
  }
  inner_product_param {
    num_output: 4096
    weight_filler {
      type: "gaussian"
      std: 0.005
    }
    bias_filler {
      type: "constant"
      value: 1
    }
  }
}
layer {
  name: "relu6"
  type: "ReLU"
  bottom: "fc6"
  top: "fc6"
}
layer {
  name: "drop6"
  type: "Dropout"
  bottom: "fc6"
  top: "fc6"
  dropout_param {
    dropout_ratio: 0.5
  }
}
layer {
  name: "fc7"
  type: "InnerProduct"
  bottom: "fc6"
  top: "fc7"
  param {
    lr_mult: 2
    decay_mult: 1
  }
  param {
    lr_mult: 4
    decay_mult: 0
  }
  inner_product_param {
    num_output: 4096
    weight_filler {
      type: "gaussian"
      std: 0.005
    }
    bias_filler {
      type: "constant"
      value: 1
    }
  }
}
layer {
  name: "relu7"
  type: "ReLU"
  bottom: "fc7"
  top: "fc7"
}
layer {
  name: "drop7"
  type: "Dropout"
  bottom: "fc7"
  top: "fc7"
  dropout_param {
    dropout_ratio: 0.5
  }
}
layer {
  name: "fc8_flickr"
  type: "InnerProduct"
  bottom: "fc7"
  top: "fc8_flickr"
  param {
    lr_mult: 20
    decay_mult: 1
  }
  param {
    lr_mult: 20
    decay_mult: 1
  }
  inner_product_param {
    num_output: 167
    weight_filler {
      type: "gaussian"
      std: 0.01
    }
    bias_filler {
      type: "constant"
      value: 0
    }
  }
}
layer {
  name: "loss"
  type: "SoftmaxWithLoss"
  bottom: "fc8_flickr"
  bottom: "label"
}
I0719 20:10:51.867182  4664 layer_factory.hpp:74] Creating layer data
I0719 20:10:51.867236  4664 net.cpp:90] Creating Layer data
I0719 20:10:51.867255  4664 net.cpp:368] data -> data
I0719 20:10:51.867296  4664 net.cpp:368] data -> label
I0719 20:10:51.867322  4664 net.cpp:120] Setting up data
I0719 20:10:51.867338  4664 data_transformer.cpp:22] Loading mean file from: data/ilsvrc12/imagenet_mean.binaryproto
I0719 20:10:51.924180  4664 image_data_layer.cpp:36] Opening file /home/rips_tc/caffe/data/logos/train.txt
I0719 20:10:51.935348  4664 image_data_layer.cpp:51] A total of 12219 images.
I0719 20:10:51.944126  4664 image_data_layer.cpp:74] output data size: 50,3,227,227
I0719 20:10:51.952755  4664 net.cpp:127] Top shape: 50 3 227 227 (7729350)
I0719 20:10:51.952806  4664 net.cpp:127] Top shape: 50 (50)
I0719 20:10:51.952824  4664 layer_factory.hpp:74] Creating layer conv1
I0719 20:10:51.952855  4664 net.cpp:90] Creating Layer conv1
I0719 20:10:51.952869  4664 net.cpp:410] conv1 <- data
I0719 20:10:51.952893  4664 net.cpp:368] conv1 -> conv1
I0719 20:10:51.952919  4664 net.cpp:120] Setting up conv1
I0719 20:10:51.954912  4664 net.cpp:127] Top shape: 50 96 55 55 (14520000)
I0719 20:10:51.954947  4664 layer_factory.hpp:74] Creating layer relu1
I0719 20:10:51.954965  4664 net.cpp:90] Creating Layer relu1
I0719 20:10:51.954977  4664 net.cpp:410] relu1 <- conv1
I0719 20:10:51.954989  4664 net.cpp:357] relu1 -> conv1 (in-place)
I0719 20:10:51.955003  4664 net.cpp:120] Setting up relu1
I0719 20:10:51.955024  4664 net.cpp:127] Top shape: 50 96 55 55 (14520000)
I0719 20:10:51.955044  4664 layer_factory.hpp:74] Creating layer pool1
I0719 20:10:51.955060  4664 net.cpp:90] Creating Layer pool1
I0719 20:10:51.955075  4664 net.cpp:410] pool1 <- conv1
I0719 20:10:51.955088  4664 net.cpp:368] pool1 -> pool1
I0719 20:10:51.955111  4664 net.cpp:120] Setting up pool1
I0719 20:10:51.955147  4664 net.cpp:127] Top shape: 50 96 27 27 (3499200)
I0719 20:10:51.955163  4664 layer_factory.hpp:74] Creating layer norm1
I0719 20:10:51.955179  4664 net.cpp:90] Creating Layer norm1
I0719 20:10:51.955189  4664 net.cpp:410] norm1 <- pool1
I0719 20:10:51.955202  4664 net.cpp:368] norm1 -> norm1
I0719 20:10:51.955222  4664 net.cpp:120] Setting up norm1
I0719 20:10:51.955242  4664 net.cpp:127] Top shape: 50 96 27 27 (3499200)
I0719 20:10:51.955286  4664 layer_factory.hpp:74] Creating layer conv2
I0719 20:10:51.955303  4664 net.cpp:90] Creating Layer conv2
I0719 20:10:51.955317  4664 net.cpp:410] conv2 <- norm1
I0719 20:10:51.955332  4664 net.cpp:368] conv2 -> conv2
I0719 20:10:51.955350  4664 net.cpp:120] Setting up conv2
I0719 20:10:51.971211  4664 net.cpp:127] Top shape: 50 256 27 27 (9331200)
I0719 20:10:51.971241  4664 layer_factory.hpp:74] Creating layer relu2
I0719 20:10:51.971256  4664 net.cpp:90] Creating Layer relu2
I0719 20:10:51.971267  4664 net.cpp:410] relu2 <- conv2
I0719 20:10:51.971279  4664 net.cpp:357] relu2 -> conv2 (in-place)
I0719 20:10:51.971292  4664 net.cpp:120] Setting up relu2
I0719 20:10:51.971305  4664 net.cpp:127] Top shape: 50 256 27 27 (9331200)
I0719 20:10:51.971314  4664 layer_factory.hpp:74] Creating layer pool2
I0719 20:10:51.971328  4664 net.cpp:90] Creating Layer pool2
I0719 20:10:51.971336  4664 net.cpp:410] pool2 <- conv2
I0719 20:10:51.971349  4664 net.cpp:368] pool2 -> pool2
I0719 20:10:51.971362  4664 net.cpp:120] Setting up pool2
I0719 20:10:51.971386  4664 net.cpp:127] Top shape: 50 256 13 13 (2163200)
I0719 20:10:51.971396  4664 layer_factory.hpp:74] Creating layer norm2
I0719 20:10:51.971410  4664 net.cpp:90] Creating Layer norm2
I0719 20:10:51.971421  4664 net.cpp:410] norm2 <- pool2
I0719 20:10:51.971433  4664 net.cpp:368] norm2 -> norm2
I0719 20:10:51.971451  4664 net.cpp:120] Setting up norm2
I0719 20:10:51.971469  4664 net.cpp:127] Top shape: 50 256 13 13 (2163200)
I0719 20:10:51.971483  4664 layer_factory.hpp:74] Creating layer conv3
I0719 20:10:51.971498  4664 net.cpp:90] Creating Layer conv3
I0719 20:10:51.971513  4664 net.cpp:410] conv3 <- norm2
I0719 20:10:51.971525  4664 net.cpp:368] conv3 -> conv3
I0719 20:10:51.971544  4664 net.cpp:120] Setting up conv3
I0719 20:10:52.011977  4664 net.cpp:127] Top shape: 50 384 13 13 (3244800)
I0719 20:10:52.012006  4664 layer_factory.hpp:74] Creating layer relu3
I0719 20:10:52.012020  4664 net.cpp:90] Creating Layer relu3
I0719 20:10:52.012029  4664 net.cpp:410] relu3 <- conv3
I0719 20:10:52.012040  4664 net.cpp:357] relu3 -> conv3 (in-place)
I0719 20:10:52.012053  4664 net.cpp:120] Setting up relu3
I0719 20:10:52.012063  4664 net.cpp:127] Top shape: 50 384 13 13 (3244800)
I0719 20:10:52.012074  4664 layer_factory.hpp:74] Creating layer conv4
I0719 20:10:52.012089  4664 net.cpp:90] Creating Layer conv4
I0719 20:10:52.012095  4664 net.cpp:410] conv4 <- conv3
I0719 20:10:52.012107  4664 net.cpp:368] conv4 -> conv4
I0719 20:10:52.012121  4664 net.cpp:120] Setting up conv4
I0719 20:10:52.039041  4664 net.cpp:127] Top shape: 50 384 13 13 (3244800)
I0719 20:10:52.039065  4664 layer_factory.hpp:74] Creating layer relu4
I0719 20:10:52.039077  4664 net.cpp:90] Creating Layer relu4
I0719 20:10:52.039085  4664 net.cpp:410] relu4 <- conv4
I0719 20:10:52.039095  4664 net.cpp:357] relu4 -> conv4 (in-place)
I0719 20:10:52.039106  4664 net.cpp:120] Setting up relu4
I0719 20:10:52.039115  4664 net.cpp:127] Top shape: 50 384 13 13 (3244800)
I0719 20:10:52.039124  4664 layer_factory.hpp:74] Creating layer conv5
I0719 20:10:52.039134  4664 net.cpp:90] Creating Layer conv5
I0719 20:10:52.039142  4664 net.cpp:410] conv5 <- conv4
I0719 20:10:52.039152  4664 net.cpp:368] conv5 -> conv5
I0719 20:10:52.039165  4664 net.cpp:120] Setting up conv5
I0719 20:10:52.055474  4664 net.cpp:127] Top shape: 50 256 13 13 (2163200)
I0719 20:10:52.055500  4664 layer_factory.hpp:74] Creating layer relu5
I0719 20:10:52.055511  4664 net.cpp:90] Creating Layer relu5
I0719 20:10:52.055518  4664 net.cpp:410] relu5 <- conv5
I0719 20:10:52.055528  4664 net.cpp:357] relu5 -> conv5 (in-place)
I0719 20:10:52.055538  4664 net.cpp:120] Setting up relu5
I0719 20:10:52.055547  4664 net.cpp:127] Top shape: 50 256 13 13 (2163200)
I0719 20:10:52.055554  4664 layer_factory.hpp:74] Creating layer pool5
I0719 20:10:52.055565  4664 net.cpp:90] Creating Layer pool5
I0719 20:10:52.055578  4664 net.cpp:410] pool5 <- conv5
I0719 20:10:52.055588  4664 net.cpp:368] pool5 -> pool5
I0719 20:10:52.055598  4664 net.cpp:120] Setting up pool5
I0719 20:10:52.055634  4664 net.cpp:127] Top shape: 50 256 6 6 (460800)
I0719 20:10:52.055644  4664 layer_factory.hpp:74] Creating layer fc6
I0719 20:10:52.055660  4664 net.cpp:90] Creating Layer fc6
I0719 20:10:52.055670  4664 net.cpp:410] fc6 <- pool5
I0719 20:10:52.055680  4664 net.cpp:368] fc6 -> fc6
I0719 20:10:52.055697  4664 net.cpp:120] Setting up fc6
I0719 20:10:53.072957  4664 net.cpp:127] Top shape: 50 4096 (204800)
I0719 20:10:53.072989  4664 layer_factory.hpp:74] Creating layer relu6
I0719 20:10:53.073003  4664 net.cpp:90] Creating Layer relu6
I0719 20:10:53.073009  4664 net.cpp:410] relu6 <- fc6
I0719 20:10:53.073019  4664 net.cpp:357] relu6 -> fc6 (in-place)
I0719 20:10:53.073029  4664 net.cpp:120] Setting up relu6
I0719 20:10:53.073040  4664 net.cpp:127] Top shape: 50 4096 (204800)
I0719 20:10:53.073045  4664 layer_factory.hpp:74] Creating layer drop6
I0719 20:10:53.073055  4664 net.cpp:90] Creating Layer drop6
I0719 20:10:53.073060  4664 net.cpp:410] drop6 <- fc6
I0719 20:10:53.073067  4664 net.cpp:357] drop6 -> fc6 (in-place)
I0719 20:10:53.073078  4664 net.cpp:120] Setting up drop6
I0719 20:10:53.073089  4664 net.cpp:127] Top shape: 50 4096 (204800)
I0719 20:10:53.073097  4664 layer_factory.hpp:74] Creating layer fc7
I0719 20:10:53.073107  4664 net.cpp:90] Creating Layer fc7
I0719 20:10:53.073114  4664 net.cpp:410] fc7 <- fc6
I0719 20:10:53.073124  4664 net.cpp:368] fc7 -> fc7
I0719 20:10:53.073134  4664 net.cpp:120] Setting up fc7
I0719 20:10:53.519412  4664 net.cpp:127] Top shape: 50 4096 (204800)
I0719 20:10:53.519443  4664 layer_factory.hpp:74] Creating layer relu7
I0719 20:10:53.519455  4664 net.cpp:90] Creating Layer relu7
I0719 20:10:53.519462  4664 net.cpp:410] relu7 <- fc7
I0719 20:10:53.519472  4664 net.cpp:357] relu7 -> fc7 (in-place)
I0719 20:10:53.519484  4664 net.cpp:120] Setting up relu7
I0719 20:10:53.519491  4664 net.cpp:127] Top shape: 50 4096 (204800)
I0719 20:10:53.519500  4664 layer_factory.hpp:74] Creating layer drop7
I0719 20:10:53.519507  4664 net.cpp:90] Creating Layer drop7
I0719 20:10:53.519513  4664 net.cpp:410] drop7 <- fc7
I0719 20:10:53.519520  4664 net.cpp:357] drop7 -> fc7 (in-place)
I0719 20:10:53.519528  4664 net.cpp:120] Setting up drop7
I0719 20:10:53.519537  4664 net.cpp:127] Top shape: 50 4096 (204800)
I0719 20:10:53.519542  4664 layer_factory.hpp:74] Creating layer fc8_flickr
I0719 20:10:53.519553  4664 net.cpp:90] Creating Layer fc8_flickr
I0719 20:10:53.519561  4664 net.cpp:410] fc8_flickr <- fc7
I0719 20:10:53.519568  4664 net.cpp:368] fc8_flickr -> fc8_flickr
I0719 20:10:53.519579  4664 net.cpp:120] Setting up fc8_flickr
I0719 20:10:53.538182  4664 net.cpp:127] Top shape: 50 167 (8350)
I0719 20:10:53.538197  4664 layer_factory.hpp:74] Creating layer loss
I0719 20:10:53.538213  4664 net.cpp:90] Creating Layer loss
I0719 20:10:53.538219  4664 net.cpp:410] loss <- fc8_flickr
I0719 20:10:53.538226  4664 net.cpp:410] loss <- label
I0719 20:10:53.538239  4664 net.cpp:368] loss -> (automatic)
I0719 20:10:53.538246  4664 net.cpp:120] Setting up loss
I0719 20:10:53.538255  4664 layer_factory.hpp:74] Creating layer loss
…
I0719 20:10:53.539217  4664 net.cpp:287] The NetState phase (1) differed from the phase (0) specified by a rule in layer data
I0719 20:10:53.539407  4664 net.cpp:42] Initializing net from parameters: 
name: "LogoCaffeNet"
state {
  phase: TEST
}
layer {
  name: "data"
  type: "ImageData"
  top: "data"
  top: "label"
  include {
    phase: TEST
  }
  transform_param {
    mirror: false
    crop_size: 227
    mean_file: "data/ilsvrc12/imagenet_mean.binaryproto"
  }
  image_data_param {
    source: "/home/rips_tc/caffe/data/logos/test.txt"
    batch_size: 50
    new_height: 256
    new_width: 256
  }
}
layer {
  name: "conv1"
  type: "Convolution"
  bottom: "data"
  top: "conv1"
  param {
    lr_mult: 0.5
    decay_mult: 1
  }
  param {
    lr_mult: 1
    decay_mult: 0
  }
  convolution_param {
    num_output: 96
    kernel_size: 11
    stride: 4
    weight_filler {
      type: "gaussian"
      std: 0.01
    }
    bias_filler {
      type: "constant"
      value: 0
    }
  }
}
layer {
  name: "relu1"
  type: "ReLU"
  bottom: "conv1"
  top: "conv1"
}
layer {
  name: "pool1"
  type: "Pooling"
  bottom: "conv1"
  top: "pool1"
  pooling_param {
    pool: MAX
    kernel_size: 3
    stride: 2
  }
}
layer {
  name: "norm1"
  type: "LRN"
  bottom: "pool1"
  top: "norm1"
  lrn_param {
    local_size: 5
    alpha: 0.0001
    beta: 0.75
  }
}
layer {
  name: "conv2"
  type: "Convolution"
  bottom: "norm1"
  top: "conv2"
  param {
    lr_mult: 0.5
    decay_mult: 1
  }
  param {
    lr_mult: 1
    decay_mult: 0
  }
  convolution_param {
    num_output: 256
    pad: 2
    kernel_size: 5
    group: 2
    weight_filler {
      type: "gaussian"
      std: 0.01
    }
    bias_filler {
      type: "constant"
      value: 1
    }
  }
}
layer {
  name: "relu2"
  type: "ReLU"
  bottom: "conv2"
  top: "conv2"
}
layer {
  name: "pool2"
  type: "Pooling"
  bottom: "conv2"
  top: "pool2"
  pooling_param {
    pool: MAX
    kernel_size: 3
    stride: 2
  }
}
layer {
  name: "norm2"
  type: "LRN"
  bottom: "pool2"
  top: "norm2"
  lrn_param {
    local_size: 5
    alpha: 0.0001
    beta: 0.75
  }
}
layer {
  name: "conv3"
  type: "Convolution"
  bottom: "norm2"
  top: "conv3"
  param {
    lr_mult: 0.5
    decay_mult: 1
  }
  param {
    lr_mult: 1
    decay_mult: 0
  }
  convolution_param {
    num_output: 384
    pad: 1
    kernel_size: 3
    weight_filler {
      type: "gaussian"
      std: 0.01
    }
    bias_filler {
      type: "constant"
      value: 0
    }
  }
}
layer {
  name: "relu3"
  type: "ReLU"
  bottom: "conv3"
  top: "conv3"
}
layer {
  name: "conv4"
  type: "Convolution"
  bottom: "conv3"
  top: "conv4"
  param {
    lr_mult: 0.5
    decay_mult: 1
  }
  param {
    lr_mult: 1
    decay_mult: 0
  }
  convolution_param {
    num_output: 384
    pad: 1
    kernel_size: 3
    group: 2
    weight_filler {
      type: "gaussian"
      std: 0.01
    }
    bias_filler {
      type: "constant"
      value: 1
    }
  }
}
layer {
  name: "relu4"
  type: "ReLU"
  bottom: "conv4"
  top: "conv4"
}
layer {
  name: "conv5"
  type: "Convolution"
  bottom: "conv4"
  top: "conv5"
  param {
    lr_mult: 0.5
    decay_mult: 1
  }
  param {
    lr_mult: 1
    decay_mult: 0
  }
  convolution_param {
    num_output: 256
    pad: 1
    kernel_size: 3
    group: 2
    weight_filler {
      type: "gaussian"
      std: 0.01
    }
    bias_filler {
      type: "constant"
      value: 1
    }
  }
}
layer {
  name: "relu5"
  type: "ReLU"
  bottom: "conv5"
  top: "conv5"
}
layer {
  name: "pool5"
  type: "Pooling"
  bottom: "conv5"
  top: "pool5"
  pooling_param {
    pool: MAX
    kernel_size: 3
    stride: 2
  }
}
layer {
  name: "fc6"
  type: "InnerProduct"
  bottom: "pool5"
  top: "fc6"
  param {
    lr_mult: 1
    decay_mult: 1
  }
  param {
    lr_mult: 2
    decay_mult: 0
  }
  inner_product_param {
    num_output: 4096
    weight_filler {
      type: "gaussian"
      std: 0.005
    }
    bias_filler {
      type: "constant"
      value: 1
    }
  }
}
layer {
  name: "relu6"
  type: "ReLU"
  bottom: "fc6"
  top: "fc6"
}
layer {
  name: "drop6"
  type: "Dropout"
  bottom: "fc6"
  top: "fc6"
  dropout_param {
    dropout_ratio: 0.5
  }
}
layer {
  name: "fc7"
  type: "InnerProduct"
  bottom: "fc6"
  top: "fc7"
  param {
    lr_mult: 2
    decay_mult: 1
  }
  param {
    lr_mult: 4
    decay_mult: 0
  }
  inner_product_param {
    num_output: 4096
    weight_filler {
      type: "gaussian"
      std: 0.005
    }
    bias_filler {
      type: "constant"
      value: 1
    }
  }
}
layer {
  name: "relu7"
  type: "ReLU"
  bottom: "fc7"
  top: "fc7"
}
layer {
  name: "drop7"
  type: "Dropout"
  bottom: "fc7"
  top: "fc7"
  dropout_param {
    dropout_ratio: 0.5
  }
}
layer {
  name: "fc8_flickr"
  type: "InnerProduct"
  bottom: "fc7"
  top: "fc8_flickr"
  param {
    lr_mult: 20
    decay_mult: 1
  }
  param {
    lr_mult: 20
    decay_mult: 1
  }
  inner_product_param {
    num_output: 167
    weight_filler {
      type: "gaussian"
      std: 0.01
    }
    bias_filler {
      type: "constant"
      value: 0
    }
  }
}
layer {
  name: "loss"
  type: "SoftmaxWithLoss"
  bottom: "fc8_flickr"
  bottom: "label"
}
layer {
  name: "accuracy"
  type: "Accuracy"
  bottom: "fc8_flickr"
  bottom: "label"
  top: "accuracy"
  include {
    phase: TEST
  }
  accuracy_param {
    top_k: 3
  }
}
I0719 20:10:53.539530  4664 layer_factory.hpp:74] Creating layer data
I0719 20:10:53.539546  4664 net.cpp:90] Creating Layer data
I0719 20:10:53.539556  4664 net.cpp:368] data -> data
I0719 20:10:53.539567  4664 net.cpp:368] data -> label
I0719 20:10:53.539579  4664 net.cpp:120] Setting up data
I0719 20:10:53.539587  4664 data_transformer.cpp:22] Loading mean file from: data/ilsvrc12/imagenet_mean.binaryproto
I0719 20:10:53.541000  4664 image_data_layer.cpp:36] Opening file /home/rips_tc/caffe/data/logos/test.txt
I0719 20:10:53.541568  4664 image_data_layer.cpp:51] A total of 1358 images.
I0719 20:10:53.556850  4664 image_data_layer.cpp:74] output data size: 50,3,227,227
I0719 20:10:53.561468  4664 net.cpp:127] Top shape: 50 3 227 227 (7729350)
I0719 20:10:53.561503  4664 net.cpp:127] Top shape: 50 (50)
I0719 20:10:53.561514  4664 layer_factory.hpp:74] Creating layer label_data_1_split
I0719 20:10:53.561581  4664 net.cpp:90] Creating Layer label_data_1_split
I0719 20:10:53.561590  4664 net.cpp:410] label_data_1_split <- label
I0719 20:10:53.561605  4664 net.cpp:368] label_data_1_split -> label_data_1_split_0
I0719 20:10:53.561621  4664 net.cpp:368] label_data_1_split -> label_data_1_split_1
I0719 20:10:53.561631  4664 net.cpp:120] Setting up label_data_1_split
I0719 20:10:53.561643  4664 net.cpp:127] Top shape: 50 (50)
I0719 20:10:53.561651  4664 net.cpp:127] Top shape: 50 (50)
I0719 20:10:53.561661  4664 layer_factory.hpp:74] Creating layer conv1
I0719 20:10:53.561676  4664 net.cpp:90] Creating Layer conv1
I0719 20:10:53.561705  4664 net.cpp:410] conv1 <- data
I0719 20:10:53.561718  4664 net.cpp:368] conv1 -> conv1
I0719 20:10:53.561733  4664 net.cpp:120] Setting up conv1
I0719 20:10:53.562806  4664 net.cpp:127] Top shape: 50 96 55 55 (14520000)
I0719 20:10:53.562824  4664 layer_factory.hpp:74] Creating layer relu1
I0719 20:10:53.562834  4664 net.cpp:90] Creating Layer relu1
I0719 20:10:53.562840  4664 net.cpp:410] relu1 <- conv1
I0719 20:10:53.562849  4664 net.cpp:357] relu1 -> conv1 (in-place)
I0719 20:10:53.562856  4664 net.cpp:120] Setting up relu1
I0719 20:10:53.562866  4664 net.cpp:127] Top shape: 50 96 55 55 (14520000)
I0719 20:10:53.562872  4664 layer_factory.hpp:74] Creating layer pool1
I0719 20:10:53.562882  4664 net.cpp:90] Creating Layer pool1
I0719 20:10:53.562888  4664 net.cpp:410] pool1 <- conv1
I0719 20:10:53.562896  4664 net.cpp:368] pool1 -> pool1
I0719 20:10:53.562906  4664 net.cpp:120] Setting up pool1
I0719 20:10:53.562917  4664 net.cpp:127] Top shape: 50 96 27 27 (3499200)
I0719 20:10:53.562924  4664 layer_factory.hpp:74] Creating layer norm1
I0719 20:10:53.562934  4664 net.cpp:90] Creating Layer norm1
I0719 20:10:53.562942  4664 net.cpp:410] norm1 <- pool1
I0719 20:10:53.562949  4664 net.cpp:368] norm1 -> norm1
I0719 20:10:53.562959  4664 net.cpp:120] Setting up norm1
I0719 20:10:53.562970  4664 net.cpp:127] Top shape: 50 96 27 27 (3499200)
I0719 20:10:53.562978  4664 layer_factory.hpp:74] Creating layer conv2
I0719 20:10:53.562988  4664 net.cpp:90] Creating Layer conv2
I0719 20:10:53.562995  4664 net.cpp:410] conv2 <- norm1
I0719 20:10:53.563004  4664 net.cpp:368] conv2 -> conv2
I0719 20:10:53.563014  4664 net.cpp:120] Setting up conv2
I0719 20:10:53.572283  4664 net.cpp:127] Top shape: 50 256 27 27 (9331200)
I0719 20:10:53.572299  4664 layer_factory.hpp:74] Creating layer relu2
I0719 20:10:53.572311  4664 net.cpp:90] Creating Layer relu2
I0719 20:10:53.572319  4664 net.cpp:410] relu2 <- conv2
I0719 20:10:53.572325  4664 net.cpp:357] relu2 -> conv2 (in-place)
I0719 20:10:53.572334  4664 net.cpp:120] Setting up relu2
I0719 20:10:53.572343  4664 net.cpp:127] Top shape: 50 256 27 27 (9331200)
I0719 20:10:53.572350  4664 layer_factory.hpp:74] Creating layer pool2
I0719 20:10:53.572360  4664 net.cpp:90] Creating Layer pool2
I0719 20:10:53.572367  4664 net.cpp:410] pool2 <- conv2
I0719 20:10:53.572376  4664 net.cpp:368] pool2 -> pool2
I0719 20:10:53.572384  4664 net.cpp:120] Setting up pool2
I0719 20:10:53.572396  4664 net.cpp:127] Top shape: 50 256 13 13 (2163200)
I0719 20:10:53.572404  4664 layer_factory.hpp:74] Creating layer norm2
I0719 20:10:53.572417  4664 net.cpp:90] Creating Layer norm2
I0719 20:10:53.572424  4664 net.cpp:410] norm2 <- pool2
I0719 20:10:53.572434  4664 net.cpp:368] norm2 -> norm2
I0719 20:10:53.572443  4664 net.cpp:120] Setting up norm2
I0719 20:10:53.572454  4664 net.cpp:127] Top shape: 50 256 13 13 (2163200)
I0719 20:10:53.572463  4664 layer_factory.hpp:74] Creating layer conv3
I0719 20:10:53.572474  4664 net.cpp:90] Creating Layer conv3
I0719 20:10:53.572480  4664 net.cpp:410] conv3 <- norm2
I0719 20:10:53.572489  4664 net.cpp:368] conv3 -> conv3
I0719 20:10:53.572499  4664 net.cpp:120] Setting up conv3
I0719 20:10:53.597914  4664 net.cpp:127] Top shape: 50 384 13 13 (3244800)
I0719 20:10:53.597939  4664 layer_factory.hpp:74] Creating layer relu3
I0719 20:10:53.597949  4664 net.cpp:90] Creating Layer relu3
I0719 20:10:53.597956  4664 net.cpp:410] relu3 <- conv3
I0719 20:10:53.597966  4664 net.cpp:357] relu3 -> conv3 (in-place)
I0719 20:10:53.597988  4664 net.cpp:120] Setting up relu3
I0719 20:10:53.598000  4664 net.cpp:127] Top shape: 50 384 13 13 (3244800)
I0719 20:10:53.598004  4664 layer_factory.hpp:74] Creating layer conv4
I0719 20:10:53.598014  4664 net.cpp:90] Creating Layer conv4
I0719 20:10:53.598021  4664 net.cpp:410] conv4 <- conv3
I0719 20:10:53.598031  4664 net.cpp:368] conv4 -> conv4
I0719 20:10:53.598040  4664 net.cpp:120] Setting up conv4
I0719 20:10:53.616303  4664 net.cpp:127] Top shape: 50 384 13 13 (3244800)
I0719 20:10:53.616322  4664 layer_factory.hpp:74] Creating layer relu4
I0719 20:10:53.616351  4664 net.cpp:90] Creating Layer relu4
I0719 20:10:53.616358  4664 net.cpp:410] relu4 <- conv4
I0719 20:10:53.616369  4664 net.cpp:357] relu4 -> conv4 (in-place)
I0719 20:10:53.616377  4664 net.cpp:120] Setting up relu4
I0719 20:10:53.616385  4664 net.cpp:127] Top shape: 50 384 13 13 (3244800)
I0719 20:10:53.616390  4664 layer_factory.hpp:74] Creating layer conv5
I0719 20:10:53.616400  4664 net.cpp:90] Creating Layer conv5
I0719 20:10:53.616405  4664 net.cpp:410] conv5 <- conv4
I0719 20:10:53.616415  4664 net.cpp:368] conv5 -> conv5
I0719 20:10:53.616425  4664 net.cpp:120] Setting up conv5
I0719 20:10:53.628454  4664 net.cpp:127] Top shape: 50 256 13 13 (2163200)
I0719 20:10:53.628473  4664 layer_factory.hpp:74] Creating layer relu5
I0719 20:10:53.628482  4664 net.cpp:90] Creating Layer relu5
I0719 20:10:53.628489  4664 net.cpp:410] relu5 <- conv5
I0719 20:10:53.628496  4664 net.cpp:357] relu5 -> conv5 (in-place)
I0719 20:10:53.628504  4664 net.cpp:120] Setting up relu5
I0719 20:10:53.628512  4664 net.cpp:127] Top shape: 50 256 13 13 (2163200)
I0719 20:10:53.628520  4664 layer_factory.hpp:74] Creating layer pool5
I0719 20:10:53.628531  4664 net.cpp:90] Creating Layer pool5
I0719 20:10:53.628538  4664 net.cpp:410] pool5 <- conv5
I0719 20:10:53.628545  4664 net.cpp:368] pool5 -> pool5
I0719 20:10:53.628553  4664 net.cpp:120] Setting up pool5
I0719 20:10:53.628567  4664 net.cpp:127] Top shape: 50 256 6 6 (460800)
I0719 20:10:53.628576  4664 layer_factory.hpp:74] Creating layer fc6
I0719 20:10:53.628587  4664 net.cpp:90] Creating Layer fc6
I0719 20:10:53.628592  4664 net.cpp:410] fc6 <- pool5
I0719 20:10:53.628603  4664 net.cpp:368] fc6 -> fc6
I0719 20:10:53.628614  4664 net.cpp:120] Setting up fc6
I0719 20:10:54.632382  4664 net.cpp:127] Top shape: 50 4096 (204800)
I0719 20:10:54.632414  4664 layer_factory.hpp:74] Creating layer relu6
I0719 20:10:54.632428  4664 net.cpp:90] Creating Layer relu6
I0719 20:10:54.632436  4664 net.cpp:410] relu6 <- fc6
I0719 20:10:54.632444  4664 net.cpp:357] relu6 -> fc6 (in-place)
I0719 20:10:54.632455  4664 net.cpp:120] Setting up relu6
I0719 20:10:54.632465  4664 net.cpp:127] Top shape: 50 4096 (204800)
I0719 20:10:54.632472  4664 layer_factory.hpp:74] Creating layer drop6
I0719 20:10:54.632480  4664 net.cpp:90] Creating Layer drop6
I0719 20:10:54.632485  4664 net.cpp:410] drop6 <- fc6
I0719 20:10:54.632496  4664 net.cpp:357] drop6 -> fc6 (in-place)
I0719 20:10:54.632508  4664 net.cpp:120] Setting up drop6
I0719 20:10:54.632519  4664 net.cpp:127] Top shape: 50 4096 (204800)
I0719 20:10:54.632526  4664 layer_factory.hpp:74] Creating layer fc7
I0719 20:10:54.632537  4664 net.cpp:90] Creating Layer fc7
I0719 20:10:54.632544  4664 net.cpp:410] fc7 <- fc6
I0719 20:10:54.632552  4664 net.cpp:368] fc7 -> fc7
I0719 20:10:54.632563  4664 net.cpp:120] Setting up fc7
I0719 20:10:55.077967  4664 net.cpp:127] Top shape: 50 4096 (204800)
I0719 20:10:55.077998  4664 layer_factory.hpp:74] Creating layer relu7
I0719 20:10:55.078011  4664 net.cpp:90] Creating Layer relu7
I0719 20:10:55.078017  4664 net.cpp:410] relu7 <- fc7
I0719 20:10:55.078028  4664 net.cpp:357] relu7 -> fc7 (in-place)
I0719 20:10:55.078039  4664 net.cpp:120] Setting up relu7
I0719 20:10:55.078048  4664 net.cpp:127] Top shape: 50 4096 (204800)
I0719 20:10:55.078054  4664 layer_factory.hpp:74] Creating layer drop7
I0719 20:10:55.078063  4664 net.cpp:90] Creating Layer drop7
I0719 20:10:55.078068  4664 net.cpp:410] drop7 <- fc7
I0719 20:10:55.078076  4664 net.cpp:357] drop7 -> fc7 (in-place)
I0719 20:10:55.078084  4664 net.cpp:120] Setting up drop7
I0719 20:10:55.078095  4664 net.cpp:127] Top shape: 50 4096 (204800)
I0719 20:10:55.078104  4664 layer_factory.hpp:74] Creating layer fc8_flickr
I0719 20:10:55.078114  4664 net.cpp:90] Creating Layer fc8_flickr
I0719 20:10:55.078121  4664 net.cpp:410] fc8_flickr <- fc7
I0719 20:10:55.078131  4664 net.cpp:368] fc8_flickr -> fc8_flickr
I0719 20:10:55.078145  4664 net.cpp:120] Setting up fc8_flickr
I0719 20:10:55.096674  4664 net.cpp:127] Top shape: 50 167 (8350)
I0719 20:10:55.096706  4664 layer_factory.hpp:74] Creating layer fc8_flickr_fc8_flickr_0_split
I0719 20:10:55.096717  4664 net.cpp:90] Creating Layer fc8_flickr_fc8_flickr_0_split
I0719 20:10:55.096724  4664 net.cpp:410] fc8_flickr_fc8_flickr_0_split <- fc8_flickr
I0719 20:10:55.096730  4664 net.cpp:368] fc8_flickr_fc8_flickr_0_split -> fc8_flickr_fc8_flickr_0_split_0
I0719 20:10:55.096740  4664 net.cpp:368] fc8_flickr_fc8_flickr_0_split -> fc8_flickr_fc8_flickr_0_split_1
I0719 20:10:55.096750  4664 net.cpp:120] Setting up fc8_flickr_fc8_flickr_0_split
I0719 20:10:55.096758  4664 net.cpp:127] Top shape: 50 167 (8350)
I0719 20:10:55.096765  4664 net.cpp:127] Top shape: 50 167 (8350)
I0719 20:10:55.096771  4664 layer_factory.hpp:74] Creating layer loss
I0719 20:10:55.096781  4664 net.cpp:90] Creating Layer loss
I0719 20:10:55.096787  4664 net.cpp:410] loss <- fc8_flickr_fc8_flickr_0_split_0
I0719 20:10:55.096796  4664 net.cpp:410] loss <- label_data_1_split_0
I0719 20:10:55.096804  4664 net.cpp:368] loss -> (automatic)
I0719 20:10:55.096812  4664 net.cpp:120] Setting up loss
…
