…
I0722 13:03:44.651031 17803 net.cpp:287] The NetState phase (0) differed from the phase (1) specified by a rule in layer accuracy
I0722 13:03:44.651482 17803 net.cpp:42] Initializing net from parameters: 
name: "LogoCaffeNet"
state {
  phase: TRAIN
}
layer {
  name: "data"
  type: "ImageData"
  top: "data"
  top: "label"
  include {
    phase: TRAIN
  }
  transform_param {
    mirror: true
    crop_size: 227
    mean_file: "data/ilsvrc12/imagenet_mean.binaryproto"
  }
  image_data_param {
    source: "/home/rips_tc/caffe/data/logos/train.txt"
    batch_size: 50
    new_height: 256
    new_width: 256
  }
}
layer {
  name: "conv1"
  type: "Convolution"
  bottom: "data"
  top: "conv1"
  param {
    lr_mult: 0.5
    decay_mult: 1
  }
  param {
    lr_mult: 1
    decay_mult: 0
  }
  convolution_param {
    num_output: 96
    kernel_size: 11
    stride: 4
    weight_filler {
      type: "gaussian"
      std: 0.01
    }
    bias_filler {
      type: "constant"
      value: 0
    }
  }
}
layer {
  name: "relu1"
  type: "ReLU"
  bottom: "conv1"
  top: "conv1"
}
layer {
  name: "pool1"
  type: "Pooling"
  bottom: "conv1"
  top: "pool1"
  pooling_param {
    pool: MAX
    kernel_size: 3
    stride: 2
  }
}
layer {
  name: "norm1"
  type: "LRN"
  bottom: "pool1"
  top: "norm1"
  lrn_param {
    local_size: 5
    alpha: 0.0001
    beta: 0.75
  }
}
layer {
  name: "conv2"
  type: "Convolution"
  bottom: "norm1"
  top: "conv2"
  param {
    lr_mult: 0.5
    decay_mult: 1
  }
  param {
    lr_mult: 1
    decay_mult: 0
  }
  convolution_param {
    num_output: 256
    pad: 2
    kernel_size: 5
    group: 2
    weight_filler {
      type: "gaussian"
      std: 0.01
    }
    bias_filler {
      type: "constant"
      value: 1
    }
  }
}
layer {
  name: "relu2"
  type: "ReLU"
  bottom: "conv2"
  top: "conv2"
}
layer {
  name: "pool2"
  type: "Pooling"
  bottom: "conv2"
  top: "pool2"
  pooling_param {
    pool: MAX
    kernel_size: 3
    stride: 2
  }
}
layer {
  name: "norm2"
  type: "LRN"
  bottom: "pool2"
  top: "norm2"
  lrn_param {
    local_size: 5
    alpha: 0.0001
    beta: 0.75
  }
}
layer {
  name: "conv3"
  type: "Convolution"
  bottom: "norm2"
  top: "conv3"
  param {
    lr_mult: 0.5
    decay_mult: 1
  }
  param {
    lr_mult: 1
    decay_mult: 0
  }
  convolution_param {
    num_output: 384
    pad: 1
    kernel_size: 3
    weight_filler {
      type: "gaussian"
      std: 0.01
    }
    bias_filler {
      type: "constant"
      value: 0
    }
  }
}
layer {
  name: "relu3"
  type: "ReLU"
  bottom: "conv3"
  top: "conv3"
}
layer {
  name: "conv4"
  type: "Convolution"
  bottom: "conv3"
  top: "conv4"
  param {
    lr_mult: 0.5
    decay_mult: 1
  }
  param {
    lr_mult: 1
    decay_mult: 0
  }
  convolution_param {
    num_output: 384
    pad: 1
    kernel_size: 3
    group: 2
    weight_filler {
      type: "gaussian"
      std: 0.01
    }
    bias_filler {
      type: "constant"
      value: 1
    }
  }
}
layer {
  name: "relu4"
  type: "ReLU"
  bottom: "conv4"
  top: "conv4"
}
layer {
  name: "conv5"
  type: "Convolution"
  bottom: "conv4"
  top: "conv5"
  param {
    lr_mult: 0.5
    decay_mult: 1
  }
  param {
    lr_mult: 1
    decay_mult: 0
  }
  convolution_param {
    num_output: 256
    pad: 1
    kernel_size: 3
    group: 2
    weight_filler {
      type: "gaussian"
      std: 0.01
    }
    bias_filler {
      type: "constant"
      value: 1
    }
  }
}
layer {
  name: "relu5"
  type: "ReLU"
  bottom: "conv5"
  top: "conv5"
}
layer {
  name: "pool5"
  type: "Pooling"
  bottom: "conv5"
  top: "pool5"
  pooling_param {
    pool: MAX
    kernel_size: 3
    stride: 2
  }
}
layer {
  name: "fc6"
  type: "InnerProduct"
  bottom: "pool5"
  top: "fc6"
  param {
    lr_mult: 1
    decay_mult: 1
  }
  param {
    lr_mult: 2
    decay_mult: 0
  }
  inner_product_param {
    num_output: 4096
    weight_filler {
      type: "gaussian"
      std: 0.005
    }
    bias_filler {
      type: "constant"
      value: 1
    }
  }
}
layer {
  name: "relu6"
  type: "ReLU"
  bottom: "fc6"
  top: "fc6"
}
layer {
  name: "drop6"
  type: "Dropout"
  bottom: "fc6"
  top: "fc6"
  dropout_param {
    dropout_ratio: 0.5
  }
}
layer {
  name: "fc7"
  type: "InnerProduct"
  bottom: "fc6"
  top: "fc7"
  param {
    lr_mult: 2
    decay_mult: 1
  }
  param {
    lr_mult: 4
    decay_mult: 0
  }
  inner_product_param {
    num_output: 4096
    weight_filler {
      type: "gaussian"
      std: 0.005
    }
    bias_filler {
      type: "constant"
      value: 1
    }
  }
}
layer {
  name: "relu7"
  type: "ReLU"
  bottom: "fc7"
  top: "fc7"
}
layer {
  name: "drop7"
  type: "Dropout"
  bottom: "fc7"
  top: "fc7"
  dropout_param {
    dropout_ratio: 0.5
  }
}
layer {
  name: "fc8_flickr"
  type: "InnerProduct"
  bottom: "fc7"
  top: "fc8_flickr"
  param {
    lr_mult: 20
    decay_mult: 1
  }
  param {
    lr_mult: 20
    decay_mult: 1
  }
  inner_product_param {
    num_output: 167
    weight_filler {
      type: "gaussian"
      std: 0.01
    }
    bias_filler {
      type: "constant"
      value: 0
    }
  }
}
layer {
  name: "loss"
  type: "SoftmaxWithLoss"
  bottom: "fc8_flickr"
  bottom: "label"
}
I0722 13:03:44.651957 17803 layer_factory.hpp:74] Creating layer data
I0722 13:03:44.652022 17803 net.cpp:90] Creating Layer data
I0722 13:03:44.652056 17803 net.cpp:368] data -> data
I0722 13:03:44.652099 17803 net.cpp:368] data -> label
I0722 13:03:44.652124 17803 net.cpp:120] Setting up data
I0722 13:03:44.652148 17803 data_transformer.cpp:22] Loading mean file from: data/ilsvrc12/imagenet_mean.binaryproto
I0722 13:03:44.687496 17803 image_data_layer.cpp:36] Opening file /home/rips_tc/caffe/data/logos/train.txt
I0722 13:03:44.697298 17803 image_data_layer.cpp:51] A total of 12219 images.
I0722 13:03:44.705095 17803 image_data_layer.cpp:74] output data size: 50,3,227,227
I0722 13:03:44.712471 17803 net.cpp:127] Top shape: 50 3 227 227 (7729350)
I0722 13:03:44.712513 17803 net.cpp:127] Top shape: 50 (50)
I0722 13:03:44.712530 17803 layer_factory.hpp:74] Creating layer conv1
I0722 13:03:44.712559 17803 net.cpp:90] Creating Layer conv1
I0722 13:03:44.712571 17803 net.cpp:410] conv1 <- data
I0722 13:03:44.712592 17803 net.cpp:368] conv1 -> conv1
I0722 13:03:44.712617 17803 net.cpp:120] Setting up conv1
I0722 13:03:44.713709 17803 net.cpp:127] Top shape: 50 96 55 55 (14520000)
I0722 13:03:44.713727 17803 layer_factory.hpp:74] Creating layer relu1
I0722 13:03:44.713737 17803 net.cpp:90] Creating Layer relu1
I0722 13:03:44.713743 17803 net.cpp:410] relu1 <- conv1
I0722 13:03:44.713752 17803 net.cpp:357] relu1 -> conv1 (in-place)
I0722 13:03:44.713762 17803 net.cpp:120] Setting up relu1
I0722 13:03:44.713795 17803 net.cpp:127] Top shape: 50 96 55 55 (14520000)
I0722 13:03:44.713804 17803 layer_factory.hpp:74] Creating layer pool1
I0722 13:03:44.713814 17803 net.cpp:90] Creating Layer pool1
I0722 13:03:44.713819 17803 net.cpp:410] pool1 <- conv1
I0722 13:03:44.713856 17803 net.cpp:368] pool1 -> pool1
I0722 13:03:44.713868 17803 net.cpp:120] Setting up pool1
I0722 13:03:44.713886 17803 net.cpp:127] Top shape: 50 96 27 27 (3499200)
I0722 13:03:44.713894 17803 layer_factory.hpp:74] Creating layer norm1
I0722 13:03:44.713904 17803 net.cpp:90] Creating Layer norm1
I0722 13:03:44.713912 17803 net.cpp:410] norm1 <- pool1
I0722 13:03:44.713919 17803 net.cpp:368] norm1 -> norm1
I0722 13:03:44.713930 17803 net.cpp:120] Setting up norm1
I0722 13:03:44.713942 17803 net.cpp:127] Top shape: 50 96 27 27 (3499200)
I0722 13:03:44.713963 17803 layer_factory.hpp:74] Creating layer conv2
I0722 13:03:44.713974 17803 net.cpp:90] Creating Layer conv2
I0722 13:03:44.713982 17803 net.cpp:410] conv2 <- norm1
I0722 13:03:44.713990 17803 net.cpp:368] conv2 -> conv2
I0722 13:03:44.714000 17803 net.cpp:120] Setting up conv2
I0722 13:03:44.727656 17803 net.cpp:127] Top shape: 50 256 27 27 (9331200)
I0722 13:03:44.727679 17803 layer_factory.hpp:74] Creating layer relu2
I0722 13:03:44.727691 17803 net.cpp:90] Creating Layer relu2
I0722 13:03:44.727701 17803 net.cpp:410] relu2 <- conv2
I0722 13:03:44.727711 17803 net.cpp:357] relu2 -> conv2 (in-place)
I0722 13:03:44.727721 17803 net.cpp:120] Setting up relu2
I0722 13:03:44.727732 17803 net.cpp:127] Top shape: 50 256 27 27 (9331200)
I0722 13:03:44.727741 17803 layer_factory.hpp:74] Creating layer pool2
I0722 13:03:44.727751 17803 net.cpp:90] Creating Layer pool2
I0722 13:03:44.727757 17803 net.cpp:410] pool2 <- conv2
I0722 13:03:44.727766 17803 net.cpp:368] pool2 -> pool2
I0722 13:03:44.727777 17803 net.cpp:120] Setting up pool2
I0722 13:03:44.727792 17803 net.cpp:127] Top shape: 50 256 13 13 (2163200)
I0722 13:03:44.727802 17803 layer_factory.hpp:74] Creating layer norm2
I0722 13:03:44.727813 17803 net.cpp:90] Creating Layer norm2
I0722 13:03:44.727823 17803 net.cpp:410] norm2 <- pool2
I0722 13:03:44.727834 17803 net.cpp:368] norm2 -> norm2
I0722 13:03:44.727845 17803 net.cpp:120] Setting up norm2
I0722 13:03:44.727859 17803 net.cpp:127] Top shape: 50 256 13 13 (2163200)
I0722 13:03:44.727887 17803 layer_factory.hpp:74] Creating layer conv3
I0722 13:03:44.727900 17803 net.cpp:90] Creating Layer conv3
I0722 13:03:44.727910 17803 net.cpp:410] conv3 <- norm2
I0722 13:03:44.727919 17803 net.cpp:368] conv3 -> conv3
I0722 13:03:44.727933 17803 net.cpp:120] Setting up conv3
I0722 13:03:44.759793 17803 net.cpp:127] Top shape: 50 384 13 13 (3244800)
I0722 13:03:44.759821 17803 layer_factory.hpp:74] Creating layer relu3
I0722 13:03:44.759835 17803 net.cpp:90] Creating Layer relu3
I0722 13:03:44.759842 17803 net.cpp:410] relu3 <- conv3
I0722 13:03:44.759852 17803 net.cpp:357] relu3 -> conv3 (in-place)
I0722 13:03:44.759887 17803 net.cpp:120] Setting up relu3
I0722 13:03:44.759898 17803 net.cpp:127] Top shape: 50 384 13 13 (3244800)
I0722 13:03:44.759907 17803 layer_factory.hpp:74] Creating layer conv4
I0722 13:03:44.759918 17803 net.cpp:90] Creating Layer conv4
I0722 13:03:44.759927 17803 net.cpp:410] conv4 <- conv3
I0722 13:03:44.759938 17803 net.cpp:368] conv4 -> conv4
I0722 13:03:44.759949 17803 net.cpp:120] Setting up conv4
I0722 13:03:44.781628 17803 net.cpp:127] Top shape: 50 384 13 13 (3244800)
I0722 13:03:44.781657 17803 layer_factory.hpp:74] Creating layer relu4
I0722 13:03:44.781672 17803 net.cpp:90] Creating Layer relu4
I0722 13:03:44.781679 17803 net.cpp:410] relu4 <- conv4
I0722 13:03:44.781689 17803 net.cpp:357] relu4 -> conv4 (in-place)
I0722 13:03:44.781700 17803 net.cpp:120] Setting up relu4
I0722 13:03:44.781711 17803 net.cpp:127] Top shape: 50 384 13 13 (3244800)
I0722 13:03:44.781718 17803 layer_factory.hpp:74] Creating layer conv5
I0722 13:03:44.781728 17803 net.cpp:90] Creating Layer conv5
I0722 13:03:44.781734 17803 net.cpp:410] conv5 <- conv4
I0722 13:03:44.781743 17803 net.cpp:368] conv5 -> conv5
I0722 13:03:44.781752 17803 net.cpp:120] Setting up conv5
I0722 13:03:44.794966 17803 net.cpp:127] Top shape: 50 256 13 13 (2163200)
I0722 13:03:44.794998 17803 layer_factory.hpp:74] Creating layer relu5
I0722 13:03:44.795011 17803 net.cpp:90] Creating Layer relu5
I0722 13:03:44.795017 17803 net.cpp:410] relu5 <- conv5
I0722 13:03:44.795025 17803 net.cpp:357] relu5 -> conv5 (in-place)
I0722 13:03:44.795033 17803 net.cpp:120] Setting up relu5
I0722 13:03:44.795042 17803 net.cpp:127] Top shape: 50 256 13 13 (2163200)
I0722 13:03:44.795048 17803 layer_factory.hpp:74] Creating layer pool5
I0722 13:03:44.795056 17803 net.cpp:90] Creating Layer pool5
I0722 13:03:44.795061 17803 net.cpp:410] pool5 <- conv5
I0722 13:03:44.795069 17803 net.cpp:368] pool5 -> pool5
I0722 13:03:44.795078 17803 net.cpp:120] Setting up pool5
I0722 13:03:44.795114 17803 net.cpp:127] Top shape: 50 256 6 6 (460800)
I0722 13:03:44.795122 17803 layer_factory.hpp:74] Creating layer fc6
I0722 13:03:44.795135 17803 net.cpp:90] Creating Layer fc6
I0722 13:03:44.795142 17803 net.cpp:410] fc6 <- pool5
I0722 13:03:44.795150 17803 net.cpp:368] fc6 -> fc6
I0722 13:03:44.795166 17803 net.cpp:120] Setting up fc6
I0722 13:03:45.797328 17803 net.cpp:127] Top shape: 50 4096 (204800)
I0722 13:03:45.797360 17803 layer_factory.hpp:74] Creating layer relu6
I0722 13:03:45.797374 17803 net.cpp:90] Creating Layer relu6
I0722 13:03:45.797381 17803 net.cpp:410] relu6 <- fc6
I0722 13:03:45.797391 17803 net.cpp:357] relu6 -> fc6 (in-place)
I0722 13:03:45.797402 17803 net.cpp:120] Setting up relu6
I0722 13:03:45.797413 17803 net.cpp:127] Top shape: 50 4096 (204800)
I0722 13:03:45.797418 17803 layer_factory.hpp:74] Creating layer drop6
I0722 13:03:45.797427 17803 net.cpp:90] Creating Layer drop6
I0722 13:03:45.797435 17803 net.cpp:410] drop6 <- fc6
I0722 13:03:45.797443 17803 net.cpp:357] drop6 -> fc6 (in-place)
I0722 13:03:45.797456 17803 net.cpp:120] Setting up drop6
I0722 13:03:45.797467 17803 net.cpp:127] Top shape: 50 4096 (204800)
I0722 13:03:45.797474 17803 layer_factory.hpp:74] Creating layer fc7
I0722 13:03:45.797483 17803 net.cpp:90] Creating Layer fc7
I0722 13:03:45.797489 17803 net.cpp:410] fc7 <- fc6
I0722 13:03:45.797497 17803 net.cpp:368] fc7 -> fc7
I0722 13:03:45.797507 17803 net.cpp:120] Setting up fc7
I0722 13:03:46.242360 17803 net.cpp:127] Top shape: 50 4096 (204800)
I0722 13:03:46.242391 17803 layer_factory.hpp:74] Creating layer relu7
I0722 13:03:46.242403 17803 net.cpp:90] Creating Layer relu7
I0722 13:03:46.242410 17803 net.cpp:410] relu7 <- fc7
I0722 13:03:46.242419 17803 net.cpp:357] relu7 -> fc7 (in-place)
I0722 13:03:46.242429 17803 net.cpp:120] Setting up relu7
I0722 13:03:46.242437 17803 net.cpp:127] Top shape: 50 4096 (204800)
I0722 13:03:46.242442 17803 layer_factory.hpp:74] Creating layer drop7
I0722 13:03:46.242450 17803 net.cpp:90] Creating Layer drop7
I0722 13:03:46.242455 17803 net.cpp:410] drop7 <- fc7
I0722 13:03:46.242462 17803 net.cpp:357] drop7 -> fc7 (in-place)
I0722 13:03:46.242470 17803 net.cpp:120] Setting up drop7
I0722 13:03:46.242478 17803 net.cpp:127] Top shape: 50 4096 (204800)
I0722 13:03:46.242486 17803 layer_factory.hpp:74] Creating layer fc8_flickr
I0722 13:03:46.242497 17803 net.cpp:90] Creating Layer fc8_flickr
I0722 13:03:46.242506 17803 net.cpp:410] fc8_flickr <- fc7
I0722 13:03:46.242513 17803 net.cpp:368] fc8_flickr -> fc8_flickr
I0722 13:03:46.242523 17803 net.cpp:120] Setting up fc8_flickr
I0722 13:03:46.261010 17803 net.cpp:127] Top shape: 50 167 (8350)
I0722 13:03:46.261029 17803 layer_factory.hpp:74] Creating layer loss
I0722 13:03:46.261049 17803 net.cpp:90] Creating Layer loss
I0722 13:03:46.261056 17803 net.cpp:410] loss <- fc8_flickr
I0722 13:03:46.261062 17803 net.cpp:410] loss <- label
I0722 13:03:46.261077 17803 net.cpp:368] loss -> (automatic)
I0722 13:03:46.261087 17803 net.cpp:120] Setting up loss
I0722 13:03:46.261096 17803 layer_factory.hpp:74] Creating layer loss
…
I0722 13:03:46.262035 17803 net.cpp:287] The NetState phase (1) differed from the phase (0) specified by a rule in layer data
I0722 13:03:46.262230 17803 net.cpp:42] Initializing net from parameters: 
name: "LogoCaffeNet"
state {
  phase: TEST
}
layer {
  name: "data"
  type: "ImageData"
  top: "data"
  top: "label"
  include {
    phase: TEST
  }
  transform_param {
    mirror: false
    crop_size: 227
    mean_file: "data/ilsvrc12/imagenet_mean.binaryproto"
  }
  image_data_param {
    source: "/home/rips_tc/caffe/data/logos/test.txt"
    batch_size: 50
    new_height: 256
    new_width: 256
  }
}
layer {
  name: "conv1"
  type: "Convolution"
  bottom: "data"
  top: "conv1"
  param {
    lr_mult: 0.5
    decay_mult: 1
  }
  param {
    lr_mult: 1
    decay_mult: 0
  }
  convolution_param {
    num_output: 96
    kernel_size: 11
    stride: 4
    weight_filler {
      type: "gaussian"
      std: 0.01
    }
    bias_filler {
      type: "constant"
      value: 0
    }
  }
}
layer {
  name: "relu1"
  type: "ReLU"
  bottom: "conv1"
  top: "conv1"
}
layer {
  name: "pool1"
  type: "Pooling"
  bottom: "conv1"
  top: "pool1"
  pooling_param {
    pool: MAX
    kernel_size: 3
    stride: 2
  }
}
layer {
  name: "norm1"
  type: "LRN"
  bottom: "pool1"
  top: "norm1"
  lrn_param {
    local_size: 5
    alpha: 0.0001
    beta: 0.75
  }
}
layer {
  name: "conv2"
  type: "Convolution"
  bottom: "norm1"
  top: "conv2"
  param {
    lr_mult: 0.5
    decay_mult: 1
  }
  param {
    lr_mult: 1
    decay_mult: 0
  }
  convolution_param {
    num_output: 256
    pad: 2
    kernel_size: 5
    group: 2
    weight_filler {
      type: "gaussian"
      std: 0.01
    }
    bias_filler {
      type: "constant"
      value: 1
    }
  }
}
layer {
  name: "relu2"
  type: "ReLU"
  bottom: "conv2"
  top: "conv2"
}
layer {
  name: "pool2"
  type: "Pooling"
  bottom: "conv2"
  top: "pool2"
  pooling_param {
    pool: MAX
    kernel_size: 3
    stride: 2
  }
}
layer {
  name: "norm2"
  type: "LRN"
  bottom: "pool2"
  top: "norm2"
  lrn_param {
    local_size: 5
    alpha: 0.0001
    beta: 0.75
  }
}
layer {
  name: "conv3"
  type: "Convolution"
  bottom: "norm2"
  top: "conv3"
  param {
    lr_mult: 0.5
    decay_mult: 1
  }
  param {
    lr_mult: 1
    decay_mult: 0
  }
  convolution_param {
    num_output: 384
    pad: 1
    kernel_size: 3
    weight_filler {
      type: "gaussian"
      std: 0.01
    }
    bias_filler {
      type: "constant"
      value: 0
    }
  }
}
layer {
  name: "relu3"
  type: "ReLU"
  bottom: "conv3"
  top: "conv3"
}
layer {
  name: "conv4"
  type: "Convolution"
  bottom: "conv3"
  top: "conv4"
  param {
    lr_mult: 0.5
    decay_mult: 1
  }
  param {
    lr_mult: 1
    decay_mult: 0
  }
  convolution_param {
    num_output: 384
    pad: 1
    kernel_size: 3
    group: 2
    weight_filler {
      type: "gaussian"
      std: 0.01
    }
    bias_filler {
      type: "constant"
      value: 1
    }
  }
}
layer {
  name: "relu4"
  type: "ReLU"
  bottom: "conv4"
  top: "conv4"
}
layer {
  name: "conv5"
  type: "Convolution"
  bottom: "conv4"
  top: "conv5"
  param {
    lr_mult: 0.5
    decay_mult: 1
  }
  param {
    lr_mult: 1
    decay_mult: 0
  }
  convolution_param {
    num_output: 256
    pad: 1
    kernel_size: 3
    group: 2
    weight_filler {
      type: "gaussian"
      std: 0.01
    }
    bias_filler {
      type: "constant"
      value: 1
    }
  }
}
layer {
  name: "relu5"
  type: "ReLU"
  bottom: "conv5"
  top: "conv5"
}
layer {
  name: "pool5"
  type: "Pooling"
  bottom: "conv5"
  top: "pool5"
  pooling_param {
    pool: MAX
    kernel_size: 3
    stride: 2
  }
}
layer {
  name: "fc6"
  type: "InnerProduct"
  bottom: "pool5"
  top: "fc6"
  param {
    lr_mult: 1
    decay_mult: 1
  }
  param {
    lr_mult: 2
    decay_mult: 0
  }
  inner_product_param {
    num_output: 4096
    weight_filler {
      type: "gaussian"
      std: 0.005
    }
    bias_filler {
      type: "constant"
      value: 1
    }
  }
}
layer {
  name: "relu6"
  type: "ReLU"
  bottom: "fc6"
  top: "fc6"
}
layer {
  name: "drop6"
  type: "Dropout"
  bottom: "fc6"
  top: "fc6"
  dropout_param {
    dropout_ratio: 0.5
  }
}
layer {
  name: "fc7"
  type: "InnerProduct"
  bottom: "fc6"
  top: "fc7"
  param {
    lr_mult: 2
    decay_mult: 1
  }
  param {
    lr_mult: 4
    decay_mult: 0
  }
  inner_product_param {
    num_output: 4096
    weight_filler {
      type: "gaussian"
      std: 0.005
    }
    bias_filler {
      type: "constant"
      value: 1
    }
  }
}
layer {
  name: "relu7"
  type: "ReLU"
  bottom: "fc7"
  top: "fc7"
}
layer {
  name: "drop7"
  type: "Dropout"
  bottom: "fc7"
  top: "fc7"
  dropout_param {
    dropout_ratio: 0.5
  }
}
layer {
  name: "fc8_flickr"
  type: "InnerProduct"
  bottom: "fc7"
  top: "fc8_flickr"
  param {
    lr_mult: 20
    decay_mult: 1
  }
  param {
    lr_mult: 20
    decay_mult: 1
  }
  inner_product_param {
    num_output: 167
    weight_filler {
      type: "gaussian"
      std: 0.01
    }
    bias_filler {
      type: "constant"
      value: 0
    }
  }
}
layer {
  name: "loss"
  type: "SoftmaxWithLoss"
  bottom: "fc8_flickr"
  bottom: "label"
}
layer {
  name: "accuracy"
  type: "Accuracy"
  bottom: "fc8_flickr"
  bottom: "label"
  top: "accuracy"
  include {
    phase: TEST
  }
  accuracy_param {
    top_k: 3
  }
}
I0722 13:03:46.262353 17803 layer_factory.hpp:74] Creating layer data
I0722 13:03:46.262367 17803 net.cpp:90] Creating Layer data
I0722 13:03:46.262374 17803 net.cpp:368] data -> data
I0722 13:03:46.262384 17803 net.cpp:368] data -> label
I0722 13:03:46.262394 17803 net.cpp:120] Setting up data
I0722 13:03:46.262400 17803 data_transformer.cpp:22] Loading mean file from: data/ilsvrc12/imagenet_mean.binaryproto
I0722 13:03:46.263810 17803 image_data_layer.cpp:36] Opening file /home/rips_tc/caffe/data/logos/test.txt
I0722 13:03:46.264375 17803 image_data_layer.cpp:51] A total of 1358 images.
I0722 13:03:46.265135 17803 image_data_layer.cpp:74] output data size: 50,3,227,227
I0722 13:03:46.269321 17803 net.cpp:127] Top shape: 50 3 227 227 (7729350)
I0722 13:03:46.269351 17803 net.cpp:127] Top shape: 50 (50)
I0722 13:03:46.269359 17803 layer_factory.hpp:74] Creating layer label_data_1_split
I0722 13:03:46.269373 17803 net.cpp:90] Creating Layer label_data_1_split
I0722 13:03:46.269381 17803 net.cpp:410] label_data_1_split <- label
I0722 13:03:46.269394 17803 net.cpp:368] label_data_1_split -> label_data_1_split_0
I0722 13:03:46.269410 17803 net.cpp:368] label_data_1_split -> label_data_1_split_1
I0722 13:03:46.269420 17803 net.cpp:120] Setting up label_data_1_split
I0722 13:03:46.269431 17803 net.cpp:127] Top shape: 50 (50)
I0722 13:03:46.269439 17803 net.cpp:127] Top shape: 50 (50)
I0722 13:03:46.269444 17803 layer_factory.hpp:74] Creating layer conv1
I0722 13:03:46.269457 17803 net.cpp:90] Creating Layer conv1
I0722 13:03:46.269484 17803 net.cpp:410] conv1 <- data
I0722 13:03:46.269500 17803 net.cpp:368] conv1 -> conv1
I0722 13:03:46.269523 17803 net.cpp:120] Setting up conv1
I0722 13:03:46.270505 17803 net.cpp:127] Top shape: 50 96 55 55 (14520000)
I0722 13:03:46.270520 17803 layer_factory.hpp:74] Creating layer relu1
I0722 13:03:46.270529 17803 net.cpp:90] Creating Layer relu1
I0722 13:03:46.270536 17803 net.cpp:410] relu1 <- conv1
I0722 13:03:46.270545 17803 net.cpp:357] relu1 -> conv1 (in-place)
I0722 13:03:46.270555 17803 net.cpp:120] Setting up relu1
I0722 13:03:46.270565 17803 net.cpp:127] Top shape: 50 96 55 55 (14520000)
I0722 13:03:46.270571 17803 layer_factory.hpp:74] Creating layer pool1
I0722 13:03:46.270583 17803 net.cpp:90] Creating Layer pool1
I0722 13:03:46.270588 17803 net.cpp:410] pool1 <- conv1
I0722 13:03:46.270596 17803 net.cpp:368] pool1 -> pool1
I0722 13:03:46.270603 17803 net.cpp:120] Setting up pool1
I0722 13:03:46.270614 17803 net.cpp:127] Top shape: 50 96 27 27 (3499200)
I0722 13:03:46.270622 17803 layer_factory.hpp:74] Creating layer norm1
I0722 13:03:46.270630 17803 net.cpp:90] Creating Layer norm1
I0722 13:03:46.270638 17803 net.cpp:410] norm1 <- pool1
I0722 13:03:46.270645 17803 net.cpp:368] norm1 -> norm1
I0722 13:03:46.270654 17803 net.cpp:120] Setting up norm1
I0722 13:03:46.270663 17803 net.cpp:127] Top shape: 50 96 27 27 (3499200)
I0722 13:03:46.270671 17803 layer_factory.hpp:74] Creating layer conv2
I0722 13:03:46.270680 17803 net.cpp:90] Creating Layer conv2
I0722 13:03:46.270685 17803 net.cpp:410] conv2 <- norm1
I0722 13:03:46.270694 17803 net.cpp:368] conv2 -> conv2
I0722 13:03:46.270705 17803 net.cpp:120] Setting up conv2
I0722 13:03:46.279224 17803 net.cpp:127] Top shape: 50 256 27 27 (9331200)
I0722 13:03:46.279248 17803 layer_factory.hpp:74] Creating layer relu2
I0722 13:03:46.279260 17803 net.cpp:90] Creating Layer relu2
I0722 13:03:46.279268 17803 net.cpp:410] relu2 <- conv2
I0722 13:03:46.279275 17803 net.cpp:357] relu2 -> conv2 (in-place)
I0722 13:03:46.279284 17803 net.cpp:120] Setting up relu2
I0722 13:03:46.279291 17803 net.cpp:127] Top shape: 50 256 27 27 (9331200)
I0722 13:03:46.279297 17803 layer_factory.hpp:74] Creating layer pool2
I0722 13:03:46.279309 17803 net.cpp:90] Creating Layer pool2
I0722 13:03:46.279319 17803 net.cpp:410] pool2 <- conv2
I0722 13:03:46.279325 17803 net.cpp:368] pool2 -> pool2
I0722 13:03:46.279335 17803 net.cpp:120] Setting up pool2
I0722 13:03:46.279345 17803 net.cpp:127] Top shape: 50 256 13 13 (2163200)
I0722 13:03:46.279352 17803 layer_factory.hpp:74] Creating layer norm2
I0722 13:03:46.279362 17803 net.cpp:90] Creating Layer norm2
I0722 13:03:46.279371 17803 net.cpp:410] norm2 <- pool2
I0722 13:03:46.279377 17803 net.cpp:368] norm2 -> norm2
I0722 13:03:46.279386 17803 net.cpp:120] Setting up norm2
I0722 13:03:46.279394 17803 net.cpp:127] Top shape: 50 256 13 13 (2163200)
I0722 13:03:46.279402 17803 layer_factory.hpp:74] Creating layer conv3
I0722 13:03:46.279412 17803 net.cpp:90] Creating Layer conv3
I0722 13:03:46.279420 17803 net.cpp:410] conv3 <- norm2
I0722 13:03:46.279428 17803 net.cpp:368] conv3 -> conv3
I0722 13:03:46.279438 17803 net.cpp:120] Setting up conv3
I0722 13:03:46.303936 17803 net.cpp:127] Top shape: 50 384 13 13 (3244800)
I0722 13:03:46.303966 17803 layer_factory.hpp:74] Creating layer relu3
I0722 13:03:46.303978 17803 net.cpp:90] Creating Layer relu3
I0722 13:03:46.303985 17803 net.cpp:410] relu3 <- conv3
I0722 13:03:46.303997 17803 net.cpp:357] relu3 -> conv3 (in-place)
I0722 13:03:46.304005 17803 net.cpp:120] Setting up relu3
I0722 13:03:46.304014 17803 net.cpp:127] Top shape: 50 384 13 13 (3244800)
I0722 13:03:46.304020 17803 layer_factory.hpp:74] Creating layer conv4
I0722 13:03:46.304030 17803 net.cpp:90] Creating Layer conv4
I0722 13:03:46.304039 17803 net.cpp:410] conv4 <- conv3
I0722 13:03:46.304050 17803 net.cpp:368] conv4 -> conv4
I0722 13:03:46.304061 17803 net.cpp:120] Setting up conv4
I0722 13:03:46.322638 17803 net.cpp:127] Top shape: 50 384 13 13 (3244800)
I0722 13:03:46.322661 17803 layer_factory.hpp:74] Creating layer relu4
I0722 13:03:46.322697 17803 net.cpp:90] Creating Layer relu4
I0722 13:03:46.322705 17803 net.cpp:410] relu4 <- conv4
I0722 13:03:46.322716 17803 net.cpp:357] relu4 -> conv4 (in-place)
I0722 13:03:46.322726 17803 net.cpp:120] Setting up relu4
I0722 13:03:46.322734 17803 net.cpp:127] Top shape: 50 384 13 13 (3244800)
I0722 13:03:46.322743 17803 layer_factory.hpp:74] Creating layer conv5
I0722 13:03:46.322753 17803 net.cpp:90] Creating Layer conv5
I0722 13:03:46.322762 17803 net.cpp:410] conv5 <- conv4
I0722 13:03:46.322770 17803 net.cpp:368] conv5 -> conv5
I0722 13:03:46.322778 17803 net.cpp:120] Setting up conv5
I0722 13:03:46.335161 17803 net.cpp:127] Top shape: 50 256 13 13 (2163200)
I0722 13:03:46.335187 17803 layer_factory.hpp:74] Creating layer relu5
I0722 13:03:46.335198 17803 net.cpp:90] Creating Layer relu5
I0722 13:03:46.335204 17803 net.cpp:410] relu5 <- conv5
I0722 13:03:46.335212 17803 net.cpp:357] relu5 -> conv5 (in-place)
I0722 13:03:46.335222 17803 net.cpp:120] Setting up relu5
I0722 13:03:46.335228 17803 net.cpp:127] Top shape: 50 256 13 13 (2163200)
I0722 13:03:46.335234 17803 layer_factory.hpp:74] Creating layer pool5
I0722 13:03:46.335249 17803 net.cpp:90] Creating Layer pool5
I0722 13:03:46.335258 17803 net.cpp:410] pool5 <- conv5
I0722 13:03:46.335266 17803 net.cpp:368] pool5 -> pool5
I0722 13:03:46.335274 17803 net.cpp:120] Setting up pool5
I0722 13:03:46.335286 17803 net.cpp:127] Top shape: 50 256 6 6 (460800)
I0722 13:03:46.335294 17803 layer_factory.hpp:74] Creating layer fc6
I0722 13:03:46.335304 17803 net.cpp:90] Creating Layer fc6
I0722 13:03:46.335310 17803 net.cpp:410] fc6 <- pool5
I0722 13:03:46.335317 17803 net.cpp:368] fc6 -> fc6
I0722 13:03:46.335328 17803 net.cpp:120] Setting up fc6
I0722 13:03:47.337002 17803 net.cpp:127] Top shape: 50 4096 (204800)
I0722 13:03:47.337033 17803 layer_factory.hpp:74] Creating layer relu6
I0722 13:03:47.337050 17803 net.cpp:90] Creating Layer relu6
I0722 13:03:47.337059 17803 net.cpp:410] relu6 <- fc6
I0722 13:03:47.337066 17803 net.cpp:357] relu6 -> fc6 (in-place)
I0722 13:03:47.337076 17803 net.cpp:120] Setting up relu6
I0722 13:03:47.337085 17803 net.cpp:127] Top shape: 50 4096 (204800)
I0722 13:03:47.337090 17803 layer_factory.hpp:74] Creating layer drop6
I0722 13:03:47.337100 17803 net.cpp:90] Creating Layer drop6
I0722 13:03:47.337105 17803 net.cpp:410] drop6 <- fc6
I0722 13:03:47.337111 17803 net.cpp:357] drop6 -> fc6 (in-place)
I0722 13:03:47.337118 17803 net.cpp:120] Setting up drop6
I0722 13:03:47.337127 17803 net.cpp:127] Top shape: 50 4096 (204800)
I0722 13:03:47.337136 17803 layer_factory.hpp:74] Creating layer fc7
I0722 13:03:47.337144 17803 net.cpp:90] Creating Layer fc7
I0722 13:03:47.337152 17803 net.cpp:410] fc7 <- fc6
I0722 13:03:47.337160 17803 net.cpp:368] fc7 -> fc7
I0722 13:03:47.337172 17803 net.cpp:120] Setting up fc7
I0722 13:03:47.782495 17803 net.cpp:127] Top shape: 50 4096 (204800)
I0722 13:03:47.782527 17803 layer_factory.hpp:74] Creating layer relu7
I0722 13:03:47.782539 17803 net.cpp:90] Creating Layer relu7
I0722 13:03:47.782546 17803 net.cpp:410] relu7 <- fc7
I0722 13:03:47.782555 17803 net.cpp:357] relu7 -> fc7 (in-place)
I0722 13:03:47.782564 17803 net.cpp:120] Setting up relu7
I0722 13:03:47.782572 17803 net.cpp:127] Top shape: 50 4096 (204800)
I0722 13:03:47.782578 17803 layer_factory.hpp:74] Creating layer drop7
I0722 13:03:47.782587 17803 net.cpp:90] Creating Layer drop7
I0722 13:03:47.782591 17803 net.cpp:410] drop7 <- fc7
I0722 13:03:47.782599 17803 net.cpp:357] drop7 -> fc7 (in-place)
I0722 13:03:47.782608 17803 net.cpp:120] Setting up drop7
I0722 13:03:47.782619 17803 net.cpp:127] Top shape: 50 4096 (204800)
I0722 13:03:47.782624 17803 layer_factory.hpp:74] Creating layer fc8_flickr
I0722 13:03:47.782636 17803 net.cpp:90] Creating Layer fc8_flickr
I0722 13:03:47.782644 17803 net.cpp:410] fc8_flickr <- fc7
I0722 13:03:47.782651 17803 net.cpp:368] fc8_flickr -> fc8_flickr
I0722 13:03:47.782663 17803 net.cpp:120] Setting up fc8_flickr
I0722 13:03:47.801179 17803 net.cpp:127] Top shape: 50 167 (8350)
I0722 13:03:47.801213 17803 layer_factory.hpp:74] Creating layer fc8_flickr_fc8_flickr_0_split
I0722 13:03:47.801228 17803 net.cpp:90] Creating Layer fc8_flickr_fc8_flickr_0_split
I0722 13:03:47.801234 17803 net.cpp:410] fc8_flickr_fc8_flickr_0_split <- fc8_flickr
I0722 13:03:47.801242 17803 net.cpp:368] fc8_flickr_fc8_flickr_0_split -> fc8_flickr_fc8_flickr_0_split_0
I0722 13:03:47.801255 17803 net.cpp:368] fc8_flickr_fc8_flickr_0_split -> fc8_flickr_fc8_flickr_0_split_1
I0722 13:03:47.801265 17803 net.cpp:120] Setting up fc8_flickr_fc8_flickr_0_split
I0722 13:03:47.801276 17803 net.cpp:127] Top shape: 50 167 (8350)
I0722 13:03:47.801282 17803 net.cpp:127] Top shape: 50 167 (8350)
I0722 13:03:47.801290 17803 layer_factory.hpp:74] Creating layer loss
I0722 13:03:47.801298 17803 net.cpp:90] Creating Layer loss
I0722 13:03:47.801304 17803 net.cpp:410] loss <- fc8_flickr_fc8_flickr_0_split_0
I0722 13:03:47.801313 17803 net.cpp:410] loss <- label_data_1_split_0
I0722 13:03:47.801321 17803 net.cpp:368] loss -> (automatic)
I0722 13:03:47.801329 17803 net.cpp:120] Setting up loss
…
