…
I0719 04:53:12.287765 10251 net.cpp:287] The NetState phase (0) differed from the phase (1) specified by a rule in layer accuracy
I0719 04:53:12.287945 10251 net.cpp:42] Initializing net from parameters: 
name: "LogoCaffeNet"
state {
  phase: TRAIN
}
layer {
  name: "data"
  type: "ImageData"
  top: "data"
  top: "label"
  include {
    phase: TRAIN
  }
  transform_param {
    mirror: true
    crop_size: 227
    mean_file: "data/ilsvrc12/imagenet_mean.binaryproto"
  }
  image_data_param {
    source: "/home/rips_tc/caffe/data/logos/train.txt"
    batch_size: 50
    new_height: 256
    new_width: 256
  }
}
layer {
  name: "conv1"
  type: "Convolution"
  bottom: "data"
  top: "conv1"
  param {
    lr_mult: 0.5
    decay_mult: 1
  }
  param {
    lr_mult: 1
    decay_mult: 0
  }
  convolution_param {
    num_output: 96
    kernel_size: 11
    stride: 4
    weight_filler {
      type: "gaussian"
      std: 0.01
    }
    bias_filler {
      type: "constant"
      value: 0
    }
  }
}
layer {
  name: "relu1"
  type: "ReLU"
  bottom: "conv1"
  top: "conv1"
}
layer {
  name: "pool1"
  type: "Pooling"
  bottom: "conv1"
  top: "pool1"
  pooling_param {
    pool: MAX
    kernel_size: 3
    stride: 2
  }
}
layer {
  name: "norm1"
  type: "LRN"
  bottom: "pool1"
  top: "norm1"
  lrn_param {
    local_size: 5
    alpha: 0.0001
    beta: 0.75
  }
}
layer {
  name: "conv2"
  type: "Convolution"
  bottom: "norm1"
  top: "conv2"
  param {
    lr_mult: 0.5
    decay_mult: 1
  }
  param {
    lr_mult: 1
    decay_mult: 0
  }
  convolution_param {
    num_output: 256
    pad: 2
    kernel_size: 5
    group: 2
    weight_filler {
      type: "gaussian"
      std: 0.01
    }
    bias_filler {
      type: "constant"
      value: 1
    }
  }
}
layer {
  name: "relu2"
  type: "ReLU"
  bottom: "conv2"
  top: "conv2"
}
layer {
  name: "pool2"
  type: "Pooling"
  bottom: "conv2"
  top: "pool2"
  pooling_param {
    pool: MAX
    kernel_size: 3
    stride: 2
  }
}
layer {
  name: "norm2"
  type: "LRN"
  bottom: "pool2"
  top: "norm2"
  lrn_param {
    local_size: 5
    alpha: 0.0001
    beta: 0.75
  }
}
layer {
  name: "conv3"
  type: "Convolution"
  bottom: "norm2"
  top: "conv3"
  param {
    lr_mult: 0.5
    decay_mult: 1
  }
  param {
    lr_mult: 1
    decay_mult: 0
  }
  convolution_param {
    num_output: 384
    pad: 1
    kernel_size: 3
    weight_filler {
      type: "gaussian"
      std: 0.01
    }
    bias_filler {
      type: "constant"
      value: 0
    }
  }
}
layer {
  name: "relu3"
  type: "ReLU"
  bottom: "conv3"
  top: "conv3"
}
layer {
  name: "conv4"
  type: "Convolution"
  bottom: "conv3"
  top: "conv4"
  param {
    lr_mult: 0.5
    decay_mult: 1
  }
  param {
    lr_mult: 1
    decay_mult: 0
  }
  convolution_param {
    num_output: 384
    pad: 1
    kernel_size: 3
    group: 2
    weight_filler {
      type: "gaussian"
      std: 0.01
    }
    bias_filler {
      type: "constant"
      value: 1
    }
  }
}
layer {
  name: "relu4"
  type: "ReLU"
  bottom: "conv4"
  top: "conv4"
}
layer {
  name: "conv5"
  type: "Convolution"
  bottom: "conv4"
  top: "conv5"
  param {
    lr_mult: 0.5
    decay_mult: 1
  }
  param {
    lr_mult: 1
    decay_mult: 0
  }
  convolution_param {
    num_output: 256
    pad: 1
    kernel_size: 3
    group: 2
    weight_filler {
      type: "gaussian"
      std: 0.01
    }
    bias_filler {
      type: "constant"
      value: 1
    }
  }
}
layer {
  name: "relu5"
  type: "ReLU"
  bottom: "conv5"
  top: "conv5"
}
layer {
  name: "pool5"
  type: "Pooling"
  bottom: "conv5"
  top: "pool5"
  pooling_param {
    pool: MAX
    kernel_size: 3
    stride: 2
  }
}
layer {
  name: "fc6"
  type: "InnerProduct"
  bottom: "pool5"
  top: "fc6"
  param {
    lr_mult: 1
    decay_mult: 1
  }
  param {
    lr_mult: 2
    decay_mult: 0
  }
  inner_product_param {
    num_output: 4096
    weight_filler {
      type: "gaussian"
      std: 0.005
    }
    bias_filler {
      type: "constant"
      value: 1
    }
  }
}
layer {
  name: "relu6"
  type: "ReLU"
  bottom: "fc6"
  top: "fc6"
}
layer {
  name: "drop6"
  type: "Dropout"
  bottom: "fc6"
  top: "fc6"
  dropout_param {
    dropout_ratio: 0.5
  }
}
layer {
  name: "fc7"
  type: "InnerProduct"
  bottom: "fc6"
  top: "fc7"
  param {
    lr_mult: 2
    decay_mult: 1
  }
  param {
    lr_mult: 4
    decay_mult: 0
  }
  inner_product_param {
    num_output: 4096
    weight_filler {
      type: "gaussian"
      std: 0.005
    }
    bias_filler {
      type: "constant"
      value: 1
    }
  }
}
layer {
  name: "relu7"
  type: "ReLU"
  bottom: "fc7"
  top: "fc7"
}
layer {
  name: "drop7"
  type: "Dropout"
  bottom: "fc7"
  top: "fc7"
  dropout_param {
    dropout_ratio: 0.5
  }
}
layer {
  name: "fc8_flickr"
  type: "InnerProduct"
  bottom: "fc7"
  top: "fc8_flickr"
  param {
    lr_mult: 20
    decay_mult: 1
  }
  param {
    lr_mult: 20
    decay_mult: 1
  }
  inner_product_param {
    num_output: 167
    weight_filler {
      type: "gaussian"
      std: 0.01
    }
    bias_filler {
      type: "constant"
      value: 0
    }
  }
}
layer {
  name: "loss"
  type: "SoftmaxWithLoss"
  bottom: "fc8_flickr"
  bottom: "label"
}
I0719 04:53:12.288063 10251 layer_factory.hpp:74] Creating layer data
I0719 04:53:12.288089 10251 net.cpp:90] Creating Layer data
I0719 04:53:12.288100 10251 net.cpp:368] data -> data
I0719 04:53:12.288125 10251 net.cpp:368] data -> label
I0719 04:53:12.288138 10251 net.cpp:120] Setting up data
I0719 04:53:12.288148 10251 data_transformer.cpp:22] Loading mean file from: data/ilsvrc12/imagenet_mean.binaryproto
I0719 04:53:12.395009 10251 image_data_layer.cpp:36] Opening file /home/rips_tc/caffe/data/logos/train.txt
I0719 04:53:12.404829 10251 image_data_layer.cpp:51] A total of 12220 images.
I0719 04:53:12.411916 10251 image_data_layer.cpp:74] output data size: 50,3,227,227
I0719 04:53:12.419771 10251 net.cpp:127] Top shape: 50 3 227 227 (7729350)
I0719 04:53:12.419813 10251 net.cpp:127] Top shape: 50 (50)
I0719 04:53:12.419829 10251 layer_factory.hpp:74] Creating layer conv1
I0719 04:53:12.419857 10251 net.cpp:90] Creating Layer conv1
I0719 04:53:12.419874 10251 net.cpp:410] conv1 <- data
I0719 04:53:12.419895 10251 net.cpp:368] conv1 -> conv1
I0719 04:53:12.419919 10251 net.cpp:120] Setting up conv1
I0719 04:53:12.421296 10251 net.cpp:127] Top shape: 50 96 55 55 (14520000)
I0719 04:53:12.421326 10251 layer_factory.hpp:74] Creating layer relu1
I0719 04:53:12.421341 10251 net.cpp:90] Creating Layer relu1
I0719 04:53:12.421351 10251 net.cpp:410] relu1 <- conv1
I0719 04:53:12.421362 10251 net.cpp:357] relu1 -> conv1 (in-place)
I0719 04:53:12.421375 10251 net.cpp:120] Setting up relu1
I0719 04:53:12.421396 10251 net.cpp:127] Top shape: 50 96 55 55 (14520000)
I0719 04:53:12.421412 10251 layer_factory.hpp:74] Creating layer pool1
I0719 04:53:12.421425 10251 net.cpp:90] Creating Layer pool1
I0719 04:53:12.421438 10251 net.cpp:410] pool1 <- conv1
I0719 04:53:12.421450 10251 net.cpp:368] pool1 -> pool1
I0719 04:53:12.421464 10251 net.cpp:120] Setting up pool1
I0719 04:53:12.421490 10251 net.cpp:127] Top shape: 50 96 27 27 (3499200)
I0719 04:53:12.421504 10251 layer_factory.hpp:74] Creating layer norm1
I0719 04:53:12.421540 10251 net.cpp:90] Creating Layer norm1
I0719 04:53:12.421555 10251 net.cpp:410] norm1 <- pool1
I0719 04:53:12.421567 10251 net.cpp:368] norm1 -> norm1
I0719 04:53:12.421584 10251 net.cpp:120] Setting up norm1
I0719 04:53:12.421602 10251 net.cpp:127] Top shape: 50 96 27 27 (3499200)
I0719 04:53:12.421640 10251 layer_factory.hpp:74] Creating layer conv2
I0719 04:53:12.421658 10251 net.cpp:90] Creating Layer conv2
I0719 04:53:12.421669 10251 net.cpp:410] conv2 <- norm1
I0719 04:53:12.421682 10251 net.cpp:368] conv2 -> conv2
I0719 04:53:12.421700 10251 net.cpp:120] Setting up conv2
I0719 04:53:12.433955 10251 net.cpp:127] Top shape: 50 256 27 27 (9331200)
I0719 04:53:12.433979 10251 layer_factory.hpp:74] Creating layer relu2
I0719 04:53:12.433990 10251 net.cpp:90] Creating Layer relu2
I0719 04:53:12.433997 10251 net.cpp:410] relu2 <- conv2
I0719 04:53:12.434007 10251 net.cpp:357] relu2 -> conv2 (in-place)
I0719 04:53:12.434017 10251 net.cpp:120] Setting up relu2
I0719 04:53:12.434026 10251 net.cpp:127] Top shape: 50 256 27 27 (9331200)
I0719 04:53:12.434034 10251 layer_factory.hpp:74] Creating layer pool2
I0719 04:53:12.434044 10251 net.cpp:90] Creating Layer pool2
I0719 04:53:12.434051 10251 net.cpp:410] pool2 <- conv2
I0719 04:53:12.434062 10251 net.cpp:368] pool2 -> pool2
I0719 04:53:12.434072 10251 net.cpp:120] Setting up pool2
I0719 04:53:12.434090 10251 net.cpp:127] Top shape: 50 256 13 13 (2163200)
I0719 04:53:12.434098 10251 layer_factory.hpp:74] Creating layer norm2
I0719 04:53:12.434110 10251 net.cpp:90] Creating Layer norm2
I0719 04:53:12.434118 10251 net.cpp:410] norm2 <- pool2
I0719 04:53:12.434128 10251 net.cpp:368] norm2 -> norm2
I0719 04:53:12.434141 10251 net.cpp:120] Setting up norm2
I0719 04:53:12.434154 10251 net.cpp:127] Top shape: 50 256 13 13 (2163200)
I0719 04:53:12.434164 10251 layer_factory.hpp:74] Creating layer conv3
I0719 04:53:12.434175 10251 net.cpp:90] Creating Layer conv3
I0719 04:53:12.434186 10251 net.cpp:410] conv3 <- norm2
I0719 04:53:12.434197 10251 net.cpp:368] conv3 -> conv3
I0719 04:53:12.434209 10251 net.cpp:120] Setting up conv3
I0719 04:53:12.468202 10251 net.cpp:127] Top shape: 50 384 13 13 (3244800)
I0719 04:53:12.468232 10251 layer_factory.hpp:74] Creating layer relu3
I0719 04:53:12.468245 10251 net.cpp:90] Creating Layer relu3
I0719 04:53:12.468252 10251 net.cpp:410] relu3 <- conv3
I0719 04:53:12.468261 10251 net.cpp:357] relu3 -> conv3 (in-place)
I0719 04:53:12.468271 10251 net.cpp:120] Setting up relu3
I0719 04:53:12.468281 10251 net.cpp:127] Top shape: 50 384 13 13 (3244800)
I0719 04:53:12.468288 10251 layer_factory.hpp:74] Creating layer conv4
I0719 04:53:12.468299 10251 net.cpp:90] Creating Layer conv4
I0719 04:53:12.468307 10251 net.cpp:410] conv4 <- conv3
I0719 04:53:12.468317 10251 net.cpp:368] conv4 -> conv4
I0719 04:53:12.468330 10251 net.cpp:120] Setting up conv4
I0719 04:53:12.489579 10251 net.cpp:127] Top shape: 50 384 13 13 (3244800)
I0719 04:53:12.489604 10251 layer_factory.hpp:74] Creating layer relu4
I0719 04:53:12.489616 10251 net.cpp:90] Creating Layer relu4
I0719 04:53:12.489624 10251 net.cpp:410] relu4 <- conv4
I0719 04:53:12.489632 10251 net.cpp:357] relu4 -> conv4 (in-place)
I0719 04:53:12.489641 10251 net.cpp:120] Setting up relu4
I0719 04:53:12.489650 10251 net.cpp:127] Top shape: 50 384 13 13 (3244800)
I0719 04:53:12.489655 10251 layer_factory.hpp:74] Creating layer conv5
I0719 04:53:12.489665 10251 net.cpp:90] Creating Layer conv5
I0719 04:53:12.489670 10251 net.cpp:410] conv5 <- conv4
I0719 04:53:12.489677 10251 net.cpp:368] conv5 -> conv5
I0719 04:53:12.489691 10251 net.cpp:120] Setting up conv5
I0719 04:53:12.501704 10251 net.cpp:127] Top shape: 50 256 13 13 (2163200)
I0719 04:53:12.501726 10251 layer_factory.hpp:74] Creating layer relu5
I0719 04:53:12.501736 10251 net.cpp:90] Creating Layer relu5
I0719 04:53:12.501744 10251 net.cpp:410] relu5 <- conv5
I0719 04:53:12.501750 10251 net.cpp:357] relu5 -> conv5 (in-place)
I0719 04:53:12.501759 10251 net.cpp:120] Setting up relu5
I0719 04:53:12.501765 10251 net.cpp:127] Top shape: 50 256 13 13 (2163200)
I0719 04:53:12.501770 10251 layer_factory.hpp:74] Creating layer pool5
I0719 04:53:12.501778 10251 net.cpp:90] Creating Layer pool5
I0719 04:53:12.501785 10251 net.cpp:410] pool5 <- conv5
I0719 04:53:12.501791 10251 net.cpp:368] pool5 -> pool5
I0719 04:53:12.501804 10251 net.cpp:120] Setting up pool5
I0719 04:53:12.501838 10251 net.cpp:127] Top shape: 50 256 6 6 (460800)
I0719 04:53:12.501847 10251 layer_factory.hpp:74] Creating layer fc6
I0719 04:53:12.501862 10251 net.cpp:90] Creating Layer fc6
I0719 04:53:12.501869 10251 net.cpp:410] fc6 <- pool5
I0719 04:53:12.501878 10251 net.cpp:368] fc6 -> fc6
I0719 04:53:12.501891 10251 net.cpp:120] Setting up fc6
I0719 04:53:13.502539 10251 net.cpp:127] Top shape: 50 4096 (204800)
I0719 04:53:13.502575 10251 layer_factory.hpp:74] Creating layer relu6
I0719 04:53:13.502588 10251 net.cpp:90] Creating Layer relu6
I0719 04:53:13.502595 10251 net.cpp:410] relu6 <- fc6
I0719 04:53:13.502604 10251 net.cpp:357] relu6 -> fc6 (in-place)
I0719 04:53:13.502614 10251 net.cpp:120] Setting up relu6
I0719 04:53:13.502621 10251 net.cpp:127] Top shape: 50 4096 (204800)
I0719 04:53:13.502626 10251 layer_factory.hpp:74] Creating layer drop6
I0719 04:53:13.502635 10251 net.cpp:90] Creating Layer drop6
I0719 04:53:13.502640 10251 net.cpp:410] drop6 <- fc6
I0719 04:53:13.502647 10251 net.cpp:357] drop6 -> fc6 (in-place)
I0719 04:53:13.502658 10251 net.cpp:120] Setting up drop6
I0719 04:53:13.502671 10251 net.cpp:127] Top shape: 50 4096 (204800)
I0719 04:53:13.502678 10251 layer_factory.hpp:74] Creating layer fc7
I0719 04:53:13.502688 10251 net.cpp:90] Creating Layer fc7
I0719 04:53:13.502696 10251 net.cpp:410] fc7 <- fc6
I0719 04:53:13.502704 10251 net.cpp:368] fc7 -> fc7
I0719 04:53:13.502713 10251 net.cpp:120] Setting up fc7
I0719 04:53:13.894062 10251 net.cpp:127] Top shape: 50 4096 (204800)
I0719 04:53:13.894112 10251 layer_factory.hpp:74] Creating layer relu7
I0719 04:53:13.894126 10251 net.cpp:90] Creating Layer relu7
I0719 04:53:13.894134 10251 net.cpp:410] relu7 <- fc7
I0719 04:53:13.894142 10251 net.cpp:357] relu7 -> fc7 (in-place)
I0719 04:53:13.894152 10251 net.cpp:120] Setting up relu7
I0719 04:53:13.894160 10251 net.cpp:127] Top shape: 50 4096 (204800)
I0719 04:53:13.894165 10251 layer_factory.hpp:74] Creating layer drop7
I0719 04:53:13.894172 10251 net.cpp:90] Creating Layer drop7
I0719 04:53:13.894181 10251 net.cpp:410] drop7 <- fc7
I0719 04:53:13.894188 10251 net.cpp:357] drop7 -> fc7 (in-place)
I0719 04:53:13.894194 10251 net.cpp:120] Setting up drop7
I0719 04:53:13.894204 10251 net.cpp:127] Top shape: 50 4096 (204800)
I0719 04:53:13.894213 10251 layer_factory.hpp:74] Creating layer fc8_flickr
I0719 04:53:13.894222 10251 net.cpp:90] Creating Layer fc8_flickr
I0719 04:53:13.894230 10251 net.cpp:410] fc8_flickr <- fc7
I0719 04:53:13.894239 10251 net.cpp:368] fc8_flickr -> fc8_flickr
I0719 04:53:13.894249 10251 net.cpp:120] Setting up fc8_flickr
I0719 04:53:13.910418 10251 net.cpp:127] Top shape: 50 167 (8350)
I0719 04:53:13.910433 10251 layer_factory.hpp:74] Creating layer loss
I0719 04:53:13.910460 10251 net.cpp:90] Creating Layer loss
I0719 04:53:13.910466 10251 net.cpp:410] loss <- fc8_flickr
I0719 04:53:13.910472 10251 net.cpp:410] loss <- label
I0719 04:53:13.910483 10251 net.cpp:368] loss -> (automatic)
I0719 04:53:13.910495 10251 net.cpp:120] Setting up loss
I0719 04:53:13.910503 10251 layer_factory.hpp:74] Creating layer loss
…
I0719 04:53:13.911408 10251 net.cpp:287] The NetState phase (1) differed from the phase (0) specified by a rule in layer data
I0719 04:53:13.911583 10251 net.cpp:42] Initializing net from parameters: 
name: "LogoCaffeNet"
state {
  phase: TEST
}
layer {
  name: "data"
  type: "ImageData"
  top: "data"
  top: "label"
  include {
    phase: TEST
  }
  transform_param {
    mirror: false
    crop_size: 227
    mean_file: "data/ilsvrc12/imagenet_mean.binaryproto"
  }
  image_data_param {
    source: "/home/rips_tc/caffe/data/logos/test.txt"
    batch_size: 50
    new_height: 256
    new_width: 256
  }
}
layer {
  name: "conv1"
  type: "Convolution"
  bottom: "data"
  top: "conv1"
  param {
    lr_mult: 0.5
    decay_mult: 1
  }
  param {
    lr_mult: 1
    decay_mult: 0
  }
  convolution_param {
    num_output: 96
    kernel_size: 11
    stride: 4
    weight_filler {
      type: "gaussian"
      std: 0.01
    }
    bias_filler {
      type: "constant"
      value: 0
    }
  }
}
layer {
  name: "relu1"
  type: "ReLU"
  bottom: "conv1"
  top: "conv1"
}
layer {
  name: "pool1"
  type: "Pooling"
  bottom: "conv1"
  top: "pool1"
  pooling_param {
    pool: MAX
    kernel_size: 3
    stride: 2
  }
}
layer {
  name: "norm1"
  type: "LRN"
  bottom: "pool1"
  top: "norm1"
  lrn_param {
    local_size: 5
    alpha: 0.0001
    beta: 0.75
  }
}
layer {
  name: "conv2"
  type: "Convolution"
  bottom: "norm1"
  top: "conv2"
  param {
    lr_mult: 0.5
    decay_mult: 1
  }
  param {
    lr_mult: 1
    decay_mult: 0
  }
  convolution_param {
    num_output: 256
    pad: 2
    kernel_size: 5
    group: 2
    weight_filler {
      type: "gaussian"
      std: 0.01
    }
    bias_filler {
      type: "constant"
      value: 1
    }
  }
}
layer {
  name: "relu2"
  type: "ReLU"
  bottom: "conv2"
  top: "conv2"
}
layer {
  name: "pool2"
  type: "Pooling"
  bottom: "conv2"
  top: "pool2"
  pooling_param {
    pool: MAX
    kernel_size: 3
    stride: 2
  }
}
layer {
  name: "norm2"
  type: "LRN"
  bottom: "pool2"
  top: "norm2"
  lrn_param {
    local_size: 5
    alpha: 0.0001
    beta: 0.75
  }
}
layer {
  name: "conv3"
  type: "Convolution"
  bottom: "norm2"
  top: "conv3"
  param {
    lr_mult: 0.5
    decay_mult: 1
  }
  param {
    lr_mult: 1
    decay_mult: 0
  }
  convolution_param {
    num_output: 384
    pad: 1
    kernel_size: 3
    weight_filler {
      type: "gaussian"
      std: 0.01
    }
    bias_filler {
      type: "constant"
      value: 0
    }
  }
}
layer {
  name: "relu3"
  type: "ReLU"
  bottom: "conv3"
  top: "conv3"
}
layer {
  name: "conv4"
  type: "Convolution"
  bottom: "conv3"
  top: "conv4"
  param {
    lr_mult: 0.5
    decay_mult: 1
  }
  param {
    lr_mult: 1
    decay_mult: 0
  }
  convolution_param {
    num_output: 384
    pad: 1
    kernel_size: 3
    group: 2
    weight_filler {
      type: "gaussian"
      std: 0.01
    }
    bias_filler {
      type: "constant"
      value: 1
    }
  }
}
layer {
  name: "relu4"
  type: "ReLU"
  bottom: "conv4"
  top: "conv4"
}
layer {
  name: "conv5"
  type: "Convolution"
  bottom: "conv4"
  top: "conv5"
  param {
    lr_mult: 0.5
    decay_mult: 1
  }
  param {
    lr_mult: 1
    decay_mult: 0
  }
  convolution_param {
    num_output: 256
    pad: 1
    kernel_size: 3
    group: 2
    weight_filler {
      type: "gaussian"
      std: 0.01
    }
    bias_filler {
      type: "constant"
      value: 1
    }
  }
}
layer {
  name: "relu5"
  type: "ReLU"
  bottom: "conv5"
  top: "conv5"
}
layer {
  name: "pool5"
  type: "Pooling"
  bottom: "conv5"
  top: "pool5"
  pooling_param {
    pool: MAX
    kernel_size: 3
    stride: 2
  }
}
layer {
  name: "fc6"
  type: "InnerProduct"
  bottom: "pool5"
  top: "fc6"
  param {
    lr_mult: 1
    decay_mult: 1
  }
  param {
    lr_mult: 2
    decay_mult: 0
  }
  inner_product_param {
    num_output: 4096
    weight_filler {
      type: "gaussian"
      std: 0.005
    }
    bias_filler {
      type: "constant"
      value: 1
    }
  }
}
layer {
  name: "relu6"
  type: "ReLU"
  bottom: "fc6"
  top: "fc6"
}
layer {
  name: "drop6"
  type: "Dropout"
  bottom: "fc6"
  top: "fc6"
  dropout_param {
    dropout_ratio: 0.5
  }
}
layer {
  name: "fc7"
  type: "InnerProduct"
  bottom: "fc6"
  top: "fc7"
  param {
    lr_mult: 2
    decay_mult: 1
  }
  param {
    lr_mult: 4
    decay_mult: 0
  }
  inner_product_param {
    num_output: 4096
    weight_filler {
      type: "gaussian"
      std: 0.005
    }
    bias_filler {
      type: "constant"
      value: 1
    }
  }
}
layer {
  name: "relu7"
  type: "ReLU"
  bottom: "fc7"
  top: "fc7"
}
layer {
  name: "drop7"
  type: "Dropout"
  bottom: "fc7"
  top: "fc7"
  dropout_param {
    dropout_ratio: 0.5
  }
}
layer {
  name: "fc8_flickr"
  type: "InnerProduct"
  bottom: "fc7"
  top: "fc8_flickr"
  param {
    lr_mult: 20
    decay_mult: 1
  }
  param {
    lr_mult: 20
    decay_mult: 1
  }
  inner_product_param {
    num_output: 167
    weight_filler {
      type: "gaussian"
      std: 0.01
    }
    bias_filler {
      type: "constant"
      value: 0
    }
  }
}
layer {
  name: "loss"
  type: "SoftmaxWithLoss"
  bottom: "fc8_flickr"
  bottom: "label"
}
layer {
  name: "accuracy"
  type: "Accuracy"
  bottom: "fc8_flickr"
  bottom: "label"
  top: "accuracy"
  include {
    phase: TEST
  }
  accuracy_param {
    top_k: 3
  }
}
I0719 04:53:13.911696 10251 layer_factory.hpp:74] Creating layer data
I0719 04:53:13.911711 10251 net.cpp:90] Creating Layer data
I0719 04:53:13.911720 10251 net.cpp:368] data -> data
I0719 04:53:13.911730 10251 net.cpp:368] data -> label
I0719 04:53:13.911737 10251 net.cpp:120] Setting up data
I0719 04:53:13.911743 10251 data_transformer.cpp:22] Loading mean file from: data/ilsvrc12/imagenet_mean.binaryproto
I0719 04:53:13.913023 10251 image_data_layer.cpp:36] Opening file /home/rips_tc/caffe/data/logos/test.txt
I0719 04:53:13.913573 10251 image_data_layer.cpp:51] A total of 1357 images.
I0719 04:53:13.914329 10251 image_data_layer.cpp:74] output data size: 50,3,227,227
I0719 04:53:13.917853 10251 net.cpp:127] Top shape: 50 3 227 227 (7729350)
I0719 04:53:13.917886 10251 net.cpp:127] Top shape: 50 (50)
I0719 04:53:13.917896 10251 layer_factory.hpp:74] Creating layer label_data_1_split
I0719 04:53:13.917924 10251 net.cpp:90] Creating Layer label_data_1_split
I0719 04:53:13.917932 10251 net.cpp:410] label_data_1_split <- label
I0719 04:53:13.917940 10251 net.cpp:368] label_data_1_split -> label_data_1_split_0
I0719 04:53:13.917951 10251 net.cpp:368] label_data_1_split -> label_data_1_split_1
I0719 04:53:13.917960 10251 net.cpp:120] Setting up label_data_1_split
I0719 04:53:13.917973 10251 net.cpp:127] Top shape: 50 (50)
I0719 04:53:13.917981 10251 net.cpp:127] Top shape: 50 (50)
I0719 04:53:13.917987 10251 layer_factory.hpp:74] Creating layer conv1
I0719 04:53:13.917999 10251 net.cpp:90] Creating Layer conv1
I0719 04:53:13.918020 10251 net.cpp:410] conv1 <- data
I0719 04:53:13.918030 10251 net.cpp:368] conv1 -> conv1
I0719 04:53:13.918041 10251 net.cpp:120] Setting up conv1
I0719 04:53:13.918931 10251 net.cpp:127] Top shape: 50 96 55 55 (14520000)
I0719 04:53:13.918946 10251 layer_factory.hpp:74] Creating layer relu1
I0719 04:53:13.918953 10251 net.cpp:90] Creating Layer relu1
I0719 04:53:13.918959 10251 net.cpp:410] relu1 <- conv1
I0719 04:53:13.918967 10251 net.cpp:357] relu1 -> conv1 (in-place)
I0719 04:53:13.918973 10251 net.cpp:120] Setting up relu1
I0719 04:53:13.918979 10251 net.cpp:127] Top shape: 50 96 55 55 (14520000)
I0719 04:53:13.918984 10251 layer_factory.hpp:74] Creating layer pool1
I0719 04:53:13.918993 10251 net.cpp:90] Creating Layer pool1
I0719 04:53:13.918998 10251 net.cpp:410] pool1 <- conv1
I0719 04:53:13.919005 10251 net.cpp:368] pool1 -> pool1
I0719 04:53:13.919013 10251 net.cpp:120] Setting up pool1
I0719 04:53:13.919023 10251 net.cpp:127] Top shape: 50 96 27 27 (3499200)
I0719 04:53:13.919031 10251 layer_factory.hpp:74] Creating layer norm1
I0719 04:53:13.919039 10251 net.cpp:90] Creating Layer norm1
I0719 04:53:13.919045 10251 net.cpp:410] norm1 <- pool1
I0719 04:53:13.919052 10251 net.cpp:368] norm1 -> norm1
I0719 04:53:13.919059 10251 net.cpp:120] Setting up norm1
I0719 04:53:13.919069 10251 net.cpp:127] Top shape: 50 96 27 27 (3499200)
I0719 04:53:13.919075 10251 layer_factory.hpp:74] Creating layer conv2
I0719 04:53:13.919083 10251 net.cpp:90] Creating Layer conv2
I0719 04:53:13.919090 10251 net.cpp:410] conv2 <- norm1
I0719 04:53:13.919097 10251 net.cpp:368] conv2 -> conv2
I0719 04:53:13.919106 10251 net.cpp:120] Setting up conv2
I0719 04:53:13.926849 10251 net.cpp:127] Top shape: 50 256 27 27 (9331200)
I0719 04:53:13.926864 10251 layer_factory.hpp:74] Creating layer relu2
I0719 04:53:13.926873 10251 net.cpp:90] Creating Layer relu2
I0719 04:53:13.926879 10251 net.cpp:410] relu2 <- conv2
I0719 04:53:13.926885 10251 net.cpp:357] relu2 -> conv2 (in-place)
I0719 04:53:13.926892 10251 net.cpp:120] Setting up relu2
I0719 04:53:13.926901 10251 net.cpp:127] Top shape: 50 256 27 27 (9331200)
I0719 04:53:13.926915 10251 layer_factory.hpp:74] Creating layer pool2
I0719 04:53:13.926925 10251 net.cpp:90] Creating Layer pool2
I0719 04:53:13.926933 10251 net.cpp:410] pool2 <- conv2
I0719 04:53:13.926939 10251 net.cpp:368] pool2 -> pool2
I0719 04:53:13.926947 10251 net.cpp:120] Setting up pool2
I0719 04:53:13.926957 10251 net.cpp:127] Top shape: 50 256 13 13 (2163200)
I0719 04:53:13.926965 10251 layer_factory.hpp:74] Creating layer norm2
I0719 04:53:13.926975 10251 net.cpp:90] Creating Layer norm2
I0719 04:53:13.926980 10251 net.cpp:410] norm2 <- pool2
I0719 04:53:13.926987 10251 net.cpp:368] norm2 -> norm2
I0719 04:53:13.926996 10251 net.cpp:120] Setting up norm2
I0719 04:53:13.927006 10251 net.cpp:127] Top shape: 50 256 13 13 (2163200)
I0719 04:53:13.927013 10251 layer_factory.hpp:74] Creating layer conv3
I0719 04:53:13.927022 10251 net.cpp:90] Creating Layer conv3
I0719 04:53:13.927028 10251 net.cpp:410] conv3 <- norm2
I0719 04:53:13.927039 10251 net.cpp:368] conv3 -> conv3
I0719 04:53:13.927048 10251 net.cpp:120] Setting up conv3
I0719 04:53:13.949653 10251 net.cpp:127] Top shape: 50 384 13 13 (3244800)
I0719 04:53:13.949681 10251 layer_factory.hpp:74] Creating layer relu3
I0719 04:53:13.949692 10251 net.cpp:90] Creating Layer relu3
I0719 04:53:13.949699 10251 net.cpp:410] relu3 <- conv3
I0719 04:53:13.949710 10251 net.cpp:357] relu3 -> conv3 (in-place)
I0719 04:53:13.949720 10251 net.cpp:120] Setting up relu3
I0719 04:53:13.949728 10251 net.cpp:127] Top shape: 50 384 13 13 (3244800)
I0719 04:53:13.949733 10251 layer_factory.hpp:74] Creating layer conv4
I0719 04:53:13.949743 10251 net.cpp:90] Creating Layer conv4
I0719 04:53:13.949750 10251 net.cpp:410] conv4 <- conv3
I0719 04:53:13.949759 10251 net.cpp:368] conv4 -> conv4
I0719 04:53:13.949769 10251 net.cpp:120] Setting up conv4
I0719 04:53:13.966450 10251 net.cpp:127] Top shape: 50 384 13 13 (3244800)
I0719 04:53:13.966473 10251 layer_factory.hpp:74] Creating layer relu4
I0719 04:53:13.966507 10251 net.cpp:90] Creating Layer relu4
I0719 04:53:13.966514 10251 net.cpp:410] relu4 <- conv4
I0719 04:53:13.966522 10251 net.cpp:357] relu4 -> conv4 (in-place)
I0719 04:53:13.966531 10251 net.cpp:120] Setting up relu4
I0719 04:53:13.966542 10251 net.cpp:127] Top shape: 50 384 13 13 (3244800)
I0719 04:53:13.966547 10251 layer_factory.hpp:74] Creating layer conv5
I0719 04:53:13.966558 10251 net.cpp:90] Creating Layer conv5
I0719 04:53:13.966565 10251 net.cpp:410] conv5 <- conv4
I0719 04:53:13.966575 10251 net.cpp:368] conv5 -> conv5
I0719 04:53:13.966586 10251 net.cpp:120] Setting up conv5
I0719 04:53:13.977932 10251 net.cpp:127] Top shape: 50 256 13 13 (2163200)
I0719 04:53:13.977970 10251 layer_factory.hpp:74] Creating layer relu5
I0719 04:53:13.977984 10251 net.cpp:90] Creating Layer relu5
I0719 04:53:13.977991 10251 net.cpp:410] relu5 <- conv5
I0719 04:53:13.977999 10251 net.cpp:357] relu5 -> conv5 (in-place)
I0719 04:53:13.978008 10251 net.cpp:120] Setting up relu5
I0719 04:53:13.978015 10251 net.cpp:127] Top shape: 50 256 13 13 (2163200)
I0719 04:53:13.978021 10251 layer_factory.hpp:74] Creating layer pool5
I0719 04:53:13.978034 10251 net.cpp:90] Creating Layer pool5
I0719 04:53:13.978042 10251 net.cpp:410] pool5 <- conv5
I0719 04:53:13.978050 10251 net.cpp:368] pool5 -> pool5
I0719 04:53:13.978060 10251 net.cpp:120] Setting up pool5
I0719 04:53:13.978071 10251 net.cpp:127] Top shape: 50 256 6 6 (460800)
I0719 04:53:13.978078 10251 layer_factory.hpp:74] Creating layer fc6
I0719 04:53:13.978091 10251 net.cpp:90] Creating Layer fc6
I0719 04:53:13.978098 10251 net.cpp:410] fc6 <- pool5
I0719 04:53:13.978106 10251 net.cpp:368] fc6 -> fc6
I0719 04:53:13.978116 10251 net.cpp:120] Setting up fc6
I0719 04:53:14.856878 10251 net.cpp:127] Top shape: 50 4096 (204800)
I0719 04:53:14.856916 10251 layer_factory.hpp:74] Creating layer relu6
I0719 04:53:14.856930 10251 net.cpp:90] Creating Layer relu6
I0719 04:53:14.856936 10251 net.cpp:410] relu6 <- fc6
I0719 04:53:14.856945 10251 net.cpp:357] relu6 -> fc6 (in-place)
I0719 04:53:14.856956 10251 net.cpp:120] Setting up relu6
I0719 04:53:14.856962 10251 net.cpp:127] Top shape: 50 4096 (204800)
I0719 04:53:14.856967 10251 layer_factory.hpp:74] Creating layer drop6
I0719 04:53:14.856978 10251 net.cpp:90] Creating Layer drop6
I0719 04:53:14.856983 10251 net.cpp:410] drop6 <- fc6
I0719 04:53:14.856991 10251 net.cpp:357] drop6 -> fc6 (in-place)
I0719 04:53:14.856997 10251 net.cpp:120] Setting up drop6
I0719 04:53:14.857009 10251 net.cpp:127] Top shape: 50 4096 (204800)
I0719 04:53:14.857015 10251 layer_factory.hpp:74] Creating layer fc7
I0719 04:53:14.857027 10251 net.cpp:90] Creating Layer fc7
I0719 04:53:14.857034 10251 net.cpp:410] fc7 <- fc6
I0719 04:53:14.857041 10251 net.cpp:368] fc7 -> fc7
I0719 04:53:14.857053 10251 net.cpp:120] Setting up fc7
I0719 04:53:15.259951 10251 net.cpp:127] Top shape: 50 4096 (204800)
I0719 04:53:15.259999 10251 layer_factory.hpp:74] Creating layer relu7
I0719 04:53:15.260013 10251 net.cpp:90] Creating Layer relu7
I0719 04:53:15.260020 10251 net.cpp:410] relu7 <- fc7
I0719 04:53:15.260030 10251 net.cpp:357] relu7 -> fc7 (in-place)
I0719 04:53:15.260038 10251 net.cpp:120] Setting up relu7
I0719 04:53:15.260046 10251 net.cpp:127] Top shape: 50 4096 (204800)
I0719 04:53:15.260051 10251 layer_factory.hpp:74] Creating layer drop7
I0719 04:53:15.260059 10251 net.cpp:90] Creating Layer drop7
I0719 04:53:15.260068 10251 net.cpp:410] drop7 <- fc7
I0719 04:53:15.260076 10251 net.cpp:357] drop7 -> fc7 (in-place)
I0719 04:53:15.260087 10251 net.cpp:120] Setting up drop7
I0719 04:53:15.260095 10251 net.cpp:127] Top shape: 50 4096 (204800)
I0719 04:53:15.260102 10251 layer_factory.hpp:74] Creating layer fc8_flickr
I0719 04:53:15.260113 10251 net.cpp:90] Creating Layer fc8_flickr
I0719 04:53:15.260119 10251 net.cpp:410] fc8_flickr <- fc7
I0719 04:53:15.260128 10251 net.cpp:368] fc8_flickr -> fc8_flickr
I0719 04:53:15.260141 10251 net.cpp:120] Setting up fc8_flickr
I0719 04:53:15.276276 10251 net.cpp:127] Top shape: 50 167 (8350)
I0719 04:53:15.276315 10251 layer_factory.hpp:74] Creating layer fc8_flickr_fc8_flickr_0_split
I0719 04:53:15.276325 10251 net.cpp:90] Creating Layer fc8_flickr_fc8_flickr_0_split
I0719 04:53:15.276331 10251 net.cpp:410] fc8_flickr_fc8_flickr_0_split <- fc8_flickr
I0719 04:53:15.276339 10251 net.cpp:368] fc8_flickr_fc8_flickr_0_split -> fc8_flickr_fc8_flickr_0_split_0
I0719 04:53:15.276347 10251 net.cpp:368] fc8_flickr_fc8_flickr_0_split -> fc8_flickr_fc8_flickr_0_split_1
I0719 04:53:15.276355 10251 net.cpp:120] Setting up fc8_flickr_fc8_flickr_0_split
I0719 04:53:15.276362 10251 net.cpp:127] Top shape: 50 167 (8350)
I0719 04:53:15.276368 10251 net.cpp:127] Top shape: 50 167 (8350)
I0719 04:53:15.276377 10251 layer_factory.hpp:74] Creating layer loss
I0719 04:53:15.276387 10251 net.cpp:90] Creating Layer loss
I0719 04:53:15.276396 10251 net.cpp:410] loss <- fc8_flickr_fc8_flickr_0_split_0
I0719 04:53:15.276402 10251 net.cpp:410] loss <- label_data_1_split_0
I0719 04:53:15.276409 10251 net.cpp:368] loss -> (automatic)
I0719 04:53:15.276417 10251 net.cpp:120] Setting up loss
…
