…
I0725 11:46:25.814687  4244 net.cpp:287] The NetState phase (0) differed from the phase (1) specified by a rule in layer accuracy
I0725 11:46:25.814865  4244 net.cpp:42] Initializing net from parameters: 
name: "LogoCaffeNet"
state {
  phase: TRAIN
}
layer {
  name: "data"
  type: "ImageData"
  top: "data"
  top: "label"
  include {
    phase: TRAIN
  }
  transform_param {
    mirror: true
    crop_size: 227
    mean_file: "data/ilsvrc12/imagenet_mean.binaryproto"
  }
  image_data_param {
    source: "/home/rips_tc/caffe/data/logos/train.txt"
    batch_size: 100
    new_height: 256
    new_width: 256
  }
}
layer {
  name: "conv1"
  type: "Convolution"
  bottom: "data"
  top: "conv1"
  param {
    lr_mult: 0.5
    decay_mult: 1
  }
  param {
    lr_mult: 1
    decay_mult: 0
  }
  convolution_param {
    num_output: 96
    kernel_size: 11
    stride: 4
    weight_filler {
      type: "gaussian"
      std: 0.01
    }
    bias_filler {
      type: "constant"
      value: 0
    }
  }
}
layer {
  name: "relu1"
  type: "ReLU"
  bottom: "conv1"
  top: "conv1"
}
layer {
  name: "pool1"
  type: "Pooling"
  bottom: "conv1"
  top: "pool1"
  pooling_param {
    pool: MAX
    kernel_size: 3
    stride: 2
  }
}
layer {
  name: "norm1"
  type: "LRN"
  bottom: "pool1"
  top: "norm1"
  lrn_param {
    local_size: 5
    alpha: 0.0001
    beta: 0.75
  }
}
layer {
  name: "conv2"
  type: "Convolution"
  bottom: "norm1"
  top: "conv2"
  param {
    lr_mult: 0.5
    decay_mult: 1
  }
  param {
    lr_mult: 1
    decay_mult: 0
  }
  convolution_param {
    num_output: 256
    pad: 2
    kernel_size: 5
    group: 2
    weight_filler {
      type: "gaussian"
      std: 0.01
    }
    bias_filler {
      type: "constant"
      value: 1
    }
  }
}
layer {
  name: "relu2"
  type: "ReLU"
  bottom: "conv2"
  top: "conv2"
}
layer {
  name: "pool2"
  type: "Pooling"
  bottom: "conv2"
  top: "pool2"
  pooling_param {
    pool: MAX
    kernel_size: 3
    stride: 2
  }
}
layer {
  name: "norm2"
  type: "LRN"
  bottom: "pool2"
  top: "norm2"
  lrn_param {
    local_size: 5
    alpha: 0.0001
    beta: 0.75
  }
}
layer {
  name: "conv3"
  type: "Convolution"
  bottom: "norm2"
  top: "conv3"
  param {
    lr_mult: 0.5
    decay_mult: 1
  }
  param {
    lr_mult: 1
    decay_mult: 0
  }
  convolution_param {
    num_output: 384
    pad: 1
    kernel_size: 3
    weight_filler {
      type: "gaussian"
      std: 0.01
    }
    bias_filler {
      type: "constant"
      value: 0
    }
  }
}
layer {
  name: "relu3"
  type: "ReLU"
  bottom: "conv3"
  top: "conv3"
}
layer {
  name: "conv4"
  type: "Convolution"
  bottom: "conv3"
  top: "conv4"
  param {
    lr_mult: 0.5
    decay_mult: 1
  }
  param {
    lr_mult: 1
    decay_mult: 0
  }
  convolution_param {
    num_output: 384
    pad: 1
    kernel_size: 3
    group: 2
    weight_filler {
      type: "gaussian"
      std: 0.01
    }
    bias_filler {
      type: "constant"
      value: 1
    }
  }
}
layer {
  name: "relu4"
  type: "ReLU"
  bottom: "conv4"
  top: "conv4"
}
layer {
  name: "conv5"
  type: "Convolution"
  bottom: "conv4"
  top: "conv5"
  param {
    lr_mult: 0.5
    decay_mult: 1
  }
  param {
    lr_mult: 1
    decay_mult: 0
  }
  convolution_param {
    num_output: 256
    pad: 1
    kernel_size: 3
    group: 2
    weight_filler {
      type: "gaussian"
      std: 0.01
    }
    bias_filler {
      type: "constant"
      value: 1
    }
  }
}
layer {
  name: "relu5"
  type: "ReLU"
  bottom: "conv5"
  top: "conv5"
}
layer {
  name: "pool5"
  type: "Pooling"
  bottom: "conv5"
  top: "pool5"
  pooling_param {
    pool: MAX
    kernel_size: 3
    stride: 2
  }
}
layer {
  name: "fc6"
  type: "InnerProduct"
  bottom: "pool5"
  top: "fc6"
  param {
    lr_mult: 1
    decay_mult: 1
  }
  param {
    lr_mult: 2
    decay_mult: 0
  }
  inner_product_param {
    num_output: 4096
    weight_filler {
      type: "gaussian"
      std: 0.005
    }
    bias_filler {
      type: "constant"
      value: 1
    }
  }
}
layer {
  name: "relu6"
  type: "ReLU"
  bottom: "fc6"
  top: "fc6"
}
layer {
  name: "drop6"
  type: "Dropout"
  bottom: "fc6"
  top: "fc6"
  dropout_param {
    dropout_ratio: 0.5
  }
}
layer {
  name: "fc7"
  type: "InnerProduct"
  bottom: "fc6"
  top: "fc7"
  param {
    lr_mult: 2
    decay_mult: 1
  }
  param {
    lr_mult: 4
    decay_mult: 0
  }
  inner_product_param {
    num_output: 4096
    weight_filler {
      type: "gaussian"
      std: 0.005
    }
    bias_filler {
      type: "constant"
      value: 1
    }
  }
}
layer {
  name: "relu7"
  type: "ReLU"
  bottom: "fc7"
  top: "fc7"
}
layer {
  name: "drop7"
  type: "Dropout"
  bottom: "fc7"
  top: "fc7"
  dropout_param {
    dropout_ratio: 0.5
  }
}
layer {
  name: "fc8_flickr"
  type: "InnerProduct"
  bottom: "fc7"
  top: "fc8_flickr"
  param {
    lr_mult: 20
    decay_mult: 1
  }
  param {
    lr_mult: 20
    decay_mult: 1
  }
  inner_product_param {
    num_output: 167
    weight_filler {
      type: "gaussian"
      std: 0.01
    }
    bias_filler {
      type: "constant"
      value: 0
    }
  }
}
layer {
  name: "loss"
  type: "SoftmaxWithLoss"
  bottom: "fc8_flickr"
  bottom: "label"
}
I0725 11:46:25.814990  4244 layer_factory.hpp:74] Creating layer data
I0725 11:46:25.815013  4244 net.cpp:90] Creating Layer data
I0725 11:46:25.815022  4244 net.cpp:368] data -> data
I0725 11:46:25.815047  4244 net.cpp:368] data -> label
I0725 11:46:25.815059  4244 net.cpp:120] Setting up data
I0725 11:46:25.815068  4244 data_transformer.cpp:22] Loading mean file from: data/ilsvrc12/imagenet_mean.binaryproto
I0725 11:46:25.816871  4244 image_data_layer.cpp:36] Opening file /home/rips_tc/caffe/data/logos/train.txt
I0725 11:46:25.821532  4244 image_data_layer.cpp:51] A total of 12219 images.
I0725 11:46:25.825567  4244 image_data_layer.cpp:74] output data size: 100,3,227,227
I0725 11:46:25.833389  4244 net.cpp:127] Top shape: 100 3 227 227 (15458700)
I0725 11:46:25.833422  4244 net.cpp:127] Top shape: 100 (100)
I0725 11:46:25.833433  4244 layer_factory.hpp:74] Creating layer conv1
I0725 11:46:25.833453  4244 net.cpp:90] Creating Layer conv1
I0725 11:46:25.833461  4244 net.cpp:410] conv1 <- data
I0725 11:46:25.833477  4244 net.cpp:368] conv1 -> conv1
I0725 11:46:25.833493  4244 net.cpp:120] Setting up conv1
I0725 11:46:25.834487  4244 net.cpp:127] Top shape: 100 96 55 55 (29040000)
I0725 11:46:25.834504  4244 layer_factory.hpp:74] Creating layer relu1
I0725 11:46:25.834517  4244 net.cpp:90] Creating Layer relu1
I0725 11:46:25.834525  4244 net.cpp:410] relu1 <- conv1
I0725 11:46:25.834533  4244 net.cpp:357] relu1 -> conv1 (in-place)
I0725 11:46:25.834542  4244 net.cpp:120] Setting up relu1
I0725 11:46:25.834554  4244 net.cpp:127] Top shape: 100 96 55 55 (29040000)
I0725 11:46:25.834563  4244 layer_factory.hpp:74] Creating layer pool1
I0725 11:46:25.834571  4244 net.cpp:90] Creating Layer pool1
I0725 11:46:25.834578  4244 net.cpp:410] pool1 <- conv1
I0725 11:46:25.834586  4244 net.cpp:368] pool1 -> pool1
I0725 11:46:25.834596  4244 net.cpp:120] Setting up pool1
I0725 11:46:25.834614  4244 net.cpp:127] Top shape: 100 96 27 27 (6998400)
I0725 11:46:25.834622  4244 layer_factory.hpp:74] Creating layer norm1
I0725 11:46:25.834632  4244 net.cpp:90] Creating Layer norm1
I0725 11:46:25.834638  4244 net.cpp:410] norm1 <- pool1
I0725 11:46:25.834647  4244 net.cpp:368] norm1 -> norm1
I0725 11:46:25.834657  4244 net.cpp:120] Setting up norm1
I0725 11:46:25.834668  4244 net.cpp:127] Top shape: 100 96 27 27 (6998400)
I0725 11:46:25.834692  4244 layer_factory.hpp:74] Creating layer conv2
I0725 11:46:25.834703  4244 net.cpp:90] Creating Layer conv2
I0725 11:46:25.834712  4244 net.cpp:410] conv2 <- norm1
I0725 11:46:25.834720  4244 net.cpp:368] conv2 -> conv2
I0725 11:46:25.834730  4244 net.cpp:120] Setting up conv2
I0725 11:46:25.843307  4244 net.cpp:127] Top shape: 100 256 27 27 (18662400)
I0725 11:46:25.843327  4244 layer_factory.hpp:74] Creating layer relu2
I0725 11:46:25.843339  4244 net.cpp:90] Creating Layer relu2
I0725 11:46:25.843349  4244 net.cpp:410] relu2 <- conv2
I0725 11:46:25.843358  4244 net.cpp:357] relu2 -> conv2 (in-place)
I0725 11:46:25.843368  4244 net.cpp:120] Setting up relu2
I0725 11:46:25.843377  4244 net.cpp:127] Top shape: 100 256 27 27 (18662400)
I0725 11:46:25.843384  4244 layer_factory.hpp:74] Creating layer pool2
I0725 11:46:25.843394  4244 net.cpp:90] Creating Layer pool2
I0725 11:46:25.843400  4244 net.cpp:410] pool2 <- conv2
I0725 11:46:25.843407  4244 net.cpp:368] pool2 -> pool2
I0725 11:46:25.843417  4244 net.cpp:120] Setting up pool2
I0725 11:46:25.843430  4244 net.cpp:127] Top shape: 100 256 13 13 (4326400)
I0725 11:46:25.843436  4244 layer_factory.hpp:74] Creating layer norm2
I0725 11:46:25.843446  4244 net.cpp:90] Creating Layer norm2
I0725 11:46:25.843453  4244 net.cpp:410] norm2 <- pool2
I0725 11:46:25.843461  4244 net.cpp:368] norm2 -> norm2
I0725 11:46:25.843469  4244 net.cpp:120] Setting up norm2
I0725 11:46:25.843478  4244 net.cpp:127] Top shape: 100 256 13 13 (4326400)
I0725 11:46:25.843487  4244 layer_factory.hpp:74] Creating layer conv3
I0725 11:46:25.843497  4244 net.cpp:90] Creating Layer conv3
I0725 11:46:25.843503  4244 net.cpp:410] conv3 <- norm2
I0725 11:46:25.843511  4244 net.cpp:368] conv3 -> conv3
I0725 11:46:25.843521  4244 net.cpp:120] Setting up conv3
I0725 11:46:25.868654  4244 net.cpp:127] Top shape: 100 384 13 13 (6489600)
I0725 11:46:25.868685  4244 layer_factory.hpp:74] Creating layer relu3
I0725 11:46:25.868698  4244 net.cpp:90] Creating Layer relu3
I0725 11:46:25.868705  4244 net.cpp:410] relu3 <- conv3
I0725 11:46:25.868715  4244 net.cpp:357] relu3 -> conv3 (in-place)
I0725 11:46:25.868724  4244 net.cpp:120] Setting up relu3
I0725 11:46:25.868733  4244 net.cpp:127] Top shape: 100 384 13 13 (6489600)
I0725 11:46:25.868739  4244 layer_factory.hpp:74] Creating layer conv4
I0725 11:46:25.868752  4244 net.cpp:90] Creating Layer conv4
I0725 11:46:25.868759  4244 net.cpp:410] conv4 <- conv3
I0725 11:46:25.868767  4244 net.cpp:368] conv4 -> conv4
I0725 11:46:25.868778  4244 net.cpp:120] Setting up conv4
I0725 11:46:25.887270  4244 net.cpp:127] Top shape: 100 384 13 13 (6489600)
I0725 11:46:25.887295  4244 layer_factory.hpp:74] Creating layer relu4
I0725 11:46:25.887310  4244 net.cpp:90] Creating Layer relu4
I0725 11:46:25.887315  4244 net.cpp:410] relu4 <- conv4
I0725 11:46:25.887325  4244 net.cpp:357] relu4 -> conv4 (in-place)
I0725 11:46:25.887365  4244 net.cpp:120] Setting up relu4
I0725 11:46:25.887377  4244 net.cpp:127] Top shape: 100 384 13 13 (6489600)
I0725 11:46:25.887382  4244 layer_factory.hpp:74] Creating layer conv5
I0725 11:46:25.887394  4244 net.cpp:90] Creating Layer conv5
I0725 11:46:25.887403  4244 net.cpp:410] conv5 <- conv4
I0725 11:46:25.887410  4244 net.cpp:368] conv5 -> conv5
I0725 11:46:25.887423  4244 net.cpp:120] Setting up conv5
I0725 11:46:25.899596  4244 net.cpp:127] Top shape: 100 256 13 13 (4326400)
I0725 11:46:25.899616  4244 layer_factory.hpp:74] Creating layer relu5
I0725 11:46:25.899626  4244 net.cpp:90] Creating Layer relu5
I0725 11:46:25.899633  4244 net.cpp:410] relu5 <- conv5
I0725 11:46:25.899641  4244 net.cpp:357] relu5 -> conv5 (in-place)
I0725 11:46:25.899649  4244 net.cpp:120] Setting up relu5
I0725 11:46:25.899657  4244 net.cpp:127] Top shape: 100 256 13 13 (4326400)
I0725 11:46:25.899662  4244 layer_factory.hpp:74] Creating layer pool5
I0725 11:46:25.899672  4244 net.cpp:90] Creating Layer pool5
I0725 11:46:25.899677  4244 net.cpp:410] pool5 <- conv5
I0725 11:46:25.899689  4244 net.cpp:368] pool5 -> pool5
I0725 11:46:25.899719  4244 net.cpp:120] Setting up pool5
I0725 11:46:25.899732  4244 net.cpp:127] Top shape: 100 256 6 6 (921600)
I0725 11:46:25.899739  4244 layer_factory.hpp:74] Creating layer fc6
I0725 11:46:25.899751  4244 net.cpp:90] Creating Layer fc6
I0725 11:46:25.899760  4244 net.cpp:410] fc6 <- pool5
I0725 11:46:25.899767  4244 net.cpp:368] fc6 -> fc6
I0725 11:46:25.899782  4244 net.cpp:120] Setting up fc6
I0725 11:46:26.901347  4244 net.cpp:127] Top shape: 100 4096 (409600)
I0725 11:46:26.901386  4244 layer_factory.hpp:74] Creating layer relu6
I0725 11:46:26.901401  4244 net.cpp:90] Creating Layer relu6
I0725 11:46:26.901407  4244 net.cpp:410] relu6 <- fc6
I0725 11:46:26.901417  4244 net.cpp:357] relu6 -> fc6 (in-place)
I0725 11:46:26.901427  4244 net.cpp:120] Setting up relu6
I0725 11:46:26.901435  4244 net.cpp:127] Top shape: 100 4096 (409600)
I0725 11:46:26.901442  4244 layer_factory.hpp:74] Creating layer drop6
I0725 11:46:26.901450  4244 net.cpp:90] Creating Layer drop6
I0725 11:46:26.901455  4244 net.cpp:410] drop6 <- fc6
I0725 11:46:26.901463  4244 net.cpp:357] drop6 -> fc6 (in-place)
I0725 11:46:26.901473  4244 net.cpp:120] Setting up drop6
I0725 11:46:26.901485  4244 net.cpp:127] Top shape: 100 4096 (409600)
I0725 11:46:26.901492  4244 layer_factory.hpp:74] Creating layer fc7
I0725 11:46:26.901504  4244 net.cpp:90] Creating Layer fc7
I0725 11:46:26.901510  4244 net.cpp:410] fc7 <- fc6
I0725 11:46:26.901518  4244 net.cpp:368] fc7 -> fc7
I0725 11:46:26.901530  4244 net.cpp:120] Setting up fc7
I0725 11:46:27.315479  4244 net.cpp:127] Top shape: 100 4096 (409600)
I0725 11:46:27.315529  4244 layer_factory.hpp:74] Creating layer relu7
I0725 11:46:27.315542  4244 net.cpp:90] Creating Layer relu7
I0725 11:46:27.315549  4244 net.cpp:410] relu7 <- fc7
I0725 11:46:27.315558  4244 net.cpp:357] relu7 -> fc7 (in-place)
I0725 11:46:27.315568  4244 net.cpp:120] Setting up relu7
I0725 11:46:27.315575  4244 net.cpp:127] Top shape: 100 4096 (409600)
I0725 11:46:27.315580  4244 layer_factory.hpp:74] Creating layer drop7
I0725 11:46:27.315588  4244 net.cpp:90] Creating Layer drop7
I0725 11:46:27.315598  4244 net.cpp:410] drop7 <- fc7
I0725 11:46:27.315604  4244 net.cpp:357] drop7 -> fc7 (in-place)
I0725 11:46:27.315611  4244 net.cpp:120] Setting up drop7
I0725 11:46:27.315621  4244 net.cpp:127] Top shape: 100 4096 (409600)
I0725 11:46:27.315629  4244 layer_factory.hpp:74] Creating layer fc8_flickr
I0725 11:46:27.315637  4244 net.cpp:90] Creating Layer fc8_flickr
I0725 11:46:27.315645  4244 net.cpp:410] fc8_flickr <- fc7
I0725 11:46:27.315652  4244 net.cpp:368] fc8_flickr -> fc8_flickr
I0725 11:46:27.315661  4244 net.cpp:120] Setting up fc8_flickr
I0725 11:46:27.331869  4244 net.cpp:127] Top shape: 100 167 (16700)
I0725 11:46:27.331882  4244 layer_factory.hpp:74] Creating layer loss
I0725 11:46:27.331910  4244 net.cpp:90] Creating Layer loss
I0725 11:46:27.331917  4244 net.cpp:410] loss <- fc8_flickr
I0725 11:46:27.331923  4244 net.cpp:410] loss <- label
I0725 11:46:27.331933  4244 net.cpp:368] loss -> (automatic)
I0725 11:46:27.331939  4244 net.cpp:120] Setting up loss
I0725 11:46:27.331950  4244 layer_factory.hpp:74] Creating layer loss
…
I0725 11:46:27.332857  4244 net.cpp:287] The NetState phase (1) differed from the phase (0) specified by a rule in layer data
I0725 11:46:27.333035  4244 net.cpp:42] Initializing net from parameters: 
name: "LogoCaffeNet"
state {
  phase: TEST
}
layer {
  name: "data"
  type: "ImageData"
  top: "data"
  top: "label"
  include {
    phase: TEST
  }
  transform_param {
    mirror: false
    crop_size: 227
    mean_file: "data/ilsvrc12/imagenet_mean.binaryproto"
  }
  image_data_param {
    source: "/home/rips_tc/caffe/data/logos/test.txt"
    batch_size: 100
    new_height: 256
    new_width: 256
  }
}
layer {
  name: "conv1"
  type: "Convolution"
  bottom: "data"
  top: "conv1"
  param {
    lr_mult: 0.5
    decay_mult: 1
  }
  param {
    lr_mult: 1
    decay_mult: 0
  }
  convolution_param {
    num_output: 96
    kernel_size: 11
    stride: 4
    weight_filler {
      type: "gaussian"
      std: 0.01
    }
    bias_filler {
      type: "constant"
      value: 0
    }
  }
}
layer {
  name: "relu1"
  type: "ReLU"
  bottom: "conv1"
  top: "conv1"
}
layer {
  name: "pool1"
  type: "Pooling"
  bottom: "conv1"
  top: "pool1"
  pooling_param {
    pool: MAX
    kernel_size: 3
    stride: 2
  }
}
layer {
  name: "norm1"
  type: "LRN"
  bottom: "pool1"
  top: "norm1"
  lrn_param {
    local_size: 5
    alpha: 0.0001
    beta: 0.75
  }
}
layer {
  name: "conv2"
  type: "Convolution"
  bottom: "norm1"
  top: "conv2"
  param {
    lr_mult: 0.5
    decay_mult: 1
  }
  param {
    lr_mult: 1
    decay_mult: 0
  }
  convolution_param {
    num_output: 256
    pad: 2
    kernel_size: 5
    group: 2
    weight_filler {
      type: "gaussian"
      std: 0.01
    }
    bias_filler {
      type: "constant"
      value: 1
    }
  }
}
layer {
  name: "relu2"
  type: "ReLU"
  bottom: "conv2"
  top: "conv2"
}
layer {
  name: "pool2"
  type: "Pooling"
  bottom: "conv2"
  top: "pool2"
  pooling_param {
    pool: MAX
    kernel_size: 3
    stride: 2
  }
}
layer {
  name: "norm2"
  type: "LRN"
  bottom: "pool2"
  top: "norm2"
  lrn_param {
    local_size: 5
    alpha: 0.0001
    beta: 0.75
  }
}
layer {
  name: "conv3"
  type: "Convolution"
  bottom: "norm2"
  top: "conv3"
  param {
    lr_mult: 0.5
    decay_mult: 1
  }
  param {
    lr_mult: 1
    decay_mult: 0
  }
  convolution_param {
    num_output: 384
    pad: 1
    kernel_size: 3
    weight_filler {
      type: "gaussian"
      std: 0.01
    }
    bias_filler {
      type: "constant"
      value: 0
    }
  }
}
layer {
  name: "relu3"
  type: "ReLU"
  bottom: "conv3"
  top: "conv3"
}
layer {
  name: "conv4"
  type: "Convolution"
  bottom: "conv3"
  top: "conv4"
  param {
    lr_mult: 0.5
    decay_mult: 1
  }
  param {
    lr_mult: 1
    decay_mult: 0
  }
  convolution_param {
    num_output: 384
    pad: 1
    kernel_size: 3
    group: 2
    weight_filler {
      type: "gaussian"
      std: 0.01
    }
    bias_filler {
      type: "constant"
      value: 1
    }
  }
}
layer {
  name: "relu4"
  type: "ReLU"
  bottom: "conv4"
  top: "conv4"
}
layer {
  name: "conv5"
  type: "Convolution"
  bottom: "conv4"
  top: "conv5"
  param {
    lr_mult: 0.5
    decay_mult: 1
  }
  param {
    lr_mult: 1
    decay_mult: 0
  }
  convolution_param {
    num_output: 256
    pad: 1
    kernel_size: 3
    group: 2
    weight_filler {
      type: "gaussian"
      std: 0.01
    }
    bias_filler {
      type: "constant"
      value: 1
    }
  }
}
layer {
  name: "relu5"
  type: "ReLU"
  bottom: "conv5"
  top: "conv5"
}
layer {
  name: "pool5"
  type: "Pooling"
  bottom: "conv5"
  top: "pool5"
  pooling_param {
    pool: MAX
    kernel_size: 3
    stride: 2
  }
}
layer {
  name: "fc6"
  type: "InnerProduct"
  bottom: "pool5"
  top: "fc6"
  param {
    lr_mult: 1
    decay_mult: 1
  }
  param {
    lr_mult: 2
    decay_mult: 0
  }
  inner_product_param {
    num_output: 4096
    weight_filler {
      type: "gaussian"
      std: 0.005
    }
    bias_filler {
      type: "constant"
      value: 1
    }
  }
}
layer {
  name: "relu6"
  type: "ReLU"
  bottom: "fc6"
  top: "fc6"
}
layer {
  name: "drop6"
  type: "Dropout"
  bottom: "fc6"
  top: "fc6"
  dropout_param {
    dropout_ratio: 0.5
  }
}
layer {
  name: "fc7"
  type: "InnerProduct"
  bottom: "fc6"
  top: "fc7"
  param {
    lr_mult: 2
    decay_mult: 1
  }
  param {
    lr_mult: 4
    decay_mult: 0
  }
  inner_product_param {
    num_output: 4096
    weight_filler {
      type: "gaussian"
      std: 0.005
    }
    bias_filler {
      type: "constant"
      value: 1
    }
  }
}
layer {
  name: "relu7"
  type: "ReLU"
  bottom: "fc7"
  top: "fc7"
}
layer {
  name: "drop7"
  type: "Dropout"
  bottom: "fc7"
  top: "fc7"
  dropout_param {
    dropout_ratio: 0.5
  }
}
layer {
  name: "fc8_flickr"
  type: "InnerProduct"
  bottom: "fc7"
  top: "fc8_flickr"
  param {
    lr_mult: 20
    decay_mult: 1
  }
  param {
    lr_mult: 20
    decay_mult: 1
  }
  inner_product_param {
    num_output: 167
    weight_filler {
      type: "gaussian"
      std: 0.01
    }
    bias_filler {
      type: "constant"
      value: 0
    }
  }
}
layer {
  name: "loss"
  type: "SoftmaxWithLoss"
  bottom: "fc8_flickr"
  bottom: "label"
}
layer {
  name: "accuracy"
  type: "Accuracy"
  bottom: "fc8_flickr"
  bottom: "label"
  top: "accuracy"
  include {
    phase: TEST
  }
  accuracy_param {
    top_k: 3
  }
}
I0725 11:46:27.333149  4244 layer_factory.hpp:74] Creating layer data
I0725 11:46:27.333163  4244 net.cpp:90] Creating Layer data
I0725 11:46:27.333169  4244 net.cpp:368] data -> data
I0725 11:46:27.333179  4244 net.cpp:368] data -> label
I0725 11:46:27.333189  4244 net.cpp:120] Setting up data
I0725 11:46:27.333195  4244 data_transformer.cpp:22] Loading mean file from: data/ilsvrc12/imagenet_mean.binaryproto
I0725 11:46:27.334470  4244 image_data_layer.cpp:36] Opening file /home/rips_tc/caffe/data/logos/test.txt
I0725 11:46:27.334982  4244 image_data_layer.cpp:51] A total of 1358 images.
I0725 11:46:27.335660  4244 image_data_layer.cpp:74] output data size: 100,3,227,227
I0725 11:46:27.342661  4244 net.cpp:127] Top shape: 100 3 227 227 (15458700)
I0725 11:46:27.342691  4244 net.cpp:127] Top shape: 100 (100)
I0725 11:46:27.342701  4244 layer_factory.hpp:74] Creating layer label_data_1_split
I0725 11:46:27.342716  4244 net.cpp:90] Creating Layer label_data_1_split
I0725 11:46:27.342723  4244 net.cpp:410] label_data_1_split <- label
I0725 11:46:27.342732  4244 net.cpp:368] label_data_1_split -> label_data_1_split_0
I0725 11:46:27.342746  4244 net.cpp:368] label_data_1_split -> label_data_1_split_1
I0725 11:46:27.342754  4244 net.cpp:120] Setting up label_data_1_split
I0725 11:46:27.342771  4244 net.cpp:127] Top shape: 100 (100)
I0725 11:46:27.342778  4244 net.cpp:127] Top shape: 100 (100)
I0725 11:46:27.342784  4244 layer_factory.hpp:74] Creating layer conv1
I0725 11:46:27.342813  4244 net.cpp:90] Creating Layer conv1
I0725 11:46:27.342820  4244 net.cpp:410] conv1 <- data
I0725 11:46:27.342828  4244 net.cpp:368] conv1 -> conv1
I0725 11:46:27.342840  4244 net.cpp:120] Setting up conv1
I0725 11:46:27.343767  4244 net.cpp:127] Top shape: 100 96 55 55 (29040000)
I0725 11:46:27.343780  4244 layer_factory.hpp:74] Creating layer relu1
I0725 11:46:27.343789  4244 net.cpp:90] Creating Layer relu1
I0725 11:46:27.343796  4244 net.cpp:410] relu1 <- conv1
I0725 11:46:27.343802  4244 net.cpp:357] relu1 -> conv1 (in-place)
I0725 11:46:27.343809  4244 net.cpp:120] Setting up relu1
I0725 11:46:27.343816  4244 net.cpp:127] Top shape: 100 96 55 55 (29040000)
I0725 11:46:27.343822  4244 layer_factory.hpp:74] Creating layer pool1
I0725 11:46:27.343830  4244 net.cpp:90] Creating Layer pool1
I0725 11:46:27.343837  4244 net.cpp:410] pool1 <- conv1
I0725 11:46:27.343842  4244 net.cpp:368] pool1 -> pool1
I0725 11:46:27.343850  4244 net.cpp:120] Setting up pool1
I0725 11:46:27.343863  4244 net.cpp:127] Top shape: 100 96 27 27 (6998400)
I0725 11:46:27.343869  4244 layer_factory.hpp:74] Creating layer norm1
I0725 11:46:27.343878  4244 net.cpp:90] Creating Layer norm1
I0725 11:46:27.343885  4244 net.cpp:410] norm1 <- pool1
I0725 11:46:27.343891  4244 net.cpp:368] norm1 -> norm1
I0725 11:46:27.343900  4244 net.cpp:120] Setting up norm1
I0725 11:46:27.343909  4244 net.cpp:127] Top shape: 100 96 27 27 (6998400)
I0725 11:46:27.343915  4244 layer_factory.hpp:74] Creating layer conv2
I0725 11:46:27.343924  4244 net.cpp:90] Creating Layer conv2
I0725 11:46:27.343930  4244 net.cpp:410] conv2 <- norm1
I0725 11:46:27.343937  4244 net.cpp:368] conv2 -> conv2
I0725 11:46:27.343946  4244 net.cpp:120] Setting up conv2
I0725 11:46:27.351619  4244 net.cpp:127] Top shape: 100 256 27 27 (18662400)
I0725 11:46:27.351637  4244 layer_factory.hpp:74] Creating layer relu2
I0725 11:46:27.351646  4244 net.cpp:90] Creating Layer relu2
I0725 11:46:27.351652  4244 net.cpp:410] relu2 <- conv2
I0725 11:46:27.351660  4244 net.cpp:357] relu2 -> conv2 (in-place)
I0725 11:46:27.351668  4244 net.cpp:120] Setting up relu2
I0725 11:46:27.351688  4244 net.cpp:127] Top shape: 100 256 27 27 (18662400)
I0725 11:46:27.351694  4244 layer_factory.hpp:74] Creating layer pool2
I0725 11:46:27.351703  4244 net.cpp:90] Creating Layer pool2
I0725 11:46:27.351708  4244 net.cpp:410] pool2 <- conv2
I0725 11:46:27.351721  4244 net.cpp:368] pool2 -> pool2
I0725 11:46:27.351730  4244 net.cpp:120] Setting up pool2
I0725 11:46:27.351740  4244 net.cpp:127] Top shape: 100 256 13 13 (4326400)
I0725 11:46:27.351747  4244 layer_factory.hpp:74] Creating layer norm2
I0725 11:46:27.351758  4244 net.cpp:90] Creating Layer norm2
I0725 11:46:27.351764  4244 net.cpp:410] norm2 <- pool2
I0725 11:46:27.351773  4244 net.cpp:368] norm2 -> norm2
I0725 11:46:27.351781  4244 net.cpp:120] Setting up norm2
I0725 11:46:27.351791  4244 net.cpp:127] Top shape: 100 256 13 13 (4326400)
I0725 11:46:27.351799  4244 layer_factory.hpp:74] Creating layer conv3
I0725 11:46:27.351807  4244 net.cpp:90] Creating Layer conv3
I0725 11:46:27.351814  4244 net.cpp:410] conv3 <- norm2
I0725 11:46:27.351822  4244 net.cpp:368] conv3 -> conv3
I0725 11:46:27.351831  4244 net.cpp:120] Setting up conv3
I0725 11:46:27.373647  4244 net.cpp:127] Top shape: 100 384 13 13 (6489600)
I0725 11:46:27.373674  4244 layer_factory.hpp:74] Creating layer relu3
I0725 11:46:27.373689  4244 net.cpp:90] Creating Layer relu3
I0725 11:46:27.373697  4244 net.cpp:410] relu3 <- conv3
I0725 11:46:27.373705  4244 net.cpp:357] relu3 -> conv3 (in-place)
I0725 11:46:27.373714  4244 net.cpp:120] Setting up relu3
I0725 11:46:27.373721  4244 net.cpp:127] Top shape: 100 384 13 13 (6489600)
I0725 11:46:27.373728  4244 layer_factory.hpp:74] Creating layer conv4
I0725 11:46:27.373738  4244 net.cpp:90] Creating Layer conv4
I0725 11:46:27.373746  4244 net.cpp:410] conv4 <- conv3
I0725 11:46:27.373754  4244 net.cpp:368] conv4 -> conv4
I0725 11:46:27.373761  4244 net.cpp:120] Setting up conv4
I0725 11:46:27.390497  4244 net.cpp:127] Top shape: 100 384 13 13 (6489600)
I0725 11:46:27.390545  4244 layer_factory.hpp:74] Creating layer relu4
I0725 11:46:27.390558  4244 net.cpp:90] Creating Layer relu4
I0725 11:46:27.390564  4244 net.cpp:410] relu4 <- conv4
I0725 11:46:27.390573  4244 net.cpp:357] relu4 -> conv4 (in-place)
I0725 11:46:27.390594  4244 net.cpp:120] Setting up relu4
I0725 11:46:27.390602  4244 net.cpp:127] Top shape: 100 384 13 13 (6489600)
I0725 11:46:27.390607  4244 layer_factory.hpp:74] Creating layer conv5
I0725 11:46:27.390619  4244 net.cpp:90] Creating Layer conv5
I0725 11:46:27.390627  4244 net.cpp:410] conv5 <- conv4
I0725 11:46:27.390635  4244 net.cpp:368] conv5 -> conv5
I0725 11:46:27.390647  4244 net.cpp:120] Setting up conv5
I0725 11:46:27.401723  4244 net.cpp:127] Top shape: 100 256 13 13 (4326400)
I0725 11:46:27.401746  4244 layer_factory.hpp:74] Creating layer relu5
I0725 11:46:27.401757  4244 net.cpp:90] Creating Layer relu5
I0725 11:46:27.401762  4244 net.cpp:410] relu5 <- conv5
I0725 11:46:27.401770  4244 net.cpp:357] relu5 -> conv5 (in-place)
I0725 11:46:27.401792  4244 net.cpp:120] Setting up relu5
I0725 11:46:27.401798  4244 net.cpp:127] Top shape: 100 256 13 13 (4326400)
I0725 11:46:27.401803  4244 layer_factory.hpp:74] Creating layer pool5
I0725 11:46:27.401814  4244 net.cpp:90] Creating Layer pool5
I0725 11:46:27.401821  4244 net.cpp:410] pool5 <- conv5
I0725 11:46:27.401829  4244 net.cpp:368] pool5 -> pool5
I0725 11:46:27.401837  4244 net.cpp:120] Setting up pool5
I0725 11:46:27.401849  4244 net.cpp:127] Top shape: 100 256 6 6 (921600)
I0725 11:46:27.401856  4244 layer_factory.hpp:74] Creating layer fc6
I0725 11:46:27.401867  4244 net.cpp:90] Creating Layer fc6
I0725 11:46:27.401875  4244 net.cpp:410] fc6 <- pool5
I0725 11:46:27.401883  4244 net.cpp:368] fc6 -> fc6
I0725 11:46:27.401893  4244 net.cpp:120] Setting up fc6
I0725 11:46:28.318727  4244 net.cpp:127] Top shape: 100 4096 (409600)
I0725 11:46:28.318775  4244 layer_factory.hpp:74] Creating layer relu6
I0725 11:46:28.318789  4244 net.cpp:90] Creating Layer relu6
I0725 11:46:28.318795  4244 net.cpp:410] relu6 <- fc6
I0725 11:46:28.318807  4244 net.cpp:357] relu6 -> fc6 (in-place)
I0725 11:46:28.318817  4244 net.cpp:120] Setting up relu6
I0725 11:46:28.318825  4244 net.cpp:127] Top shape: 100 4096 (409600)
I0725 11:46:28.318830  4244 layer_factory.hpp:74] Creating layer drop6
I0725 11:46:28.318838  4244 net.cpp:90] Creating Layer drop6
I0725 11:46:28.318847  4244 net.cpp:410] drop6 <- fc6
I0725 11:46:28.318855  4244 net.cpp:357] drop6 -> fc6 (in-place)
I0725 11:46:28.318861  4244 net.cpp:120] Setting up drop6
I0725 11:46:28.318871  4244 net.cpp:127] Top shape: 100 4096 (409600)
I0725 11:46:28.318876  4244 layer_factory.hpp:74] Creating layer fc7
I0725 11:46:28.318886  4244 net.cpp:90] Creating Layer fc7
I0725 11:46:28.318894  4244 net.cpp:410] fc7 <- fc6
I0725 11:46:28.318902  4244 net.cpp:368] fc7 -> fc7
I0725 11:46:28.318910  4244 net.cpp:120] Setting up fc7
I0725 11:46:28.709486  4244 net.cpp:127] Top shape: 100 4096 (409600)
I0725 11:46:28.709537  4244 layer_factory.hpp:74] Creating layer relu7
I0725 11:46:28.709550  4244 net.cpp:90] Creating Layer relu7
I0725 11:46:28.709558  4244 net.cpp:410] relu7 <- fc7
I0725 11:46:28.709569  4244 net.cpp:357] relu7 -> fc7 (in-place)
I0725 11:46:28.709579  4244 net.cpp:120] Setting up relu7
I0725 11:46:28.709588  4244 net.cpp:127] Top shape: 100 4096 (409600)
I0725 11:46:28.709592  4244 layer_factory.hpp:74] Creating layer drop7
I0725 11:46:28.709601  4244 net.cpp:90] Creating Layer drop7
I0725 11:46:28.709609  4244 net.cpp:410] drop7 <- fc7
I0725 11:46:28.709616  4244 net.cpp:357] drop7 -> fc7 (in-place)
I0725 11:46:28.709624  4244 net.cpp:120] Setting up drop7
I0725 11:46:28.709633  4244 net.cpp:127] Top shape: 100 4096 (409600)
I0725 11:46:28.709640  4244 layer_factory.hpp:74] Creating layer fc8_flickr
I0725 11:46:28.709650  4244 net.cpp:90] Creating Layer fc8_flickr
I0725 11:46:28.709657  4244 net.cpp:410] fc8_flickr <- fc7
I0725 11:46:28.709666  4244 net.cpp:368] fc8_flickr -> fc8_flickr
I0725 11:46:28.709679  4244 net.cpp:120] Setting up fc8_flickr
I0725 11:46:28.726238  4244 net.cpp:127] Top shape: 100 167 (16700)
I0725 11:46:28.726253  4244 layer_factory.hpp:74] Creating layer fc8_flickr_fc8_flickr_0_split
I0725 11:46:28.726265  4244 net.cpp:90] Creating Layer fc8_flickr_fc8_flickr_0_split
I0725 11:46:28.726271  4244 net.cpp:410] fc8_flickr_fc8_flickr_0_split <- fc8_flickr
I0725 11:46:28.726279  4244 net.cpp:368] fc8_flickr_fc8_flickr_0_split -> fc8_flickr_fc8_flickr_0_split_0
I0725 11:46:28.726287  4244 net.cpp:368] fc8_flickr_fc8_flickr_0_split -> fc8_flickr_fc8_flickr_0_split_1
I0725 11:46:28.726294  4244 net.cpp:120] Setting up fc8_flickr_fc8_flickr_0_split
I0725 11:46:28.726302  4244 net.cpp:127] Top shape: 100 167 (16700)
I0725 11:46:28.726308  4244 net.cpp:127] Top shape: 100 167 (16700)
I0725 11:46:28.726313  4244 layer_factory.hpp:74] Creating layer loss
I0725 11:46:28.726320  4244 net.cpp:90] Creating Layer loss
I0725 11:46:28.726325  4244 net.cpp:410] loss <- fc8_flickr_fc8_flickr_0_split_0
I0725 11:46:28.726336  4244 net.cpp:410] loss <- label_data_1_split_0
I0725 11:46:28.726342  4244 net.cpp:368] loss -> (automatic)
I0725 11:46:28.726352  4244 net.cpp:120] Setting up loss
…
