…
I0717 11:08:41.241554  3464 net.cpp:287] The NetState phase (0) differed from the phase (1) specified by a rule in layer accuracy
I0717 11:08:41.242043  3464 net.cpp:42] Initializing net from parameters: 
name: "LogoCaffeNet"
state {
  phase: TRAIN
}
layer {
  name: "data"
  type: "ImageData"
  top: "data"
  top: "label"
  include {
    phase: TRAIN
  }
  transform_param {
    mirror: true
    crop_size: 227
    mean_file: "data/ilsvrc12/imagenet_mean.binaryproto"
  }
  image_data_param {
    source: "/home/rips_tc/caffe/data/logos/train.txt"
    batch_size: 50
    new_height: 256
    new_width: 256
  }
}
layer {
  name: "conv1"
  type: "Convolution"
  bottom: "data"
  top: "conv1"
  param {
    lr_mult: 0.5
    decay_mult: 1
  }
  param {
    lr_mult: 1
    decay_mult: 0
  }
  convolution_param {
    num_output: 96
    kernel_size: 11
    stride: 4
    weight_filler {
      type: "gaussian"
      std: 0.01
    }
    bias_filler {
      type: "constant"
      value: 0
    }
  }
}
layer {
  name: "relu1"
  type: "ReLU"
  bottom: "conv1"
  top: "conv1"
}
layer {
  name: "pool1"
  type: "Pooling"
  bottom: "conv1"
  top: "pool1"
  pooling_param {
    pool: MAX
    kernel_size: 3
    stride: 2
  }
}
layer {
  name: "norm1"
  type: "LRN"
  bottom: "pool1"
  top: "norm1"
  lrn_param {
    local_size: 5
    alpha: 0.0001
    beta: 0.75
  }
}
layer {
  name: "conv2"
  type: "Convolution"
  bottom: "norm1"
  top: "conv2"
  param {
    lr_mult: 0.5
    decay_mult: 1
  }
  param {
    lr_mult: 1
    decay_mult: 0
  }
  convolution_param {
    num_output: 256
    pad: 2
    kernel_size: 5
    group: 2
    weight_filler {
      type: "gaussian"
      std: 0.01
    }
    bias_filler {
      type: "constant"
      value: 1
    }
  }
}
layer {
  name: "relu2"
  type: "ReLU"
  bottom: "conv2"
  top: "conv2"
}
layer {
  name: "pool2"
  type: "Pooling"
  bottom: "conv2"
  top: "pool2"
  pooling_param {
    pool: MAX
    kernel_size: 3
    stride: 2
  }
}
layer {
  name: "norm2"
  type: "LRN"
  bottom: "pool2"
  top: "norm2"
  lrn_param {
    local_size: 5
    alpha: 0.0001
    beta: 0.75
  }
}
layer {
  name: "conv3"
  type: "Convolution"
  bottom: "norm2"
  top: "conv3"
  param {
    lr_mult: 0.5
    decay_mult: 1
  }
  param {
    lr_mult: 1
    decay_mult: 0
  }
  convolution_param {
    num_output: 384
    pad: 1
    kernel_size: 3
    weight_filler {
      type: "gaussian"
      std: 0.01
    }
    bias_filler {
      type: "constant"
      value: 0
    }
  }
}
layer {
  name: "relu3"
  type: "ReLU"
  bottom: "conv3"
  top: "conv3"
}
layer {
  name: "conv4"
  type: "Convolution"
  bottom: "conv3"
  top: "conv4"
  param {
    lr_mult: 0.5
    decay_mult: 1
  }
  param {
    lr_mult: 1
    decay_mult: 0
  }
  convolution_param {
    num_output: 384
    pad: 1
    kernel_size: 3
    group: 2
    weight_filler {
      type: "gaussian"
      std: 0.01
    }
    bias_filler {
      type: "constant"
      value: 1
    }
  }
}
layer {
  name: "relu4"
  type: "ReLU"
  bottom: "conv4"
  top: "conv4"
}
layer {
  name: "conv5"
  type: "Convolution"
  bottom: "conv4"
  top: "conv5"
  param {
    lr_mult: 0.5
    decay_mult: 1
  }
  param {
    lr_mult: 1
    decay_mult: 0
  }
  convolution_param {
    num_output: 256
    pad: 1
    kernel_size: 3
    group: 2
    weight_filler {
      type: "gaussian"
      std: 0.01
    }
    bias_filler {
      type: "constant"
      value: 1
    }
  }
}
layer {
  name: "relu5"
  type: "ReLU"
  bottom: "conv5"
  top: "conv5"
}
layer {
  name: "pool5"
  type: "Pooling"
  bottom: "conv5"
  top: "pool5"
  pooling_param {
    pool: MAX
    kernel_size: 3
    stride: 2
  }
}
layer {
  name: "fc6"
  type: "InnerProduct"
  bottom: "pool5"
  top: "fc6"
  param {
    lr_mult: 1
    decay_mult: 1
  }
  param {
    lr_mult: 2
    decay_mult: 0
  }
  inner_product_param {
    num_output: 4096
    weight_filler {
      type: "gaussian"
      std: 0.005
    }
    bias_filler {
      type: "constant"
      value: 1
    }
  }
}
layer {
  name: "relu6"
  type: "ReLU"
  bottom: "fc6"
  top: "fc6"
}
layer {
  name: "drop6"
  type: "Dropout"
  bottom: "fc6"
  top: "fc6"
  dropout_param {
    dropout_ratio: 0.5
  }
}
layer {
  name: "fc7"
  type: "InnerProduct"
  bottom: "fc6"
  top: "fc7"
  param {
    lr_mult: 2
    decay_mult: 1
  }
  param {
    lr_mult: 4
    decay_mult: 0
  }
  inner_product_param {
    num_output: 4096
    weight_filler {
      type: "gaussian"
      std: 0.005
    }
    bias_filler {
      type: "constant"
      value: 1
    }
  }
}
layer {
  name: "relu7"
  type: "ReLU"
  bottom: "fc7"
  top: "fc7"
}
layer {
  name: "drop7"
  type: "Dropout"
  bottom: "fc7"
  top: "fc7"
  dropout_param {
    dropout_ratio: 0.5
  }
}
layer {
  name: "fc8_flickr"
  type: "InnerProduct"
  bottom: "fc7"
  top: "fc8_flickr"
  param {
    lr_mult: 20
    decay_mult: 1
  }
  param {
    lr_mult: 20
    decay_mult: 1
  }
  inner_product_param {
    num_output: 167
    weight_filler {
      type: "gaussian"
      std: 0.01
    }
    bias_filler {
      type: "constant"
      value: 0
    }
  }
}
layer {
  name: "loss"
  type: "SoftmaxWithLoss"
  bottom: "fc8_flickr"
  bottom: "label"
}
I0717 11:08:41.244323  3464 layer_factory.hpp:74] Creating layer data
I0717 11:08:41.244837  3464 net.cpp:90] Creating Layer data
I0717 11:08:41.244886  3464 net.cpp:368] data -> data
I0717 11:08:41.244948  3464 net.cpp:368] data -> label
I0717 11:08:41.244992  3464 net.cpp:120] Setting up data
I0717 11:08:41.245030  3464 data_transformer.cpp:22] Loading mean file from: data/ilsvrc12/imagenet_mean.binaryproto
I0717 11:08:41.311599  3464 image_data_layer.cpp:36] Opening file /home/rips_tc/caffe/data/logos/train.txt
I0717 11:08:41.382874  3464 image_data_layer.cpp:51] A total of 12220 images.
I0717 11:08:41.510365  3464 image_data_layer.cpp:74] output data size: 50,3,227,227
I0717 11:08:41.520107  3464 net.cpp:127] Top shape: 50 3 227 227 (7729350)
I0717 11:08:41.520174  3464 net.cpp:127] Top shape: 50 (50)
I0717 11:08:41.520205  3464 layer_factory.hpp:74] Creating layer conv1
I0717 11:08:41.520252  3464 net.cpp:90] Creating Layer conv1
I0717 11:08:41.520279  3464 net.cpp:410] conv1 <- data
I0717 11:08:41.520318  3464 net.cpp:368] conv1 -> conv1
I0717 11:08:41.520359  3464 net.cpp:120] Setting up conv1
I0717 11:08:41.522588  3464 net.cpp:127] Top shape: 50 96 55 55 (14520000)
I0717 11:08:41.522636  3464 layer_factory.hpp:74] Creating layer relu1
I0717 11:08:41.522667  3464 net.cpp:90] Creating Layer relu1
I0717 11:08:41.522691  3464 net.cpp:410] relu1 <- conv1
I0717 11:08:41.522716  3464 net.cpp:357] relu1 -> conv1 (in-place)
I0717 11:08:41.522742  3464 net.cpp:120] Setting up relu1
I0717 11:08:41.534426  3464 net.cpp:127] Top shape: 50 96 55 55 (14520000)
I0717 11:08:41.534467  3464 layer_factory.hpp:74] Creating layer pool1
I0717 11:08:41.534498  3464 net.cpp:90] Creating Layer pool1
I0717 11:08:41.534523  3464 net.cpp:410] pool1 <- conv1
I0717 11:08:41.534550  3464 net.cpp:368] pool1 -> pool1
I0717 11:08:41.534598  3464 net.cpp:120] Setting up pool1
I0717 11:08:41.534642  3464 net.cpp:127] Top shape: 50 96 27 27 (3499200)
I0717 11:08:41.534667  3464 layer_factory.hpp:74] Creating layer norm1
I0717 11:08:41.534698  3464 net.cpp:90] Creating Layer norm1
I0717 11:08:41.534729  3464 net.cpp:410] norm1 <- pool1
I0717 11:08:41.534755  3464 net.cpp:368] norm1 -> norm1
I0717 11:08:41.534788  3464 net.cpp:120] Setting up norm1
I0717 11:08:41.534819  3464 net.cpp:127] Top shape: 50 96 27 27 (3499200)
I0717 11:08:41.534888  3464 layer_factory.hpp:74] Creating layer conv2
I0717 11:08:41.534920  3464 net.cpp:90] Creating Layer conv2
I0717 11:08:41.534943  3464 net.cpp:410] conv2 <- norm1
I0717 11:08:41.534970  3464 net.cpp:368] conv2 -> conv2
I0717 11:08:41.535001  3464 net.cpp:120] Setting up conv2
I0717 11:08:41.551800  3464 net.cpp:127] Top shape: 50 256 27 27 (9331200)
I0717 11:08:41.551842  3464 layer_factory.hpp:74] Creating layer relu2
I0717 11:08:41.551867  3464 net.cpp:90] Creating Layer relu2
I0717 11:08:41.551885  3464 net.cpp:410] relu2 <- conv2
I0717 11:08:41.551906  3464 net.cpp:357] relu2 -> conv2 (in-place)
I0717 11:08:41.551930  3464 net.cpp:120] Setting up relu2
I0717 11:08:41.551952  3464 net.cpp:127] Top shape: 50 256 27 27 (9331200)
I0717 11:08:41.551970  3464 layer_factory.hpp:74] Creating layer pool2
I0717 11:08:41.551992  3464 net.cpp:90] Creating Layer pool2
I0717 11:08:41.552011  3464 net.cpp:410] pool2 <- conv2
I0717 11:08:41.552031  3464 net.cpp:368] pool2 -> pool2
I0717 11:08:41.552054  3464 net.cpp:120] Setting up pool2
I0717 11:08:41.552079  3464 net.cpp:127] Top shape: 50 256 13 13 (2163200)
I0717 11:08:41.552098  3464 layer_factory.hpp:74] Creating layer norm2
I0717 11:08:41.552122  3464 net.cpp:90] Creating Layer norm2
I0717 11:08:41.552141  3464 net.cpp:410] norm2 <- pool2
I0717 11:08:41.552162  3464 net.cpp:368] norm2 -> norm2
I0717 11:08:41.552186  3464 net.cpp:120] Setting up norm2
I0717 11:08:41.552208  3464 net.cpp:127] Top shape: 50 256 13 13 (2163200)
I0717 11:08:41.552227  3464 layer_factory.hpp:74] Creating layer conv3
I0717 11:08:41.552250  3464 net.cpp:90] Creating Layer conv3
I0717 11:08:41.552268  3464 net.cpp:410] conv3 <- norm2
I0717 11:08:41.552290  3464 net.cpp:368] conv3 -> conv3
I0717 11:08:41.552317  3464 net.cpp:120] Setting up conv3
I0717 11:08:41.594316  3464 net.cpp:127] Top shape: 50 384 13 13 (3244800)
I0717 11:08:41.594352  3464 layer_factory.hpp:74] Creating layer relu3
I0717 11:08:41.594372  3464 net.cpp:90] Creating Layer relu3
I0717 11:08:41.594385  3464 net.cpp:410] relu3 <- conv3
I0717 11:08:41.594403  3464 net.cpp:357] relu3 -> conv3 (in-place)
I0717 11:08:41.594419  3464 net.cpp:120] Setting up relu3
I0717 11:08:41.594434  3464 net.cpp:127] Top shape: 50 384 13 13 (3244800)
I0717 11:08:41.594447  3464 layer_factory.hpp:74] Creating layer conv4
I0717 11:08:41.594465  3464 net.cpp:90] Creating Layer conv4
I0717 11:08:41.594476  3464 net.cpp:410] conv4 <- conv3
I0717 11:08:41.594492  3464 net.cpp:368] conv4 -> conv4
I0717 11:08:41.594509  3464 net.cpp:120] Setting up conv4
I0717 11:08:41.619756  3464 net.cpp:127] Top shape: 50 384 13 13 (3244800)
I0717 11:08:41.619791  3464 layer_factory.hpp:74] Creating layer relu4
I0717 11:08:41.619810  3464 net.cpp:90] Creating Layer relu4
I0717 11:08:41.619827  3464 net.cpp:410] relu4 <- conv4
I0717 11:08:41.619843  3464 net.cpp:357] relu4 -> conv4 (in-place)
I0717 11:08:41.619860  3464 net.cpp:120] Setting up relu4
I0717 11:08:41.619876  3464 net.cpp:127] Top shape: 50 384 13 13 (3244800)
I0717 11:08:41.619890  3464 layer_factory.hpp:74] Creating layer conv5
I0717 11:08:41.619910  3464 net.cpp:90] Creating Layer conv5
I0717 11:08:41.619925  3464 net.cpp:410] conv5 <- conv4
I0717 11:08:41.619940  3464 net.cpp:368] conv5 -> conv5
I0717 11:08:41.619959  3464 net.cpp:120] Setting up conv5
I0717 11:08:41.635985  3464 net.cpp:127] Top shape: 50 256 13 13 (2163200)
I0717 11:08:41.636015  3464 layer_factory.hpp:74] Creating layer relu5
I0717 11:08:41.636034  3464 net.cpp:90] Creating Layer relu5
I0717 11:08:41.636046  3464 net.cpp:410] relu5 <- conv5
I0717 11:08:41.636061  3464 net.cpp:357] relu5 -> conv5 (in-place)
I0717 11:08:41.636077  3464 net.cpp:120] Setting up relu5
I0717 11:08:41.636092  3464 net.cpp:127] Top shape: 50 256 13 13 (2163200)
I0717 11:08:41.636106  3464 layer_factory.hpp:74] Creating layer pool5
I0717 11:08:41.636121  3464 net.cpp:90] Creating Layer pool5
I0717 11:08:41.636134  3464 net.cpp:410] pool5 <- conv5
I0717 11:08:41.636149  3464 net.cpp:368] pool5 -> pool5
I0717 11:08:41.636167  3464 net.cpp:120] Setting up pool5
I0717 11:08:41.636206  3464 net.cpp:127] Top shape: 50 256 6 6 (460800)
I0717 11:08:41.636221  3464 layer_factory.hpp:74] Creating layer fc6
I0717 11:08:41.636242  3464 net.cpp:90] Creating Layer fc6
I0717 11:08:41.636258  3464 net.cpp:410] fc6 <- pool5
I0717 11:08:41.636275  3464 net.cpp:368] fc6 -> fc6
I0717 11:08:41.636296  3464 net.cpp:120] Setting up fc6
I0717 11:08:42.662233  3464 net.cpp:127] Top shape: 50 4096 (204800)
I0717 11:08:42.662281  3464 layer_factory.hpp:74] Creating layer relu6
I0717 11:08:42.662298  3464 net.cpp:90] Creating Layer relu6
I0717 11:08:42.662309  3464 net.cpp:410] relu6 <- fc6
I0717 11:08:42.662323  3464 net.cpp:357] relu6 -> fc6 (in-place)
I0717 11:08:42.662338  3464 net.cpp:120] Setting up relu6
I0717 11:08:42.662351  3464 net.cpp:127] Top shape: 50 4096 (204800)
I0717 11:08:42.662361  3464 layer_factory.hpp:74] Creating layer drop6
I0717 11:08:42.662374  3464 net.cpp:90] Creating Layer drop6
I0717 11:08:42.662385  3464 net.cpp:410] drop6 <- fc6
I0717 11:08:42.662396  3464 net.cpp:357] drop6 -> fc6 (in-place)
I0717 11:08:42.662412  3464 net.cpp:120] Setting up drop6
I0717 11:08:42.662428  3464 net.cpp:127] Top shape: 50 4096 (204800)
I0717 11:08:42.662446  3464 layer_factory.hpp:74] Creating layer fc7
I0717 11:08:42.662461  3464 net.cpp:90] Creating Layer fc7
I0717 11:08:42.662470  3464 net.cpp:410] fc7 <- fc6
I0717 11:08:42.662483  3464 net.cpp:368] fc7 -> fc7
I0717 11:08:42.662497  3464 net.cpp:120] Setting up fc7
I0717 11:08:43.107342  3464 net.cpp:127] Top shape: 50 4096 (204800)
I0717 11:08:43.107388  3464 layer_factory.hpp:74] Creating layer relu7
I0717 11:08:43.107409  3464 net.cpp:90] Creating Layer relu7
I0717 11:08:43.107419  3464 net.cpp:410] relu7 <- fc7
I0717 11:08:43.107434  3464 net.cpp:357] relu7 -> fc7 (in-place)
I0717 11:08:43.107450  3464 net.cpp:120] Setting up relu7
I0717 11:08:43.107461  3464 net.cpp:127] Top shape: 50 4096 (204800)
I0717 11:08:43.107472  3464 layer_factory.hpp:74] Creating layer drop7
I0717 11:08:43.107486  3464 net.cpp:90] Creating Layer drop7
I0717 11:08:43.107496  3464 net.cpp:410] drop7 <- fc7
I0717 11:08:43.107507  3464 net.cpp:357] drop7 -> fc7 (in-place)
I0717 11:08:43.107519  3464 net.cpp:120] Setting up drop7
I0717 11:08:43.107532  3464 net.cpp:127] Top shape: 50 4096 (204800)
I0717 11:08:43.107542  3464 layer_factory.hpp:74] Creating layer fc8_flickr
I0717 11:08:43.107555  3464 net.cpp:90] Creating Layer fc8_flickr
I0717 11:08:43.107565  3464 net.cpp:410] fc8_flickr <- fc7
I0717 11:08:43.107579  3464 net.cpp:368] fc8_flickr -> fc8_flickr
I0717 11:08:43.107594  3464 net.cpp:120] Setting up fc8_flickr
I0717 11:08:43.125206  3464 net.cpp:127] Top shape: 50 167 (8350)
I0717 11:08:43.125227  3464 layer_factory.hpp:74] Creating layer loss
I0717 11:08:43.141587  3464 net.cpp:90] Creating Layer loss
I0717 11:08:43.141638  3464 net.cpp:410] loss <- fc8_flickr
I0717 11:08:43.141660  3464 net.cpp:410] loss <- label
I0717 11:08:43.141697  3464 net.cpp:368] loss -> (automatic)
I0717 11:08:43.141721  3464 net.cpp:120] Setting up loss
I0717 11:08:43.141742  3464 layer_factory.hpp:74] Creating layer loss
…
I0717 11:08:43.144150  3464 net.cpp:287] The NetState phase (1) differed from the phase (0) specified by a rule in layer data
I0717 11:08:43.144593  3464 net.cpp:42] Initializing net from parameters: 
name: "LogoCaffeNet"
state {
  phase: TEST
}
layer {
  name: "data"
  type: "ImageData"
  top: "data"
  top: "label"
  include {
    phase: TEST
  }
  transform_param {
    mirror: false
    crop_size: 227
    mean_file: "data/ilsvrc12/imagenet_mean.binaryproto"
  }
  image_data_param {
    source: "/home/rips_tc/caffe/data/logos/test.txt"
    batch_size: 50
    new_height: 256
    new_width: 256
  }
}
layer {
  name: "conv1"
  type: "Convolution"
  bottom: "data"
  top: "conv1"
  param {
    lr_mult: 0.5
    decay_mult: 1
  }
  param {
    lr_mult: 1
    decay_mult: 0
  }
  convolution_param {
    num_output: 96
    kernel_size: 11
    stride: 4
    weight_filler {
      type: "gaussian"
      std: 0.01
    }
    bias_filler {
      type: "constant"
      value: 0
    }
  }
}
layer {
  name: "relu1"
  type: "ReLU"
  bottom: "conv1"
  top: "conv1"
}
layer {
  name: "pool1"
  type: "Pooling"
  bottom: "conv1"
  top: "pool1"
  pooling_param {
    pool: MAX
    kernel_size: 3
    stride: 2
  }
}
layer {
  name: "norm1"
  type: "LRN"
  bottom: "pool1"
  top: "norm1"
  lrn_param {
    local_size: 5
    alpha: 0.0001
    beta: 0.75
  }
}
layer {
  name: "conv2"
  type: "Convolution"
  bottom: "norm1"
  top: "conv2"
  param {
    lr_mult: 0.5
    decay_mult: 1
  }
  param {
    lr_mult: 1
    decay_mult: 0
  }
  convolution_param {
    num_output: 256
    pad: 2
    kernel_size: 5
    group: 2
    weight_filler {
      type: "gaussian"
      std: 0.01
    }
    bias_filler {
      type: "constant"
      value: 1
    }
  }
}
layer {
  name: "relu2"
  type: "ReLU"
  bottom: "conv2"
  top: "conv2"
}
layer {
  name: "pool2"
  type: "Pooling"
  bottom: "conv2"
  top: "pool2"
  pooling_param {
    pool: MAX
    kernel_size: 3
    stride: 2
  }
}
layer {
  name: "norm2"
  type: "LRN"
  bottom: "pool2"
  top: "norm2"
  lrn_param {
    local_size: 5
    alpha: 0.0001
    beta: 0.75
  }
}
layer {
  name: "conv3"
  type: "Convolution"
  bottom: "norm2"
  top: "conv3"
  param {
    lr_mult: 0.5
    decay_mult: 1
  }
  param {
    lr_mult: 1
    decay_mult: 0
  }
  convolution_param {
    num_output: 384
    pad: 1
    kernel_size: 3
    weight_filler {
      type: "gaussian"
      std: 0.01
    }
    bias_filler {
      type: "constant"
      value: 0
    }
  }
}
layer {
  name: "relu3"
  type: "ReLU"
  bottom: "conv3"
  top: "conv3"
}
layer {
  name: "conv4"
  type: "Convolution"
  bottom: "conv3"
  top: "conv4"
  param {
    lr_mult: 0.5
    decay_mult: 1
  }
  param {
    lr_mult: 1
    decay_mult: 0
  }
  convolution_param {
    num_output: 384
    pad: 1
    kernel_size: 3
    group: 2
    weight_filler {
      type: "gaussian"
      std: 0.01
    }
    bias_filler {
      type: "constant"
      value: 1
    }
  }
}
layer {
  name: "relu4"
  type: "ReLU"
  bottom: "conv4"
  top: "conv4"
}
layer {
  name: "conv5"
  type: "Convolution"
  bottom: "conv4"
  top: "conv5"
  param {
    lr_mult: 0.5
    decay_mult: 1
  }
  param {
    lr_mult: 1
    decay_mult: 0
  }
  convolution_param {
    num_output: 256
    pad: 1
    kernel_size: 3
    group: 2
    weight_filler {
      type: "gaussian"
      std: 0.01
    }
    bias_filler {
      type: "constant"
      value: 1
    }
  }
}
layer {
  name: "relu5"
  type: "ReLU"
  bottom: "conv5"
  top: "conv5"
}
layer {
  name: "pool5"
  type: "Pooling"
  bottom: "conv5"
  top: "pool5"
  pooling_param {
    pool: MAX
    kernel_size: 3
    stride: 2
  }
}
layer {
  name: "fc6"
  type: "InnerProduct"
  bottom: "pool5"
  top: "fc6"
  param {
    lr_mult: 1
    decay_mult: 1
  }
  param {
    lr_mult: 2
    decay_mult: 0
  }
  inner_product_param {
    num_output: 4096
    weight_filler {
      type: "gaussian"
      std: 0.005
    }
    bias_filler {
      type: "constant"
      value: 1
    }
  }
}
layer {
  name: "relu6"
  type: "ReLU"
  bottom: "fc6"
  top: "fc6"
}
layer {
  name: "drop6"
  type: "Dropout"
  bottom: "fc6"
  top: "fc6"
  dropout_param {
    dropout_ratio: 0.5
  }
}
layer {
  name: "fc7"
  type: "InnerProduct"
  bottom: "fc6"
  top: "fc7"
  param {
    lr_mult: 2
    decay_mult: 1
  }
  param {
    lr_mult: 4
    decay_mult: 0
  }
  inner_product_param {
    num_output: 4096
    weight_filler {
      type: "gaussian"
      std: 0.005
    }
    bias_filler {
      type: "constant"
      value: 1
    }
  }
}
layer {
  name: "relu7"
  type: "ReLU"
  bottom: "fc7"
  top: "fc7"
}
layer {
  name: "drop7"
  type: "Dropout"
  bottom: "fc7"
  top: "fc7"
  dropout_param {
    dropout_ratio: 0.5
  }
}
layer {
  name: "fc8_flickr"
  type: "InnerProduct"
  bottom: "fc7"
  top: "fc8_flickr"
  param {
    lr_mult: 20
    decay_mult: 1
  }
  param {
    lr_mult: 20
    decay_mult: 1
  }
  inner_product_param {
    num_output: 167
    weight_filler {
      type: "gaussian"
      std: 0.01
    }
    bias_filler {
      type: "constant"
      value: 0
    }
  }
}
layer {
  name: "loss"
  type: "SoftmaxWithLoss"
  bottom: "fc8_flickr"
  bottom: "label"
}
layer {
  name: "accuracy"
  type: "Accuracy"
  bottom: "fc8_flickr"
  bottom: "label"
  top: "accuracy"
  include {
    phase: TEST
  }
  accuracy_param {
    top_k: 3
  }
}
I0717 11:08:43.145107  3464 layer_factory.hpp:74] Creating layer data
I0717 11:08:43.145143  3464 net.cpp:90] Creating Layer data
I0717 11:08:43.145164  3464 net.cpp:368] data -> data
I0717 11:08:43.145195  3464 net.cpp:368] data -> label
I0717 11:08:43.145220  3464 net.cpp:120] Setting up data
I0717 11:08:43.145238  3464 data_transformer.cpp:22] Loading mean file from: data/ilsvrc12/imagenet_mean.binaryproto
I0717 11:08:43.148354  3464 image_data_layer.cpp:36] Opening file /home/rips_tc/caffe/data/logos/test.txt
I0717 11:08:43.189173  3464 image_data_layer.cpp:51] A total of 1357 images.
I0717 11:08:43.198778  3464 image_data_layer.cpp:74] output data size: 50,3,227,227
I0717 11:08:43.207742  3464 net.cpp:127] Top shape: 50 3 227 227 (7729350)
I0717 11:08:43.207828  3464 net.cpp:127] Top shape: 50 (50)
I0717 11:08:43.207861  3464 layer_factory.hpp:74] Creating layer label_data_1_split
I0717 11:08:43.207911  3464 net.cpp:90] Creating Layer label_data_1_split
I0717 11:08:43.207933  3464 net.cpp:410] label_data_1_split <- label
I0717 11:08:43.207959  3464 net.cpp:368] label_data_1_split -> label_data_1_split_0
I0717 11:08:43.207988  3464 net.cpp:368] label_data_1_split -> label_data_1_split_1
I0717 11:08:43.208009  3464 net.cpp:120] Setting up label_data_1_split
I0717 11:08:43.208034  3464 net.cpp:127] Top shape: 50 (50)
I0717 11:08:43.208051  3464 net.cpp:127] Top shape: 50 (50)
I0717 11:08:43.208068  3464 layer_factory.hpp:74] Creating layer conv1
I0717 11:08:43.208094  3464 net.cpp:90] Creating Layer conv1
I0717 11:08:43.208154  3464 net.cpp:410] conv1 <- data
I0717 11:08:43.208178  3464 net.cpp:368] conv1 -> conv1
I0717 11:08:43.208204  3464 net.cpp:120] Setting up conv1
I0717 11:08:43.209825  3464 net.cpp:127] Top shape: 50 96 55 55 (14520000)
I0717 11:08:43.209854  3464 layer_factory.hpp:74] Creating layer relu1
I0717 11:08:43.209874  3464 net.cpp:90] Creating Layer relu1
I0717 11:08:43.209888  3464 net.cpp:410] relu1 <- conv1
I0717 11:08:43.209905  3464 net.cpp:357] relu1 -> conv1 (in-place)
I0717 11:08:43.209923  3464 net.cpp:120] Setting up relu1
I0717 11:08:43.209940  3464 net.cpp:127] Top shape: 50 96 55 55 (14520000)
I0717 11:08:43.209954  3464 layer_factory.hpp:74] Creating layer pool1
I0717 11:08:43.209972  3464 net.cpp:90] Creating Layer pool1
I0717 11:08:43.209987  3464 net.cpp:410] pool1 <- conv1
I0717 11:08:43.210003  3464 net.cpp:368] pool1 -> pool1
I0717 11:08:43.210022  3464 net.cpp:120] Setting up pool1
I0717 11:08:43.210043  3464 net.cpp:127] Top shape: 50 96 27 27 (3499200)
I0717 11:08:43.210058  3464 layer_factory.hpp:74] Creating layer norm1
I0717 11:08:43.210075  3464 net.cpp:90] Creating Layer norm1
I0717 11:08:43.210090  3464 net.cpp:410] norm1 <- pool1
I0717 11:08:43.210106  3464 net.cpp:368] norm1 -> norm1
I0717 11:08:43.210124  3464 net.cpp:120] Setting up norm1
I0717 11:08:43.210142  3464 net.cpp:127] Top shape: 50 96 27 27 (3499200)
I0717 11:08:43.210156  3464 layer_factory.hpp:74] Creating layer conv2
I0717 11:08:43.210175  3464 net.cpp:90] Creating Layer conv2
I0717 11:08:43.210188  3464 net.cpp:410] conv2 <- norm1
I0717 11:08:43.210206  3464 net.cpp:368] conv2 -> conv2
I0717 11:08:43.210225  3464 net.cpp:120] Setting up conv2
I0717 11:08:43.223325  3464 net.cpp:127] Top shape: 50 256 27 27 (9331200)
I0717 11:08:43.223357  3464 layer_factory.hpp:74] Creating layer relu2
I0717 11:08:43.223403  3464 net.cpp:90] Creating Layer relu2
I0717 11:08:43.223438  3464 net.cpp:410] relu2 <- conv2
I0717 11:08:43.223465  3464 net.cpp:357] relu2 -> conv2 (in-place)
I0717 11:08:43.223484  3464 net.cpp:120] Setting up relu2
I0717 11:08:43.223517  3464 net.cpp:127] Top shape: 50 256 27 27 (9331200)
I0717 11:08:43.223541  3464 layer_factory.hpp:74] Creating layer pool2
I0717 11:08:43.223561  3464 net.cpp:90] Creating Layer pool2
I0717 11:08:43.223592  3464 net.cpp:410] pool2 <- conv2
I0717 11:08:43.223618  3464 net.cpp:368] pool2 -> pool2
I0717 11:08:43.223646  3464 net.cpp:120] Setting up pool2
I0717 11:08:43.223675  3464 net.cpp:127] Top shape: 50 256 13 13 (2163200)
I0717 11:08:43.223691  3464 layer_factory.hpp:74] Creating layer norm2
I0717 11:08:43.223719  3464 net.cpp:90] Creating Layer norm2
I0717 11:08:43.223744  3464 net.cpp:410] norm2 <- pool2
I0717 11:08:43.223772  3464 net.cpp:368] norm2 -> norm2
I0717 11:08:43.223804  3464 net.cpp:120] Setting up norm2
I0717 11:08:43.223825  3464 net.cpp:127] Top shape: 50 256 13 13 (2163200)
I0717 11:08:43.223839  3464 layer_factory.hpp:74] Creating layer conv3
I0717 11:08:43.223858  3464 net.cpp:90] Creating Layer conv3
I0717 11:08:43.223872  3464 net.cpp:410] conv3 <- norm2
I0717 11:08:43.223892  3464 net.cpp:368] conv3 -> conv3
I0717 11:08:43.223912  3464 net.cpp:120] Setting up conv3
I0717 11:08:43.257818  3464 net.cpp:127] Top shape: 50 384 13 13 (3244800)
I0717 11:08:43.257858  3464 layer_factory.hpp:74] Creating layer relu3
I0717 11:08:43.257881  3464 net.cpp:90] Creating Layer relu3
I0717 11:08:43.257896  3464 net.cpp:410] relu3 <- conv3
I0717 11:08:43.257912  3464 net.cpp:357] relu3 -> conv3 (in-place)
I0717 11:08:43.257930  3464 net.cpp:120] Setting up relu3
I0717 11:08:43.257946  3464 net.cpp:127] Top shape: 50 384 13 13 (3244800)
I0717 11:08:43.257959  3464 layer_factory.hpp:74] Creating layer conv4
I0717 11:08:43.257979  3464 net.cpp:90] Creating Layer conv4
I0717 11:08:43.257993  3464 net.cpp:410] conv4 <- conv3
I0717 11:08:43.258009  3464 net.cpp:368] conv4 -> conv4
I0717 11:08:43.258026  3464 net.cpp:120] Setting up conv4
I0717 11:08:43.277465  3464 net.cpp:127] Top shape: 50 384 13 13 (3244800)
I0717 11:08:43.277487  3464 layer_factory.hpp:74] Creating layer relu4
I0717 11:08:43.277530  3464 net.cpp:90] Creating Layer relu4
I0717 11:08:43.277542  3464 net.cpp:410] relu4 <- conv4
I0717 11:08:43.277554  3464 net.cpp:357] relu4 -> conv4 (in-place)
I0717 11:08:43.277580  3464 net.cpp:120] Setting up relu4
I0717 11:08:43.277591  3464 net.cpp:127] Top shape: 50 384 13 13 (3244800)
I0717 11:08:43.277601  3464 layer_factory.hpp:74] Creating layer conv5
I0717 11:08:43.277617  3464 net.cpp:90] Creating Layer conv5
I0717 11:08:43.277633  3464 net.cpp:410] conv5 <- conv4
I0717 11:08:43.277645  3464 net.cpp:368] conv5 -> conv5
I0717 11:08:43.277658  3464 net.cpp:120] Setting up conv5
I0717 11:08:43.290266  3464 net.cpp:127] Top shape: 50 256 13 13 (2163200)
I0717 11:08:43.290292  3464 layer_factory.hpp:74] Creating layer relu5
I0717 11:08:43.290307  3464 net.cpp:90] Creating Layer relu5
I0717 11:08:43.290318  3464 net.cpp:410] relu5 <- conv5
I0717 11:08:43.290328  3464 net.cpp:357] relu5 -> conv5 (in-place)
I0717 11:08:43.290341  3464 net.cpp:120] Setting up relu5
I0717 11:08:43.290354  3464 net.cpp:127] Top shape: 50 256 13 13 (2163200)
I0717 11:08:43.290364  3464 layer_factory.hpp:74] Creating layer pool5
I0717 11:08:43.290381  3464 net.cpp:90] Creating Layer pool5
I0717 11:08:43.290392  3464 net.cpp:410] pool5 <- conv5
I0717 11:08:43.290405  3464 net.cpp:368] pool5 -> pool5
I0717 11:08:43.290417  3464 net.cpp:120] Setting up pool5
I0717 11:08:43.290433  3464 net.cpp:127] Top shape: 50 256 6 6 (460800)
I0717 11:08:43.290444  3464 layer_factory.hpp:74] Creating layer fc6
I0717 11:08:43.290460  3464 net.cpp:90] Creating Layer fc6
I0717 11:08:43.290472  3464 net.cpp:410] fc6 <- pool5
I0717 11:08:43.290485  3464 net.cpp:368] fc6 -> fc6
I0717 11:08:43.290499  3464 net.cpp:120] Setting up fc6
I0717 11:08:44.182054  3464 net.cpp:127] Top shape: 50 4096 (204800)
I0717 11:08:44.182106  3464 layer_factory.hpp:74] Creating layer relu6
I0717 11:08:44.182124  3464 net.cpp:90] Creating Layer relu6
I0717 11:08:44.182134  3464 net.cpp:410] relu6 <- fc6
I0717 11:08:44.182147  3464 net.cpp:357] relu6 -> fc6 (in-place)
I0717 11:08:44.182162  3464 net.cpp:120] Setting up relu6
I0717 11:08:44.182174  3464 net.cpp:127] Top shape: 50 4096 (204800)
I0717 11:08:44.182183  3464 layer_factory.hpp:74] Creating layer drop6
I0717 11:08:44.182198  3464 net.cpp:90] Creating Layer drop6
I0717 11:08:44.182207  3464 net.cpp:410] drop6 <- fc6
I0717 11:08:44.182219  3464 net.cpp:357] drop6 -> fc6 (in-place)
I0717 11:08:44.182230  3464 net.cpp:120] Setting up drop6
I0717 11:08:44.182243  3464 net.cpp:127] Top shape: 50 4096 (204800)
I0717 11:08:44.182253  3464 layer_factory.hpp:74] Creating layer fc7
I0717 11:08:44.182266  3464 net.cpp:90] Creating Layer fc7
I0717 11:08:44.182276  3464 net.cpp:410] fc7 <- fc6
I0717 11:08:44.182287  3464 net.cpp:368] fc7 -> fc7
I0717 11:08:44.182301  3464 net.cpp:120] Setting up fc7
I0717 11:08:44.572511  3464 net.cpp:127] Top shape: 50 4096 (204800)
I0717 11:08:44.572569  3464 layer_factory.hpp:74] Creating layer relu7
I0717 11:08:44.572590  3464 net.cpp:90] Creating Layer relu7
I0717 11:08:44.572602  3464 net.cpp:410] relu7 <- fc7
I0717 11:08:44.572615  3464 net.cpp:357] relu7 -> fc7 (in-place)
I0717 11:08:44.572630  3464 net.cpp:120] Setting up relu7
I0717 11:08:44.572643  3464 net.cpp:127] Top shape: 50 4096 (204800)
I0717 11:08:44.572652  3464 layer_factory.hpp:74] Creating layer drop7
I0717 11:08:44.572665  3464 net.cpp:90] Creating Layer drop7
I0717 11:08:44.572676  3464 net.cpp:410] drop7 <- fc7
I0717 11:08:44.572686  3464 net.cpp:357] drop7 -> fc7 (in-place)
I0717 11:08:44.572698  3464 net.cpp:120] Setting up drop7
I0717 11:08:44.572711  3464 net.cpp:127] Top shape: 50 4096 (204800)
I0717 11:08:44.572721  3464 layer_factory.hpp:74] Creating layer fc8_flickr
I0717 11:08:44.572734  3464 net.cpp:90] Creating Layer fc8_flickr
I0717 11:08:44.572744  3464 net.cpp:410] fc8_flickr <- fc7
I0717 11:08:44.572757  3464 net.cpp:368] fc8_flickr -> fc8_flickr
I0717 11:08:44.572780  3464 net.cpp:120] Setting up fc8_flickr
I0717 11:08:44.589231  3464 net.cpp:127] Top shape: 50 167 (8350)
I0717 11:08:44.589275  3464 layer_factory.hpp:74] Creating layer fc8_flickr_fc8_flickr_0_split
I0717 11:08:44.589289  3464 net.cpp:90] Creating Layer fc8_flickr_fc8_flickr_0_split
I0717 11:08:44.589299  3464 net.cpp:410] fc8_flickr_fc8_flickr_0_split <- fc8_flickr
I0717 11:08:44.589313  3464 net.cpp:368] fc8_flickr_fc8_flickr_0_split -> fc8_flickr_fc8_flickr_0_split_0
I0717 11:08:44.589329  3464 net.cpp:368] fc8_flickr_fc8_flickr_0_split -> fc8_flickr_fc8_flickr_0_split_1
I0717 11:08:44.589341  3464 net.cpp:120] Setting up fc8_flickr_fc8_flickr_0_split
I0717 11:08:44.589354  3464 net.cpp:127] Top shape: 50 167 (8350)
I0717 11:08:44.589365  3464 net.cpp:127] Top shape: 50 167 (8350)
I0717 11:08:44.589373  3464 layer_factory.hpp:74] Creating layer loss
I0717 11:08:44.589385  3464 net.cpp:90] Creating Layer loss
I0717 11:08:44.589395  3464 net.cpp:410] loss <- fc8_flickr_fc8_flickr_0_split_0
I0717 11:08:44.589406  3464 net.cpp:410] loss <- label_data_1_split_0
I0717 11:08:44.589416  3464 net.cpp:368] loss -> (automatic)
I0717 11:08:44.589427  3464 net.cpp:120] Setting up loss
…
