…
I0714 16:48:03.922003  7114 net.cpp:287] The NetState phase (0) differed from the phase (1) specified by a rule in layer accuracy
I0714 16:48:03.922176  7114 net.cpp:42] Initializing net from parameters: 
name: "LogoCaffeNet"
state {
  phase: TRAIN
}
layer {
  name: "data"
  type: "ImageData"
  top: "data"
  top: "label"
  include {
    phase: TRAIN
  }
  transform_param {
    mirror: true
    crop_size: 227
    mean_file: "data/ilsvrc12/imagenet_mean.binaryproto"
  }
  image_data_param {
    source: "/home/rips_tc/caffe/data/logos/train.txt"
    batch_size: 50
    new_height: 256
    new_width: 256
  }
}
layer {
  name: "conv1"
  type: "Convolution"
  bottom: "data"
  top: "conv1"
  param {
    lr_mult: 0.5
    decay_mult: 1
  }
  param {
    lr_mult: 1
    decay_mult: 0
  }
  convolution_param {
    num_output: 96
    kernel_size: 11
    stride: 4
    weight_filler {
      type: "gaussian"
      std: 0.01
    }
    bias_filler {
      type: "constant"
      value: 0
    }
  }
}
layer {
  name: "relu1"
  type: "ReLU"
  bottom: "conv1"
  top: "conv1"
}
layer {
  name: "pool1"
  type: "Pooling"
  bottom: "conv1"
  top: "pool1"
  pooling_param {
    pool: MAX
    kernel_size: 3
    stride: 2
  }
}
layer {
  name: "norm1"
  type: "LRN"
  bottom: "pool1"
  top: "norm1"
  lrn_param {
    local_size: 5
    alpha: 0.0001
    beta: 0.75
  }
}
layer {
  name: "conv2"
  type: "Convolution"
  bottom: "norm1"
  top: "conv2"
  param {
    lr_mult: 0.5
    decay_mult: 1
  }
  param {
    lr_mult: 1
    decay_mult: 0
  }
  convolution_param {
    num_output: 256
    pad: 2
    kernel_size: 5
    group: 2
    weight_filler {
      type: "gaussian"
      std: 0.01
    }
    bias_filler {
      type: "constant"
      value: 1
    }
  }
}
layer {
  name: "relu2"
  type: "ReLU"
  bottom: "conv2"
  top: "conv2"
}
layer {
  name: "pool2"
  type: "Pooling"
  bottom: "conv2"
  top: "pool2"
  pooling_param {
    pool: MAX
    kernel_size: 3
    stride: 2
  }
}
layer {
  name: "norm2"
  type: "LRN"
  bottom: "pool2"
  top: "norm2"
  lrn_param {
    local_size: 5
    alpha: 0.0001
    beta: 0.75
  }
}
layer {
  name: "conv3"
  type: "Convolution"
  bottom: "norm2"
  top: "conv3"
  param {
    lr_mult: 0.5
    decay_mult: 1
  }
  param {
    lr_mult: 1
    decay_mult: 0
  }
  convolution_param {
    num_output: 384
    pad: 1
    kernel_size: 3
    weight_filler {
      type: "gaussian"
      std: 0.01
    }
    bias_filler {
      type: "constant"
      value: 0
    }
  }
}
layer {
  name: "relu3"
  type: "ReLU"
  bottom: "conv3"
  top: "conv3"
}
layer {
  name: "conv4"
  type: "Convolution"
  bottom: "conv3"
  top: "conv4"
  param {
    lr_mult: 0.5
    decay_mult: 1
  }
  param {
    lr_mult: 1
    decay_mult: 0
  }
  convolution_param {
    num_output: 384
    pad: 1
    kernel_size: 3
    group: 2
    weight_filler {
      type: "gaussian"
      std: 0.01
    }
    bias_filler {
      type: "constant"
      value: 1
    }
  }
}
layer {
  name: "relu4"
  type: "ReLU"
  bottom: "conv4"
  top: "conv4"
}
layer {
  name: "conv5"
  type: "Convolution"
  bottom: "conv4"
  top: "conv5"
  param {
    lr_mult: 0.5
    decay_mult: 1
  }
  param {
    lr_mult: 1
    decay_mult: 0
  }
  convolution_param {
    num_output: 256
    pad: 1
    kernel_size: 3
    group: 2
    weight_filler {
      type: "gaussian"
      std: 0.01
    }
    bias_filler {
      type: "constant"
      value: 1
    }
  }
}
layer {
  name: "relu5"
  type: "ReLU"
  bottom: "conv5"
  top: "conv5"
}
layer {
  name: "pool5"
  type: "Pooling"
  bottom: "conv5"
  top: "pool5"
  pooling_param {
    pool: MAX
    kernel_size: 3
    stride: 2
  }
}
layer {
  name: "fc6"
  type: "InnerProduct"
  bottom: "pool5"
  top: "fc6"
  param {
    lr_mult: 1
    decay_mult: 1
  }
  param {
    lr_mult: 2
    decay_mult: 0
  }
  inner_product_param {
    num_output: 4096
    weight_filler {
      type: "gaussian"
      std: 0.005
    }
    bias_filler {
      type: "constant"
      value: 1
    }
  }
}
layer {
  name: "relu6"
  type: "ReLU"
  bottom: "fc6"
  top: "fc6"
}
layer {
  name: "drop6"
  type: "Dropout"
  bottom: "fc6"
  top: "fc6"
  dropout_param {
    dropout_ratio: 0.5
  }
}
layer {
  name: "fc7"
  type: "InnerProduct"
  bottom: "fc6"
  top: "fc7"
  param {
    lr_mult: 2
    decay_mult: 1
  }
  param {
    lr_mult: 4
    decay_mult: 0
  }
  inner_product_param {
    num_output: 4096
    weight_filler {
      type: "gaussian"
      std: 0.005
    }
    bias_filler {
      type: "constant"
      value: 1
    }
  }
}
layer {
  name: "relu7"
  type: "ReLU"
  bottom: "fc7"
  top: "fc7"
}
layer {
  name: "drop7"
  type: "Dropout"
  bottom: "fc7"
  top: "fc7"
  dropout_param {
    dropout_ratio: 0.5
  }
}
layer {
  name: "fc8_flickr"
  type: "InnerProduct"
  bottom: "fc7"
  top: "fc8_flickr"
  param {
    lr_mult: 20
    decay_mult: 1
  }
  param {
    lr_mult: 20
    decay_mult: 1
  }
  inner_product_param {
    num_output: 167
    weight_filler {
      type: "gaussian"
      std: 0.01
    }
    bias_filler {
      type: "constant"
      value: 0
    }
  }
}
layer {
  name: "loss"
  type: "SoftmaxWithLoss"
  bottom: "fc8_flickr"
  bottom: "label"
}
I0714 16:48:03.922305  7114 layer_factory.hpp:74] Creating layer data
I0714 16:48:03.922327  7114 net.cpp:90] Creating Layer data
I0714 16:48:03.922338  7114 net.cpp:368] data -> data
I0714 16:48:03.922361  7114 net.cpp:368] data -> label
I0714 16:48:03.922374  7114 net.cpp:120] Setting up data
I0714 16:48:03.922382  7114 data_transformer.cpp:22] Loading mean file from: data/ilsvrc12/imagenet_mean.binaryproto
I0714 16:48:03.924260  7114 image_data_layer.cpp:36] Opening file /home/rips_tc/caffe/data/logos/train.txt
I0714 16:48:03.929008  7114 image_data_layer.cpp:51] A total of 12220 images.
I0714 16:48:03.933338  7114 image_data_layer.cpp:74] output data size: 50,3,227,227
I0714 16:48:03.937646  7114 net.cpp:127] Top shape: 50 3 227 227 (7729350)
I0714 16:48:03.937681  7114 net.cpp:127] Top shape: 50 (50)
I0714 16:48:03.937692  7114 layer_factory.hpp:74] Creating layer conv1
I0714 16:48:03.937712  7114 net.cpp:90] Creating Layer conv1
I0714 16:48:03.937721  7114 net.cpp:410] conv1 <- data
I0714 16:48:03.937734  7114 net.cpp:368] conv1 -> conv1
I0714 16:48:03.937753  7114 net.cpp:120] Setting up conv1
I0714 16:48:03.938716  7114 net.cpp:127] Top shape: 50 96 55 55 (14520000)
I0714 16:48:03.938733  7114 layer_factory.hpp:74] Creating layer relu1
I0714 16:48:03.938743  7114 net.cpp:90] Creating Layer relu1
I0714 16:48:03.938750  7114 net.cpp:410] relu1 <- conv1
I0714 16:48:03.938757  7114 net.cpp:357] relu1 -> conv1 (in-place)
I0714 16:48:03.938768  7114 net.cpp:120] Setting up relu1
I0714 16:48:03.938781  7114 net.cpp:127] Top shape: 50 96 55 55 (14520000)
I0714 16:48:03.938789  7114 layer_factory.hpp:74] Creating layer pool1
I0714 16:48:03.938799  7114 net.cpp:90] Creating Layer pool1
I0714 16:48:03.938807  7114 net.cpp:410] pool1 <- conv1
I0714 16:48:03.938817  7114 net.cpp:368] pool1 -> pool1
I0714 16:48:03.938827  7114 net.cpp:120] Setting up pool1
I0714 16:48:03.938846  7114 net.cpp:127] Top shape: 50 96 27 27 (3499200)
I0714 16:48:03.938855  7114 layer_factory.hpp:74] Creating layer norm1
I0714 16:48:03.938865  7114 net.cpp:90] Creating Layer norm1
I0714 16:48:03.938874  7114 net.cpp:410] norm1 <- pool1
I0714 16:48:03.938881  7114 net.cpp:368] norm1 -> norm1
I0714 16:48:03.938894  7114 net.cpp:120] Setting up norm1
I0714 16:48:03.938905  7114 net.cpp:127] Top shape: 50 96 27 27 (3499200)
I0714 16:48:03.938928  7114 layer_factory.hpp:74] Creating layer conv2
I0714 16:48:03.938940  7114 net.cpp:90] Creating Layer conv2
I0714 16:48:03.938947  7114 net.cpp:410] conv2 <- norm1
I0714 16:48:03.938956  7114 net.cpp:368] conv2 -> conv2
I0714 16:48:03.938966  7114 net.cpp:120] Setting up conv2
I0714 16:48:03.947167  7114 net.cpp:127] Top shape: 50 256 27 27 (9331200)
I0714 16:48:03.947185  7114 layer_factory.hpp:74] Creating layer relu2
I0714 16:48:03.947196  7114 net.cpp:90] Creating Layer relu2
I0714 16:48:03.947202  7114 net.cpp:410] relu2 <- conv2
I0714 16:48:03.947209  7114 net.cpp:357] relu2 -> conv2 (in-place)
I0714 16:48:03.947217  7114 net.cpp:120] Setting up relu2
I0714 16:48:03.947224  7114 net.cpp:127] Top shape: 50 256 27 27 (9331200)
I0714 16:48:03.947230  7114 layer_factory.hpp:74] Creating layer pool2
I0714 16:48:03.947239  7114 net.cpp:90] Creating Layer pool2
I0714 16:48:03.947245  7114 net.cpp:410] pool2 <- conv2
I0714 16:48:03.947253  7114 net.cpp:368] pool2 -> pool2
I0714 16:48:03.947263  7114 net.cpp:120] Setting up pool2
I0714 16:48:03.947273  7114 net.cpp:127] Top shape: 50 256 13 13 (2163200)
I0714 16:48:03.947280  7114 layer_factory.hpp:74] Creating layer norm2
I0714 16:48:03.947289  7114 net.cpp:90] Creating Layer norm2
I0714 16:48:03.947298  7114 net.cpp:410] norm2 <- pool2
I0714 16:48:03.947304  7114 net.cpp:368] norm2 -> norm2
I0714 16:48:03.947314  7114 net.cpp:120] Setting up norm2
I0714 16:48:03.947324  7114 net.cpp:127] Top shape: 50 256 13 13 (2163200)
I0714 16:48:03.947329  7114 layer_factory.hpp:74] Creating layer conv3
I0714 16:48:03.947340  7114 net.cpp:90] Creating Layer conv3
I0714 16:48:03.947346  7114 net.cpp:410] conv3 <- norm2
I0714 16:48:03.947353  7114 net.cpp:368] conv3 -> conv3
I0714 16:48:03.947363  7114 net.cpp:120] Setting up conv3
I0714 16:48:03.971292  7114 net.cpp:127] Top shape: 50 384 13 13 (3244800)
I0714 16:48:03.971321  7114 layer_factory.hpp:74] Creating layer relu3
I0714 16:48:03.971334  7114 net.cpp:90] Creating Layer relu3
I0714 16:48:03.971340  7114 net.cpp:410] relu3 <- conv3
I0714 16:48:03.971349  7114 net.cpp:357] relu3 -> conv3 (in-place)
I0714 16:48:03.971359  7114 net.cpp:120] Setting up relu3
I0714 16:48:03.971367  7114 net.cpp:127] Top shape: 50 384 13 13 (3244800)
I0714 16:48:03.971374  7114 layer_factory.hpp:74] Creating layer conv4
I0714 16:48:03.971385  7114 net.cpp:90] Creating Layer conv4
I0714 16:48:03.971391  7114 net.cpp:410] conv4 <- conv3
I0714 16:48:03.971400  7114 net.cpp:368] conv4 -> conv4
I0714 16:48:03.971407  7114 net.cpp:120] Setting up conv4
I0714 16:48:03.989696  7114 net.cpp:127] Top shape: 50 384 13 13 (3244800)
I0714 16:48:03.989722  7114 layer_factory.hpp:74] Creating layer relu4
I0714 16:48:03.989734  7114 net.cpp:90] Creating Layer relu4
I0714 16:48:03.989742  7114 net.cpp:410] relu4 <- conv4
I0714 16:48:03.989750  7114 net.cpp:357] relu4 -> conv4 (in-place)
I0714 16:48:03.989759  7114 net.cpp:120] Setting up relu4
I0714 16:48:03.989769  7114 net.cpp:127] Top shape: 50 384 13 13 (3244800)
I0714 16:48:03.989775  7114 layer_factory.hpp:74] Creating layer conv5
I0714 16:48:03.989786  7114 net.cpp:90] Creating Layer conv5
I0714 16:48:03.989792  7114 net.cpp:410] conv5 <- conv4
I0714 16:48:03.989799  7114 net.cpp:368] conv5 -> conv5
I0714 16:48:03.989809  7114 net.cpp:120] Setting up conv5
I0714 16:48:04.001595  7114 net.cpp:127] Top shape: 50 256 13 13 (2163200)
I0714 16:48:04.001616  7114 layer_factory.hpp:74] Creating layer relu5
I0714 16:48:04.001627  7114 net.cpp:90] Creating Layer relu5
I0714 16:48:04.001634  7114 net.cpp:410] relu5 <- conv5
I0714 16:48:04.001641  7114 net.cpp:357] relu5 -> conv5 (in-place)
I0714 16:48:04.001651  7114 net.cpp:120] Setting up relu5
I0714 16:48:04.001657  7114 net.cpp:127] Top shape: 50 256 13 13 (2163200)
I0714 16:48:04.001663  7114 layer_factory.hpp:74] Creating layer pool5
I0714 16:48:04.001672  7114 net.cpp:90] Creating Layer pool5
I0714 16:48:04.001679  7114 net.cpp:410] pool5 <- conv5
I0714 16:48:04.001687  7114 net.cpp:368] pool5 -> pool5
I0714 16:48:04.001695  7114 net.cpp:120] Setting up pool5
I0714 16:48:04.001729  7114 net.cpp:127] Top shape: 50 256 6 6 (460800)
I0714 16:48:04.001739  7114 layer_factory.hpp:74] Creating layer fc6
I0714 16:48:04.001750  7114 net.cpp:90] Creating Layer fc6
I0714 16:48:04.001759  7114 net.cpp:410] fc6 <- pool5
I0714 16:48:04.001767  7114 net.cpp:368] fc6 -> fc6
I0714 16:48:04.001781  7114 net.cpp:120] Setting up fc6
I0714 16:48:05.003265  7114 net.cpp:127] Top shape: 50 4096 (204800)
I0714 16:48:05.003295  7114 layer_factory.hpp:74] Creating layer relu6
I0714 16:48:05.003309  7114 net.cpp:90] Creating Layer relu6
I0714 16:48:05.003316  7114 net.cpp:410] relu6 <- fc6
I0714 16:48:05.003324  7114 net.cpp:357] relu6 -> fc6 (in-place)
I0714 16:48:05.003334  7114 net.cpp:120] Setting up relu6
I0714 16:48:05.003346  7114 net.cpp:127] Top shape: 50 4096 (204800)
I0714 16:48:05.003352  7114 layer_factory.hpp:74] Creating layer drop6
I0714 16:48:05.003360  7114 net.cpp:90] Creating Layer drop6
I0714 16:48:05.003367  7114 net.cpp:410] drop6 <- fc6
I0714 16:48:05.003375  7114 net.cpp:357] drop6 -> fc6 (in-place)
I0714 16:48:05.003386  7114 net.cpp:120] Setting up drop6
I0714 16:48:05.003396  7114 net.cpp:127] Top shape: 50 4096 (204800)
I0714 16:48:05.003402  7114 layer_factory.hpp:74] Creating layer fc7
I0714 16:48:05.003413  7114 net.cpp:90] Creating Layer fc7
I0714 16:48:05.003420  7114 net.cpp:410] fc7 <- fc6
I0714 16:48:05.003428  7114 net.cpp:368] fc7 -> fc7
I0714 16:48:05.003439  7114 net.cpp:120] Setting up fc7
I0714 16:48:05.448673  7114 net.cpp:127] Top shape: 50 4096 (204800)
I0714 16:48:05.448706  7114 layer_factory.hpp:74] Creating layer relu7
I0714 16:48:05.448719  7114 net.cpp:90] Creating Layer relu7
I0714 16:48:05.448726  7114 net.cpp:410] relu7 <- fc7
I0714 16:48:05.448734  7114 net.cpp:357] relu7 -> fc7 (in-place)
I0714 16:48:05.448745  7114 net.cpp:120] Setting up relu7
I0714 16:48:05.448755  7114 net.cpp:127] Top shape: 50 4096 (204800)
I0714 16:48:05.448760  7114 layer_factory.hpp:74] Creating layer drop7
I0714 16:48:05.448770  7114 net.cpp:90] Creating Layer drop7
I0714 16:48:05.448775  7114 net.cpp:410] drop7 <- fc7
I0714 16:48:05.448781  7114 net.cpp:357] drop7 -> fc7 (in-place)
I0714 16:48:05.448789  7114 net.cpp:120] Setting up drop7
I0714 16:48:05.448797  7114 net.cpp:127] Top shape: 50 4096 (204800)
I0714 16:48:05.448802  7114 layer_factory.hpp:74] Creating layer fc8_flickr
I0714 16:48:05.448814  7114 net.cpp:90] Creating Layer fc8_flickr
I0714 16:48:05.448822  7114 net.cpp:410] fc8_flickr <- fc7
I0714 16:48:05.448830  7114 net.cpp:368] fc8_flickr -> fc8_flickr
I0714 16:48:05.448842  7114 net.cpp:120] Setting up fc8_flickr
I0714 16:48:05.466475  7114 net.cpp:127] Top shape: 50 167 (8350)
I0714 16:48:05.466493  7114 layer_factory.hpp:74] Creating layer loss
I0714 16:48:05.466511  7114 net.cpp:90] Creating Layer loss
I0714 16:48:05.466516  7114 net.cpp:410] loss <- fc8_flickr
I0714 16:48:05.466523  7114 net.cpp:410] loss <- label
I0714 16:48:05.466534  7114 net.cpp:368] loss -> (automatic)
I0714 16:48:05.466543  7114 net.cpp:120] Setting up loss
I0714 16:48:05.466552  7114 layer_factory.hpp:74] Creating layer loss
…
I0714 16:48:05.467485  7114 net.cpp:287] The NetState phase (1) differed from the phase (0) specified by a rule in layer data
I0714 16:48:05.467663  7114 net.cpp:42] Initializing net from parameters: 
name: "LogoCaffeNet"
state {
  phase: TEST
}
layer {
  name: "data"
  type: "ImageData"
  top: "data"
  top: "label"
  include {
    phase: TEST
  }
  transform_param {
    mirror: false
    crop_size: 227
    mean_file: "data/ilsvrc12/imagenet_mean.binaryproto"
  }
  image_data_param {
    source: "/home/rips_tc/caffe/data/logos/test.txt"
    batch_size: 50
    new_height: 256
    new_width: 256
  }
}
layer {
  name: "conv1"
  type: "Convolution"
  bottom: "data"
  top: "conv1"
  param {
    lr_mult: 0.5
    decay_mult: 1
  }
  param {
    lr_mult: 1
    decay_mult: 0
  }
  convolution_param {
    num_output: 96
    kernel_size: 11
    stride: 4
    weight_filler {
      type: "gaussian"
      std: 0.01
    }
    bias_filler {
      type: "constant"
      value: 0
    }
  }
}
layer {
  name: "relu1"
  type: "ReLU"
  bottom: "conv1"
  top: "conv1"
}
layer {
  name: "pool1"
  type: "Pooling"
  bottom: "conv1"
  top: "pool1"
  pooling_param {
    pool: MAX
    kernel_size: 3
    stride: 2
  }
}
layer {
  name: "norm1"
  type: "LRN"
  bottom: "pool1"
  top: "norm1"
  lrn_param {
    local_size: 5
    alpha: 0.0001
    beta: 0.75
  }
}
layer {
  name: "conv2"
  type: "Convolution"
  bottom: "norm1"
  top: "conv2"
  param {
    lr_mult: 0.5
    decay_mult: 1
  }
  param {
    lr_mult: 1
    decay_mult: 0
  }
  convolution_param {
    num_output: 256
    pad: 2
    kernel_size: 5
    group: 2
    weight_filler {
      type: "gaussian"
      std: 0.01
    }
    bias_filler {
      type: "constant"
      value: 1
    }
  }
}
layer {
  name: "relu2"
  type: "ReLU"
  bottom: "conv2"
  top: "conv2"
}
layer {
  name: "pool2"
  type: "Pooling"
  bottom: "conv2"
  top: "pool2"
  pooling_param {
    pool: MAX
    kernel_size: 3
    stride: 2
  }
}
layer {
  name: "norm2"
  type: "LRN"
  bottom: "pool2"
  top: "norm2"
  lrn_param {
    local_size: 5
    alpha: 0.0001
    beta: 0.75
  }
}
layer {
  name: "conv3"
  type: "Convolution"
  bottom: "norm2"
  top: "conv3"
  param {
    lr_mult: 0.5
    decay_mult: 1
  }
  param {
    lr_mult: 1
    decay_mult: 0
  }
  convolution_param {
    num_output: 384
    pad: 1
    kernel_size: 3
    weight_filler {
      type: "gaussian"
      std: 0.01
    }
    bias_filler {
      type: "constant"
      value: 0
    }
  }
}
layer {
  name: "relu3"
  type: "ReLU"
  bottom: "conv3"
  top: "conv3"
}
layer {
  name: "conv4"
  type: "Convolution"
  bottom: "conv3"
  top: "conv4"
  param {
    lr_mult: 0.5
    decay_mult: 1
  }
  param {
    lr_mult: 1
    decay_mult: 0
  }
  convolution_param {
    num_output: 384
    pad: 1
    kernel_size: 3
    group: 2
    weight_filler {
      type: "gaussian"
      std: 0.01
    }
    bias_filler {
      type: "constant"
      value: 1
    }
  }
}
layer {
  name: "relu4"
  type: "ReLU"
  bottom: "conv4"
  top: "conv4"
}
layer {
  name: "conv5"
  type: "Convolution"
  bottom: "conv4"
  top: "conv5"
  param {
    lr_mult: 0.5
    decay_mult: 1
  }
  param {
    lr_mult: 1
    decay_mult: 0
  }
  convolution_param {
    num_output: 256
    pad: 1
    kernel_size: 3
    group: 2
    weight_filler {
      type: "gaussian"
      std: 0.01
    }
    bias_filler {
      type: "constant"
      value: 1
    }
  }
}
layer {
  name: "relu5"
  type: "ReLU"
  bottom: "conv5"
  top: "conv5"
}
layer {
  name: "pool5"
  type: "Pooling"
  bottom: "conv5"
  top: "pool5"
  pooling_param {
    pool: MAX
    kernel_size: 3
    stride: 2
  }
}
layer {
  name: "fc6"
  type: "InnerProduct"
  bottom: "pool5"
  top: "fc6"
  param {
    lr_mult: 1
    decay_mult: 1
  }
  param {
    lr_mult: 2
    decay_mult: 0
  }
  inner_product_param {
    num_output: 4096
    weight_filler {
      type: "gaussian"
      std: 0.005
    }
    bias_filler {
      type: "constant"
      value: 1
    }
  }
}
layer {
  name: "relu6"
  type: "ReLU"
  bottom: "fc6"
  top: "fc6"
}
layer {
  name: "drop6"
  type: "Dropout"
  bottom: "fc6"
  top: "fc6"
  dropout_param {
    dropout_ratio: 0.5
  }
}
layer {
  name: "fc7"
  type: "InnerProduct"
  bottom: "fc6"
  top: "fc7"
  param {
    lr_mult: 2
    decay_mult: 1
  }
  param {
    lr_mult: 4
    decay_mult: 0
  }
  inner_product_param {
    num_output: 4096
    weight_filler {
      type: "gaussian"
      std: 0.005
    }
    bias_filler {
      type: "constant"
      value: 1
    }
  }
}
layer {
  name: "relu7"
  type: "ReLU"
  bottom: "fc7"
  top: "fc7"
}
layer {
  name: "drop7"
  type: "Dropout"
  bottom: "fc7"
  top: "fc7"
  dropout_param {
    dropout_ratio: 0.5
  }
}
layer {
  name: "fc8_flickr"
  type: "InnerProduct"
  bottom: "fc7"
  top: "fc8_flickr"
  param {
    lr_mult: 20
    decay_mult: 1
  }
  param {
    lr_mult: 20
    decay_mult: 1
  }
  inner_product_param {
    num_output: 167
    weight_filler {
      type: "gaussian"
      std: 0.01
    }
    bias_filler {
      type: "constant"
      value: 0
    }
  }
}
layer {
  name: "loss"
  type: "SoftmaxWithLoss"
  bottom: "fc8_flickr"
  bottom: "label"
}
layer {
  name: "accuracy"
  type: "Accuracy"
  bottom: "fc8_flickr"
  bottom: "label"
  top: "accuracy"
  include {
    phase: TEST
  }
  accuracy_param {
    top_k: 3
  }
}
I0714 16:48:05.467787  7114 layer_factory.hpp:74] Creating layer data
I0714 16:48:05.467803  7114 net.cpp:90] Creating Layer data
I0714 16:48:05.467810  7114 net.cpp:368] data -> data
I0714 16:48:05.467823  7114 net.cpp:368] data -> label
I0714 16:48:05.467831  7114 net.cpp:120] Setting up data
I0714 16:48:05.467839  7114 data_transformer.cpp:22] Loading mean file from: data/ilsvrc12/imagenet_mean.binaryproto
I0714 16:48:05.469250  7114 image_data_layer.cpp:36] Opening file /home/rips_tc/caffe/data/logos/test.txt
I0714 16:48:05.469766  7114 image_data_layer.cpp:51] A total of 1357 images.
I0714 16:48:05.470590  7114 image_data_layer.cpp:74] output data size: 50,3,227,227
I0714 16:48:05.474323  7114 net.cpp:127] Top shape: 50 3 227 227 (7729350)
I0714 16:48:05.474354  7114 net.cpp:127] Top shape: 50 (50)
I0714 16:48:05.474364  7114 layer_factory.hpp:74] Creating layer label_data_1_split
I0714 16:48:05.474378  7114 net.cpp:90] Creating Layer label_data_1_split
I0714 16:48:05.474385  7114 net.cpp:410] label_data_1_split <- label
I0714 16:48:05.474393  7114 net.cpp:368] label_data_1_split -> label_data_1_split_0
I0714 16:48:05.474421  7114 net.cpp:368] label_data_1_split -> label_data_1_split_1
I0714 16:48:05.474432  7114 net.cpp:120] Setting up label_data_1_split
I0714 16:48:05.474442  7114 net.cpp:127] Top shape: 50 (50)
I0714 16:48:05.474452  7114 net.cpp:127] Top shape: 50 (50)
I0714 16:48:05.474457  7114 layer_factory.hpp:74] Creating layer conv1
I0714 16:48:05.474470  7114 net.cpp:90] Creating Layer conv1
I0714 16:48:05.474494  7114 net.cpp:410] conv1 <- data
I0714 16:48:05.474503  7114 net.cpp:368] conv1 -> conv1
I0714 16:48:05.474515  7114 net.cpp:120] Setting up conv1
I0714 16:48:05.475422  7114 net.cpp:127] Top shape: 50 96 55 55 (14520000)
I0714 16:48:05.475450  7114 layer_factory.hpp:74] Creating layer relu1
I0714 16:48:05.475460  7114 net.cpp:90] Creating Layer relu1
I0714 16:48:05.475466  7114 net.cpp:410] relu1 <- conv1
I0714 16:48:05.475472  7114 net.cpp:357] relu1 -> conv1 (in-place)
I0714 16:48:05.475481  7114 net.cpp:120] Setting up relu1
I0714 16:48:05.475488  7114 net.cpp:127] Top shape: 50 96 55 55 (14520000)
I0714 16:48:05.475496  7114 layer_factory.hpp:74] Creating layer pool1
I0714 16:48:05.475504  7114 net.cpp:90] Creating Layer pool1
I0714 16:48:05.475512  7114 net.cpp:410] pool1 <- conv1
I0714 16:48:05.475518  7114 net.cpp:368] pool1 -> pool1
I0714 16:48:05.475527  7114 net.cpp:120] Setting up pool1
I0714 16:48:05.475538  7114 net.cpp:127] Top shape: 50 96 27 27 (3499200)
I0714 16:48:05.475545  7114 layer_factory.hpp:74] Creating layer norm1
I0714 16:48:05.475553  7114 net.cpp:90] Creating Layer norm1
I0714 16:48:05.475560  7114 net.cpp:410] norm1 <- pool1
I0714 16:48:05.475567  7114 net.cpp:368] norm1 -> norm1
I0714 16:48:05.475575  7114 net.cpp:120] Setting up norm1
I0714 16:48:05.475584  7114 net.cpp:127] Top shape: 50 96 27 27 (3499200)
I0714 16:48:05.475591  7114 layer_factory.hpp:74] Creating layer conv2
I0714 16:48:05.475601  7114 net.cpp:90] Creating Layer conv2
I0714 16:48:05.475606  7114 net.cpp:410] conv2 <- norm1
I0714 16:48:05.475615  7114 net.cpp:368] conv2 -> conv2
I0714 16:48:05.475621  7114 net.cpp:120] Setting up conv2
I0714 16:48:05.483635  7114 net.cpp:127] Top shape: 50 256 27 27 (9331200)
I0714 16:48:05.483657  7114 layer_factory.hpp:74] Creating layer relu2
I0714 16:48:05.483669  7114 net.cpp:90] Creating Layer relu2
I0714 16:48:05.483675  7114 net.cpp:410] relu2 <- conv2
I0714 16:48:05.483683  7114 net.cpp:357] relu2 -> conv2 (in-place)
I0714 16:48:05.483691  7114 net.cpp:120] Setting up relu2
I0714 16:48:05.483700  7114 net.cpp:127] Top shape: 50 256 27 27 (9331200)
I0714 16:48:05.483719  7114 layer_factory.hpp:74] Creating layer pool2
I0714 16:48:05.483729  7114 net.cpp:90] Creating Layer pool2
I0714 16:48:05.483736  7114 net.cpp:410] pool2 <- conv2
I0714 16:48:05.483743  7114 net.cpp:368] pool2 -> pool2
I0714 16:48:05.483754  7114 net.cpp:120] Setting up pool2
I0714 16:48:05.483765  7114 net.cpp:127] Top shape: 50 256 13 13 (2163200)
I0714 16:48:05.483772  7114 layer_factory.hpp:74] Creating layer norm2
I0714 16:48:05.483780  7114 net.cpp:90] Creating Layer norm2
I0714 16:48:05.483788  7114 net.cpp:410] norm2 <- pool2
I0714 16:48:05.483798  7114 net.cpp:368] norm2 -> norm2
I0714 16:48:05.483809  7114 net.cpp:120] Setting up norm2
I0714 16:48:05.483820  7114 net.cpp:127] Top shape: 50 256 13 13 (2163200)
I0714 16:48:05.483826  7114 layer_factory.hpp:74] Creating layer conv3
I0714 16:48:05.483839  7114 net.cpp:90] Creating Layer conv3
I0714 16:48:05.483845  7114 net.cpp:410] conv3 <- norm2
I0714 16:48:05.483852  7114 net.cpp:368] conv3 -> conv3
I0714 16:48:05.483862  7114 net.cpp:120] Setting up conv3
I0714 16:48:05.506273  7114 net.cpp:127] Top shape: 50 384 13 13 (3244800)
I0714 16:48:05.506299  7114 layer_factory.hpp:74] Creating layer relu3
I0714 16:48:05.506312  7114 net.cpp:90] Creating Layer relu3
I0714 16:48:05.506320  7114 net.cpp:410] relu3 <- conv3
I0714 16:48:05.506328  7114 net.cpp:357] relu3 -> conv3 (in-place)
I0714 16:48:05.506338  7114 net.cpp:120] Setting up relu3
I0714 16:48:05.506347  7114 net.cpp:127] Top shape: 50 384 13 13 (3244800)
I0714 16:48:05.506366  7114 layer_factory.hpp:74] Creating layer conv4
I0714 16:48:05.506378  7114 net.cpp:90] Creating Layer conv4
I0714 16:48:05.506384  7114 net.cpp:410] conv4 <- conv3
I0714 16:48:05.506392  7114 net.cpp:368] conv4 -> conv4
I0714 16:48:05.506402  7114 net.cpp:120] Setting up conv4
I0714 16:48:05.523411  7114 net.cpp:127] Top shape: 50 384 13 13 (3244800)
I0714 16:48:05.523435  7114 layer_factory.hpp:74] Creating layer relu4
I0714 16:48:05.523484  7114 net.cpp:90] Creating Layer relu4
I0714 16:48:05.523494  7114 net.cpp:410] relu4 <- conv4
I0714 16:48:05.523504  7114 net.cpp:357] relu4 -> conv4 (in-place)
I0714 16:48:05.523514  7114 net.cpp:120] Setting up relu4
I0714 16:48:05.523524  7114 net.cpp:127] Top shape: 50 384 13 13 (3244800)
I0714 16:48:05.523531  7114 layer_factory.hpp:74] Creating layer conv5
I0714 16:48:05.523542  7114 net.cpp:90] Creating Layer conv5
I0714 16:48:05.523548  7114 net.cpp:410] conv5 <- conv4
I0714 16:48:05.523558  7114 net.cpp:368] conv5 -> conv5
I0714 16:48:05.523568  7114 net.cpp:120] Setting up conv5
I0714 16:48:05.534785  7114 net.cpp:127] Top shape: 50 256 13 13 (2163200)
I0714 16:48:05.534806  7114 layer_factory.hpp:74] Creating layer relu5
I0714 16:48:05.534814  7114 net.cpp:90] Creating Layer relu5
I0714 16:48:05.534821  7114 net.cpp:410] relu5 <- conv5
I0714 16:48:05.534829  7114 net.cpp:357] relu5 -> conv5 (in-place)
I0714 16:48:05.534837  7114 net.cpp:120] Setting up relu5
I0714 16:48:05.534845  7114 net.cpp:127] Top shape: 50 256 13 13 (2163200)
I0714 16:48:05.534863  7114 layer_factory.hpp:74] Creating layer pool5
I0714 16:48:05.534874  7114 net.cpp:90] Creating Layer pool5
I0714 16:48:05.534880  7114 net.cpp:410] pool5 <- conv5
I0714 16:48:05.534888  7114 net.cpp:368] pool5 -> pool5
I0714 16:48:05.534899  7114 net.cpp:120] Setting up pool5
I0714 16:48:05.534909  7114 net.cpp:127] Top shape: 50 256 6 6 (460800)
I0714 16:48:05.534916  7114 layer_factory.hpp:74] Creating layer fc6
I0714 16:48:05.534926  7114 net.cpp:90] Creating Layer fc6
I0714 16:48:05.534934  7114 net.cpp:410] fc6 <- pool5
I0714 16:48:05.534946  7114 net.cpp:368] fc6 -> fc6
I0714 16:48:05.534956  7114 net.cpp:120] Setting up fc6
I0714 16:48:06.456042  7114 net.cpp:127] Top shape: 50 4096 (204800)
I0714 16:48:06.456073  7114 layer_factory.hpp:74] Creating layer relu6
I0714 16:48:06.456085  7114 net.cpp:90] Creating Layer relu6
I0714 16:48:06.456092  7114 net.cpp:410] relu6 <- fc6
I0714 16:48:06.456106  7114 net.cpp:357] relu6 -> fc6 (in-place)
I0714 16:48:06.456117  7114 net.cpp:120] Setting up relu6
I0714 16:48:06.456125  7114 net.cpp:127] Top shape: 50 4096 (204800)
I0714 16:48:06.456130  7114 layer_factory.hpp:74] Creating layer drop6
I0714 16:48:06.456140  7114 net.cpp:90] Creating Layer drop6
I0714 16:48:06.456145  7114 net.cpp:410] drop6 <- fc6
I0714 16:48:06.456151  7114 net.cpp:357] drop6 -> fc6 (in-place)
I0714 16:48:06.456159  7114 net.cpp:120] Setting up drop6
I0714 16:48:06.456182  7114 net.cpp:127] Top shape: 50 4096 (204800)
I0714 16:48:06.456187  7114 layer_factory.hpp:74] Creating layer fc7
I0714 16:48:06.456197  7114 net.cpp:90] Creating Layer fc7
I0714 16:48:06.456205  7114 net.cpp:410] fc7 <- fc6
I0714 16:48:06.456212  7114 net.cpp:368] fc7 -> fc7
I0714 16:48:06.456223  7114 net.cpp:120] Setting up fc7
I0714 16:48:06.863281  7114 net.cpp:127] Top shape: 50 4096 (204800)
I0714 16:48:06.863312  7114 layer_factory.hpp:74] Creating layer relu7
I0714 16:48:06.863325  7114 net.cpp:90] Creating Layer relu7
I0714 16:48:06.863332  7114 net.cpp:410] relu7 <- fc7
I0714 16:48:06.863340  7114 net.cpp:357] relu7 -> fc7 (in-place)
I0714 16:48:06.863350  7114 net.cpp:120] Setting up relu7
I0714 16:48:06.863358  7114 net.cpp:127] Top shape: 50 4096 (204800)
I0714 16:48:06.863363  7114 layer_factory.hpp:74] Creating layer drop7
I0714 16:48:06.863374  7114 net.cpp:90] Creating Layer drop7
I0714 16:48:06.863380  7114 net.cpp:410] drop7 <- fc7
I0714 16:48:06.863386  7114 net.cpp:357] drop7 -> fc7 (in-place)
I0714 16:48:06.863394  7114 net.cpp:120] Setting up drop7
I0714 16:48:06.863402  7114 net.cpp:127] Top shape: 50 4096 (204800)
I0714 16:48:06.863411  7114 layer_factory.hpp:74] Creating layer fc8_flickr
I0714 16:48:06.863423  7114 net.cpp:90] Creating Layer fc8_flickr
I0714 16:48:06.863430  7114 net.cpp:410] fc8_flickr <- fc7
I0714 16:48:06.863437  7114 net.cpp:368] fc8_flickr -> fc8_flickr
I0714 16:48:06.863451  7114 net.cpp:120] Setting up fc8_flickr
I0714 16:48:06.879834  7114 net.cpp:127] Top shape: 50 167 (8350)
I0714 16:48:06.879876  7114 layer_factory.hpp:74] Creating layer fc8_flickr_fc8_flickr_0_split
I0714 16:48:06.879886  7114 net.cpp:90] Creating Layer fc8_flickr_fc8_flickr_0_split
I0714 16:48:06.879892  7114 net.cpp:410] fc8_flickr_fc8_flickr_0_split <- fc8_flickr
I0714 16:48:06.879899  7114 net.cpp:368] fc8_flickr_fc8_flickr_0_split -> fc8_flickr_fc8_flickr_0_split_0
I0714 16:48:06.879909  7114 net.cpp:368] fc8_flickr_fc8_flickr_0_split -> fc8_flickr_fc8_flickr_0_split_1
I0714 16:48:06.879917  7114 net.cpp:120] Setting up fc8_flickr_fc8_flickr_0_split
I0714 16:48:06.879925  7114 net.cpp:127] Top shape: 50 167 (8350)
I0714 16:48:06.879931  7114 net.cpp:127] Top shape: 50 167 (8350)
I0714 16:48:06.879936  7114 layer_factory.hpp:74] Creating layer loss
I0714 16:48:06.879943  7114 net.cpp:90] Creating Layer loss
I0714 16:48:06.879951  7114 net.cpp:410] loss <- fc8_flickr_fc8_flickr_0_split_0
I0714 16:48:06.879957  7114 net.cpp:410] loss <- label_data_1_split_0
I0714 16:48:06.879968  7114 net.cpp:368] loss -> (automatic)
I0714 16:48:06.879976  7114 net.cpp:120] Setting up loss
…
