…
I0718 01:15:19.355545 13041 net.cpp:287] The NetState phase (0) differed from the phase (1) specified by a rule in layer accuracy
I0718 01:15:19.356034 13041 net.cpp:42] Initializing net from parameters: 
name: "LogoCaffeNet"
state {
  phase: TRAIN
}
layer {
  name: "data"
  type: "ImageData"
  top: "data"
  top: "label"
  include {
    phase: TRAIN
  }
  transform_param {
    mirror: true
    crop_size: 227
    mean_file: "data/ilsvrc12/imagenet_mean.binaryproto"
  }
  image_data_param {
    source: "/home/rips_tc/caffe/data/logos/train.txt"
    batch_size: 50
    new_height: 256
    new_width: 256
  }
}
layer {
  name: "conv1"
  type: "Convolution"
  bottom: "data"
  top: "conv1"
  param {
    lr_mult: 0.5
    decay_mult: 1
  }
  param {
    lr_mult: 1
    decay_mult: 0
  }
  convolution_param {
    num_output: 96
    kernel_size: 11
    stride: 4
    weight_filler {
      type: "gaussian"
      std: 0.01
    }
    bias_filler {
      type: "constant"
      value: 0
    }
  }
}
layer {
  name: "relu1"
  type: "ReLU"
  bottom: "conv1"
  top: "conv1"
}
layer {
  name: "pool1"
  type: "Pooling"
  bottom: "conv1"
  top: "pool1"
  pooling_param {
    pool: MAX
    kernel_size: 3
    stride: 2
  }
}
layer {
  name: "norm1"
  type: "LRN"
  bottom: "pool1"
  top: "norm1"
  lrn_param {
    local_size: 5
    alpha: 0.0001
    beta: 0.75
  }
}
layer {
  name: "conv2"
  type: "Convolution"
  bottom: "norm1"
  top: "conv2"
  param {
    lr_mult: 0.5
    decay_mult: 1
  }
  param {
    lr_mult: 1
    decay_mult: 0
  }
  convolution_param {
    num_output: 256
    pad: 2
    kernel_size: 5
    group: 2
    weight_filler {
      type: "gaussian"
      std: 0.01
    }
    bias_filler {
      type: "constant"
      value: 1
    }
  }
}
layer {
  name: "relu2"
  type: "ReLU"
  bottom: "conv2"
  top: "conv2"
}
layer {
  name: "pool2"
  type: "Pooling"
  bottom: "conv2"
  top: "pool2"
  pooling_param {
    pool: MAX
    kernel_size: 3
    stride: 2
  }
}
layer {
  name: "norm2"
  type: "LRN"
  bottom: "pool2"
  top: "norm2"
  lrn_param {
    local_size: 5
    alpha: 0.0001
    beta: 0.75
  }
}
layer {
  name: "conv3"
  type: "Convolution"
  bottom: "norm2"
  top: "conv3"
  param {
    lr_mult: 0.5
    decay_mult: 1
  }
  param {
    lr_mult: 1
    decay_mult: 0
  }
  convolution_param {
    num_output: 384
    pad: 1
    kernel_size: 3
    weight_filler {
      type: "gaussian"
      std: 0.01
    }
    bias_filler {
      type: "constant"
      value: 0
    }
  }
}
layer {
  name: "relu3"
  type: "ReLU"
  bottom: "conv3"
  top: "conv3"
}
layer {
  name: "conv4"
  type: "Convolution"
  bottom: "conv3"
  top: "conv4"
  param {
    lr_mult: 0.5
    decay_mult: 1
  }
  param {
    lr_mult: 1
    decay_mult: 0
  }
  convolution_param {
    num_output: 384
    pad: 1
    kernel_size: 3
    group: 2
    weight_filler {
      type: "gaussian"
      std: 0.01
    }
    bias_filler {
      type: "constant"
      value: 1
    }
  }
}
layer {
  name: "relu4"
  type: "ReLU"
  bottom: "conv4"
  top: "conv4"
}
layer {
  name: "conv5"
  type: "Convolution"
  bottom: "conv4"
  top: "conv5"
  param {
    lr_mult: 0.5
    decay_mult: 1
  }
  param {
    lr_mult: 1
    decay_mult: 0
  }
  convolution_param {
    num_output: 256
    pad: 1
    kernel_size: 3
    group: 2
    weight_filler {
      type: "gaussian"
      std: 0.01
    }
    bias_filler {
      type: "constant"
      value: 1
    }
  }
}
layer {
  name: "relu5"
  type: "ReLU"
  bottom: "conv5"
  top: "conv5"
}
layer {
  name: "pool5"
  type: "Pooling"
  bottom: "conv5"
  top: "pool5"
  pooling_param {
    pool: MAX
    kernel_size: 3
    stride: 2
  }
}
layer {
  name: "fc6"
  type: "InnerProduct"
  bottom: "pool5"
  top: "fc6"
  param {
    lr_mult: 1
    decay_mult: 1
  }
  param {
    lr_mult: 2
    decay_mult: 0
  }
  inner_product_param {
    num_output: 4096
    weight_filler {
      type: "gaussian"
      std: 0.005
    }
    bias_filler {
      type: "constant"
      value: 1
    }
  }
}
layer {
  name: "relu6"
  type: "ReLU"
  bottom: "fc6"
  top: "fc6"
}
layer {
  name: "drop6"
  type: "Dropout"
  bottom: "fc6"
  top: "fc6"
  dropout_param {
    dropout_ratio: 0.5
  }
}
layer {
  name: "fc7"
  type: "InnerProduct"
  bottom: "fc6"
  top: "fc7"
  param {
    lr_mult: 2
    decay_mult: 1
  }
  param {
    lr_mult: 4
    decay_mult: 0
  }
  inner_product_param {
    num_output: 4096
    weight_filler {
      type: "gaussian"
      std: 0.005
    }
    bias_filler {
      type: "constant"
      value: 1
    }
  }
}
layer {
  name: "relu7"
  type: "ReLU"
  bottom: "fc7"
  top: "fc7"
}
layer {
  name: "drop7"
  type: "Dropout"
  bottom: "fc7"
  top: "fc7"
  dropout_param {
    dropout_ratio: 0.5
  }
}
layer {
  name: "fc8_flickr"
  type: "InnerProduct"
  bottom: "fc7"
  top: "fc8_flickr"
  param {
    lr_mult: 20
    decay_mult: 1
  }
  param {
    lr_mult: 20
    decay_mult: 1
  }
  inner_product_param {
    num_output: 167
    weight_filler {
      type: "gaussian"
      std: 0.01
    }
    bias_filler {
      type: "constant"
      value: 0
    }
  }
}
layer {
  name: "loss"
  type: "SoftmaxWithLoss"
  bottom: "fc8_flickr"
  bottom: "label"
}
I0718 01:15:19.356348 13041 layer_factory.hpp:74] Creating layer data
I0718 01:15:19.356402 13041 net.cpp:90] Creating Layer data
I0718 01:15:19.356425 13041 net.cpp:368] data -> data
I0718 01:15:19.356474 13041 net.cpp:368] data -> label
I0718 01:15:19.356504 13041 net.cpp:120] Setting up data
I0718 01:15:19.356531 13041 data_transformer.cpp:22] Loading mean file from: data/ilsvrc12/imagenet_mean.binaryproto
I0718 01:15:19.471287 13041 image_data_layer.cpp:36] Opening file /home/rips_tc/caffe/data/logos/train.txt
I0718 01:15:19.481930 13041 image_data_layer.cpp:51] A total of 12219 images.
I0718 01:15:19.490254 13041 image_data_layer.cpp:74] output data size: 50,3,227,227
I0718 01:15:19.498451 13041 net.cpp:127] Top shape: 50 3 227 227 (7729350)
I0718 01:15:19.498500 13041 net.cpp:127] Top shape: 50 (50)
I0718 01:15:19.498517 13041 layer_factory.hpp:74] Creating layer conv1
I0718 01:15:19.498546 13041 net.cpp:90] Creating Layer conv1
I0718 01:15:19.498561 13041 net.cpp:410] conv1 <- data
I0718 01:15:19.498584 13041 net.cpp:368] conv1 -> conv1
I0718 01:15:19.498610 13041 net.cpp:120] Setting up conv1
I0718 01:15:19.500515 13041 net.cpp:127] Top shape: 50 96 55 55 (14520000)
I0718 01:15:19.500548 13041 layer_factory.hpp:74] Creating layer relu1
I0718 01:15:19.500566 13041 net.cpp:90] Creating Layer relu1
I0718 01:15:19.500576 13041 net.cpp:410] relu1 <- conv1
I0718 01:15:19.500589 13041 net.cpp:357] relu1 -> conv1 (in-place)
I0718 01:15:19.500603 13041 net.cpp:120] Setting up relu1
I0718 01:15:19.500627 13041 net.cpp:127] Top shape: 50 96 55 55 (14520000)
I0718 01:15:19.500643 13041 layer_factory.hpp:74] Creating layer pool1
I0718 01:15:19.500658 13041 net.cpp:90] Creating Layer pool1
I0718 01:15:19.500669 13041 net.cpp:410] pool1 <- conv1
I0718 01:15:19.500687 13041 net.cpp:368] pool1 -> pool1
I0718 01:15:19.500705 13041 net.cpp:120] Setting up pool1
I0718 01:15:19.500735 13041 net.cpp:127] Top shape: 50 96 27 27 (3499200)
I0718 01:15:19.500748 13041 layer_factory.hpp:74] Creating layer norm1
I0718 01:15:19.500764 13041 net.cpp:90] Creating Layer norm1
I0718 01:15:19.500779 13041 net.cpp:410] norm1 <- pool1
I0718 01:15:19.500793 13041 net.cpp:368] norm1 -> norm1
I0718 01:15:19.500812 13041 net.cpp:120] Setting up norm1
I0718 01:15:19.500830 13041 net.cpp:127] Top shape: 50 96 27 27 (3499200)
I0718 01:15:19.500874 13041 layer_factory.hpp:74] Creating layer conv2
I0718 01:15:19.500891 13041 net.cpp:90] Creating Layer conv2
I0718 01:15:19.500902 13041 net.cpp:410] conv2 <- norm1
I0718 01:15:19.500916 13041 net.cpp:368] conv2 -> conv2
I0718 01:15:19.500936 13041 net.cpp:120] Setting up conv2
I0718 01:15:19.516813 13041 net.cpp:127] Top shape: 50 256 27 27 (9331200)
I0718 01:15:19.516844 13041 layer_factory.hpp:74] Creating layer relu2
I0718 01:15:19.516860 13041 net.cpp:90] Creating Layer relu2
I0718 01:15:19.516870 13041 net.cpp:410] relu2 <- conv2
I0718 01:15:19.516882 13041 net.cpp:357] relu2 -> conv2 (in-place)
I0718 01:15:19.516896 13041 net.cpp:120] Setting up relu2
I0718 01:15:19.516909 13041 net.cpp:127] Top shape: 50 256 27 27 (9331200)
I0718 01:15:19.516918 13041 layer_factory.hpp:74] Creating layer pool2
I0718 01:15:19.516932 13041 net.cpp:90] Creating Layer pool2
I0718 01:15:19.516942 13041 net.cpp:410] pool2 <- conv2
I0718 01:15:19.516952 13041 net.cpp:368] pool2 -> pool2
I0718 01:15:19.516966 13041 net.cpp:120] Setting up pool2
I0718 01:15:19.516983 13041 net.cpp:127] Top shape: 50 256 13 13 (2163200)
I0718 01:15:19.516993 13041 layer_factory.hpp:74] Creating layer norm2
I0718 01:15:19.517009 13041 net.cpp:90] Creating Layer norm2
I0718 01:15:19.517017 13041 net.cpp:410] norm2 <- pool2
I0718 01:15:19.517030 13041 net.cpp:368] norm2 -> norm2
I0718 01:15:19.517042 13041 net.cpp:120] Setting up norm2
I0718 01:15:19.517056 13041 net.cpp:127] Top shape: 50 256 13 13 (2163200)
I0718 01:15:19.517066 13041 layer_factory.hpp:74] Creating layer conv3
I0718 01:15:19.517081 13041 net.cpp:90] Creating Layer conv3
I0718 01:15:19.517091 13041 net.cpp:410] conv3 <- norm2
I0718 01:15:19.517104 13041 net.cpp:368] conv3 -> conv3
I0718 01:15:19.517120 13041 net.cpp:120] Setting up conv3
I0718 01:15:19.556475 13041 net.cpp:127] Top shape: 50 384 13 13 (3244800)
I0718 01:15:19.556506 13041 layer_factory.hpp:74] Creating layer relu3
I0718 01:15:19.556520 13041 net.cpp:90] Creating Layer relu3
I0718 01:15:19.556529 13041 net.cpp:410] relu3 <- conv3
I0718 01:15:19.556538 13041 net.cpp:357] relu3 -> conv3 (in-place)
I0718 01:15:19.556550 13041 net.cpp:120] Setting up relu3
I0718 01:15:19.556560 13041 net.cpp:127] Top shape: 50 384 13 13 (3244800)
I0718 01:15:19.556566 13041 layer_factory.hpp:74] Creating layer conv4
I0718 01:15:19.556579 13041 net.cpp:90] Creating Layer conv4
I0718 01:15:19.556586 13041 net.cpp:410] conv4 <- conv3
I0718 01:15:19.556596 13041 net.cpp:368] conv4 -> conv4
I0718 01:15:19.556607 13041 net.cpp:120] Setting up conv4
I0718 01:15:19.579640 13041 net.cpp:127] Top shape: 50 384 13 13 (3244800)
I0718 01:15:19.579670 13041 layer_factory.hpp:74] Creating layer relu4
I0718 01:15:19.579684 13041 net.cpp:90] Creating Layer relu4
I0718 01:15:19.579692 13041 net.cpp:410] relu4 <- conv4
I0718 01:15:19.579702 13041 net.cpp:357] relu4 -> conv4 (in-place)
I0718 01:15:19.579713 13041 net.cpp:120] Setting up relu4
I0718 01:15:19.579722 13041 net.cpp:127] Top shape: 50 384 13 13 (3244800)
I0718 01:15:19.579730 13041 layer_factory.hpp:74] Creating layer conv5
I0718 01:15:19.579741 13041 net.cpp:90] Creating Layer conv5
I0718 01:15:19.579747 13041 net.cpp:410] conv5 <- conv4
I0718 01:15:19.579756 13041 net.cpp:368] conv5 -> conv5
I0718 01:15:19.579768 13041 net.cpp:120] Setting up conv5
I0718 01:15:19.593910 13041 net.cpp:127] Top shape: 50 256 13 13 (2163200)
I0718 01:15:19.593932 13041 layer_factory.hpp:74] Creating layer relu5
I0718 01:15:19.593943 13041 net.cpp:90] Creating Layer relu5
I0718 01:15:19.593950 13041 net.cpp:410] relu5 <- conv5
I0718 01:15:19.593961 13041 net.cpp:357] relu5 -> conv5 (in-place)
I0718 01:15:19.593969 13041 net.cpp:120] Setting up relu5
I0718 01:15:19.593977 13041 net.cpp:127] Top shape: 50 256 13 13 (2163200)
I0718 01:15:19.593983 13041 layer_factory.hpp:74] Creating layer pool5
I0718 01:15:19.593993 13041 net.cpp:90] Creating Layer pool5
I0718 01:15:19.593999 13041 net.cpp:410] pool5 <- conv5
I0718 01:15:19.594008 13041 net.cpp:368] pool5 -> pool5
I0718 01:15:19.594017 13041 net.cpp:120] Setting up pool5
I0718 01:15:19.594059 13041 net.cpp:127] Top shape: 50 256 6 6 (460800)
I0718 01:15:19.594068 13041 layer_factory.hpp:74] Creating layer fc6
I0718 01:15:19.594080 13041 net.cpp:90] Creating Layer fc6
I0718 01:15:19.594089 13041 net.cpp:410] fc6 <- pool5
I0718 01:15:19.594099 13041 net.cpp:368] fc6 -> fc6
I0718 01:15:19.594112 13041 net.cpp:120] Setting up fc6
I0718 01:15:20.599489 13041 net.cpp:127] Top shape: 50 4096 (204800)
I0718 01:15:20.599522 13041 layer_factory.hpp:74] Creating layer relu6
I0718 01:15:20.599535 13041 net.cpp:90] Creating Layer relu6
I0718 01:15:20.599542 13041 net.cpp:410] relu6 <- fc6
I0718 01:15:20.599551 13041 net.cpp:357] relu6 -> fc6 (in-place)
I0718 01:15:20.599561 13041 net.cpp:120] Setting up relu6
I0718 01:15:20.599568 13041 net.cpp:127] Top shape: 50 4096 (204800)
I0718 01:15:20.599575 13041 layer_factory.hpp:74] Creating layer drop6
I0718 01:15:20.599583 13041 net.cpp:90] Creating Layer drop6
I0718 01:15:20.599588 13041 net.cpp:410] drop6 <- fc6
I0718 01:15:20.599606 13041 net.cpp:357] drop6 -> fc6 (in-place)
I0718 01:15:20.599619 13041 net.cpp:120] Setting up drop6
I0718 01:15:20.599632 13041 net.cpp:127] Top shape: 50 4096 (204800)
I0718 01:15:20.599639 13041 layer_factory.hpp:74] Creating layer fc7
I0718 01:15:20.599649 13041 net.cpp:90] Creating Layer fc7
I0718 01:15:20.599658 13041 net.cpp:410] fc7 <- fc6
I0718 01:15:20.599665 13041 net.cpp:368] fc7 -> fc7
I0718 01:15:20.599675 13041 net.cpp:120] Setting up fc7
I0718 01:15:21.028779 13041 net.cpp:127] Top shape: 50 4096 (204800)
I0718 01:15:21.028820 13041 layer_factory.hpp:74] Creating layer relu7
I0718 01:15:21.028832 13041 net.cpp:90] Creating Layer relu7
I0718 01:15:21.028839 13041 net.cpp:410] relu7 <- fc7
I0718 01:15:21.028849 13041 net.cpp:357] relu7 -> fc7 (in-place)
I0718 01:15:21.028859 13041 net.cpp:120] Setting up relu7
I0718 01:15:21.028867 13041 net.cpp:127] Top shape: 50 4096 (204800)
I0718 01:15:21.028872 13041 layer_factory.hpp:74] Creating layer drop7
I0718 01:15:21.028880 13041 net.cpp:90] Creating Layer drop7
I0718 01:15:21.028890 13041 net.cpp:410] drop7 <- fc7
I0718 01:15:21.028897 13041 net.cpp:357] drop7 -> fc7 (in-place)
I0718 01:15:21.028904 13041 net.cpp:120] Setting up drop7
I0718 01:15:21.028913 13041 net.cpp:127] Top shape: 50 4096 (204800)
I0718 01:15:21.028919 13041 layer_factory.hpp:74] Creating layer fc8_flickr
I0718 01:15:21.028929 13041 net.cpp:90] Creating Layer fc8_flickr
I0718 01:15:21.028936 13041 net.cpp:410] fc8_flickr <- fc7
I0718 01:15:21.028944 13041 net.cpp:368] fc8_flickr -> fc8_flickr
I0718 01:15:21.028952 13041 net.cpp:120] Setting up fc8_flickr
I0718 01:15:21.045248 13041 net.cpp:127] Top shape: 50 167 (8350)
I0718 01:15:21.045265 13041 layer_factory.hpp:74] Creating layer loss
I0718 01:15:21.045295 13041 net.cpp:90] Creating Layer loss
I0718 01:15:21.045300 13041 net.cpp:410] loss <- fc8_flickr
I0718 01:15:21.045306 13041 net.cpp:410] loss <- label
I0718 01:15:21.045321 13041 net.cpp:368] loss -> (automatic)
I0718 01:15:21.045331 13041 net.cpp:120] Setting up loss
I0718 01:15:21.045339 13041 layer_factory.hpp:74] Creating layer loss
…
I0718 01:15:21.046226 13041 net.cpp:287] The NetState phase (1) differed from the phase (0) specified by a rule in layer data
I0718 01:15:21.046416 13041 net.cpp:42] Initializing net from parameters: 
name: "LogoCaffeNet"
state {
  phase: TEST
}
layer {
  name: "data"
  type: "ImageData"
  top: "data"
  top: "label"
  include {
    phase: TEST
  }
  transform_param {
    mirror: false
    crop_size: 227
    mean_file: "data/ilsvrc12/imagenet_mean.binaryproto"
  }
  image_data_param {
    source: "/home/rips_tc/caffe/data/logos/test.txt"
    batch_size: 50
    new_height: 256
    new_width: 256
  }
}
layer {
  name: "conv1"
  type: "Convolution"
  bottom: "data"
  top: "conv1"
  param {
    lr_mult: 0.5
    decay_mult: 1
  }
  param {
    lr_mult: 1
    decay_mult: 0
  }
  convolution_param {
    num_output: 96
    kernel_size: 11
    stride: 4
    weight_filler {
      type: "gaussian"
      std: 0.01
    }
    bias_filler {
      type: "constant"
      value: 0
    }
  }
}
layer {
  name: "relu1"
  type: "ReLU"
  bottom: "conv1"
  top: "conv1"
}
layer {
  name: "pool1"
  type: "Pooling"
  bottom: "conv1"
  top: "pool1"
  pooling_param {
    pool: MAX
    kernel_size: 3
    stride: 2
  }
}
layer {
  name: "norm1"
  type: "LRN"
  bottom: "pool1"
  top: "norm1"
  lrn_param {
    local_size: 5
    alpha: 0.0001
    beta: 0.75
  }
}
layer {
  name: "conv2"
  type: "Convolution"
  bottom: "norm1"
  top: "conv2"
  param {
    lr_mult: 0.5
    decay_mult: 1
  }
  param {
    lr_mult: 1
    decay_mult: 0
  }
  convolution_param {
    num_output: 256
    pad: 2
    kernel_size: 5
    group: 2
    weight_filler {
      type: "gaussian"
      std: 0.01
    }
    bias_filler {
      type: "constant"
      value: 1
    }
  }
}
layer {
  name: "relu2"
  type: "ReLU"
  bottom: "conv2"
  top: "conv2"
}
layer {
  name: "pool2"
  type: "Pooling"
  bottom: "conv2"
  top: "pool2"
  pooling_param {
    pool: MAX
    kernel_size: 3
    stride: 2
  }
}
layer {
  name: "norm2"
  type: "LRN"
  bottom: "pool2"
  top: "norm2"
  lrn_param {
    local_size: 5
    alpha: 0.0001
    beta: 0.75
  }
}
layer {
  name: "conv3"
  type: "Convolution"
  bottom: "norm2"
  top: "conv3"
  param {
    lr_mult: 0.5
    decay_mult: 1
  }
  param {
    lr_mult: 1
    decay_mult: 0
  }
  convolution_param {
    num_output: 384
    pad: 1
    kernel_size: 3
    weight_filler {
      type: "gaussian"
      std: 0.01
    }
    bias_filler {
      type: "constant"
      value: 0
    }
  }
}
layer {
  name: "relu3"
  type: "ReLU"
  bottom: "conv3"
  top: "conv3"
}
layer {
  name: "conv4"
  type: "Convolution"
  bottom: "conv3"
  top: "conv4"
  param {
    lr_mult: 0.5
    decay_mult: 1
  }
  param {
    lr_mult: 1
    decay_mult: 0
  }
  convolution_param {
    num_output: 384
    pad: 1
    kernel_size: 3
    group: 2
    weight_filler {
      type: "gaussian"
      std: 0.01
    }
    bias_filler {
      type: "constant"
      value: 1
    }
  }
}
layer {
  name: "relu4"
  type: "ReLU"
  bottom: "conv4"
  top: "conv4"
}
layer {
  name: "conv5"
  type: "Convolution"
  bottom: "conv4"
  top: "conv5"
  param {
    lr_mult: 0.5
    decay_mult: 1
  }
  param {
    lr_mult: 1
    decay_mult: 0
  }
  convolution_param {
    num_output: 256
    pad: 1
    kernel_size: 3
    group: 2
    weight_filler {
      type: "gaussian"
      std: 0.01
    }
    bias_filler {
      type: "constant"
      value: 1
    }
  }
}
layer {
  name: "relu5"
  type: "ReLU"
  bottom: "conv5"
  top: "conv5"
}
layer {
  name: "pool5"
  type: "Pooling"
  bottom: "conv5"
  top: "pool5"
  pooling_param {
    pool: MAX
    kernel_size: 3
    stride: 2
  }
}
layer {
  name: "fc6"
  type: "InnerProduct"
  bottom: "pool5"
  top: "fc6"
  param {
    lr_mult: 1
    decay_mult: 1
  }
  param {
    lr_mult: 2
    decay_mult: 0
  }
  inner_product_param {
    num_output: 4096
    weight_filler {
      type: "gaussian"
      std: 0.005
    }
    bias_filler {
      type: "constant"
      value: 1
    }
  }
}
layer {
  name: "relu6"
  type: "ReLU"
  bottom: "fc6"
  top: "fc6"
}
layer {
  name: "drop6"
  type: "Dropout"
  bottom: "fc6"
  top: "fc6"
  dropout_param {
    dropout_ratio: 0.5
  }
}
layer {
  name: "fc7"
  type: "InnerProduct"
  bottom: "fc6"
  top: "fc7"
  param {
    lr_mult: 2
    decay_mult: 1
  }
  param {
    lr_mult: 4
    decay_mult: 0
  }
  inner_product_param {
    num_output: 4096
    weight_filler {
      type: "gaussian"
      std: 0.005
    }
    bias_filler {
      type: "constant"
      value: 1
    }
  }
}
layer {
  name: "relu7"
  type: "ReLU"
  bottom: "fc7"
  top: "fc7"
}
layer {
  name: "drop7"
  type: "Dropout"
  bottom: "fc7"
  top: "fc7"
  dropout_param {
    dropout_ratio: 0.5
  }
}
layer {
  name: "fc8_flickr"
  type: "InnerProduct"
  bottom: "fc7"
  top: "fc8_flickr"
  param {
    lr_mult: 20
    decay_mult: 1
  }
  param {
    lr_mult: 20
    decay_mult: 1
  }
  inner_product_param {
    num_output: 167
    weight_filler {
      type: "gaussian"
      std: 0.01
    }
    bias_filler {
      type: "constant"
      value: 0
    }
  }
}
layer {
  name: "loss"
  type: "SoftmaxWithLoss"
  bottom: "fc8_flickr"
  bottom: "label"
}
layer {
  name: "accuracy"
  type: "Accuracy"
  bottom: "fc8_flickr"
  bottom: "label"
  top: "accuracy"
  include {
    phase: TEST
  }
  accuracy_param {
    top_k: 3
  }
}
I0718 01:15:21.046545 13041 layer_factory.hpp:74] Creating layer data
I0718 01:15:21.046558 13041 net.cpp:90] Creating Layer data
I0718 01:15:21.046566 13041 net.cpp:368] data -> data
I0718 01:15:21.046576 13041 net.cpp:368] data -> label
I0718 01:15:21.046584 13041 net.cpp:120] Setting up data
I0718 01:15:21.046591 13041 data_transformer.cpp:22] Loading mean file from: data/ilsvrc12/imagenet_mean.binaryproto
I0718 01:15:21.047901 13041 image_data_layer.cpp:36] Opening file /home/rips_tc/caffe/data/logos/test.txt
I0718 01:15:21.048406 13041 image_data_layer.cpp:51] A total of 1358 images.
I0718 01:15:21.049198 13041 image_data_layer.cpp:74] output data size: 50,3,227,227
I0718 01:15:21.052918 13041 net.cpp:127] Top shape: 50 3 227 227 (7729350)
I0718 01:15:21.052952 13041 net.cpp:127] Top shape: 50 (50)
I0718 01:15:21.052979 13041 layer_factory.hpp:74] Creating layer label_data_1_split
I0718 01:15:21.052994 13041 net.cpp:90] Creating Layer label_data_1_split
I0718 01:15:21.053000 13041 net.cpp:410] label_data_1_split <- label
I0718 01:15:21.053009 13041 net.cpp:368] label_data_1_split -> label_data_1_split_0
I0718 01:15:21.053022 13041 net.cpp:368] label_data_1_split -> label_data_1_split_1
I0718 01:15:21.053033 13041 net.cpp:120] Setting up label_data_1_split
I0718 01:15:21.053045 13041 net.cpp:127] Top shape: 50 (50)
I0718 01:15:21.053050 13041 net.cpp:127] Top shape: 50 (50)
I0718 01:15:21.053056 13041 layer_factory.hpp:74] Creating layer conv1
I0718 01:15:21.053067 13041 net.cpp:90] Creating Layer conv1
I0718 01:15:21.053094 13041 net.cpp:410] conv1 <- data
I0718 01:15:21.053103 13041 net.cpp:368] conv1 -> conv1
I0718 01:15:21.053113 13041 net.cpp:120] Setting up conv1
I0718 01:15:21.054008 13041 net.cpp:127] Top shape: 50 96 55 55 (14520000)
I0718 01:15:21.054023 13041 layer_factory.hpp:74] Creating layer relu1
I0718 01:15:21.054030 13041 net.cpp:90] Creating Layer relu1
I0718 01:15:21.054036 13041 net.cpp:410] relu1 <- conv1
I0718 01:15:21.054044 13041 net.cpp:357] relu1 -> conv1 (in-place)
I0718 01:15:21.054050 13041 net.cpp:120] Setting up relu1
I0718 01:15:21.054056 13041 net.cpp:127] Top shape: 50 96 55 55 (14520000)
I0718 01:15:21.054062 13041 layer_factory.hpp:74] Creating layer pool1
I0718 01:15:21.054070 13041 net.cpp:90] Creating Layer pool1
I0718 01:15:21.054075 13041 net.cpp:410] pool1 <- conv1
I0718 01:15:21.054082 13041 net.cpp:368] pool1 -> pool1
I0718 01:15:21.054090 13041 net.cpp:120] Setting up pool1
I0718 01:15:21.054100 13041 net.cpp:127] Top shape: 50 96 27 27 (3499200)
I0718 01:15:21.054106 13041 layer_factory.hpp:74] Creating layer norm1
I0718 01:15:21.054114 13041 net.cpp:90] Creating Layer norm1
I0718 01:15:21.054119 13041 net.cpp:410] norm1 <- pool1
I0718 01:15:21.054126 13041 net.cpp:368] norm1 -> norm1
I0718 01:15:21.054133 13041 net.cpp:120] Setting up norm1
I0718 01:15:21.054141 13041 net.cpp:127] Top shape: 50 96 27 27 (3499200)
I0718 01:15:21.054147 13041 layer_factory.hpp:74] Creating layer conv2
I0718 01:15:21.054154 13041 net.cpp:90] Creating Layer conv2
I0718 01:15:21.054159 13041 net.cpp:410] conv2 <- norm1
I0718 01:15:21.054167 13041 net.cpp:368] conv2 -> conv2
I0718 01:15:21.054174 13041 net.cpp:120] Setting up conv2
I0718 01:15:21.061861 13041 net.cpp:127] Top shape: 50 256 27 27 (9331200)
I0718 01:15:21.061882 13041 layer_factory.hpp:74] Creating layer relu2
I0718 01:15:21.061895 13041 net.cpp:90] Creating Layer relu2
I0718 01:15:21.061902 13041 net.cpp:410] relu2 <- conv2
I0718 01:15:21.061909 13041 net.cpp:357] relu2 -> conv2 (in-place)
I0718 01:15:21.061918 13041 net.cpp:120] Setting up relu2
I0718 01:15:21.061924 13041 net.cpp:127] Top shape: 50 256 27 27 (9331200)
I0718 01:15:21.061929 13041 layer_factory.hpp:74] Creating layer pool2
I0718 01:15:21.061940 13041 net.cpp:90] Creating Layer pool2
I0718 01:15:21.061945 13041 net.cpp:410] pool2 <- conv2
I0718 01:15:21.061952 13041 net.cpp:368] pool2 -> pool2
I0718 01:15:21.061960 13041 net.cpp:120] Setting up pool2
I0718 01:15:21.061975 13041 net.cpp:127] Top shape: 50 256 13 13 (2163200)
I0718 01:15:21.061980 13041 layer_factory.hpp:74] Creating layer norm2
I0718 01:15:21.061990 13041 net.cpp:90] Creating Layer norm2
I0718 01:15:21.061995 13041 net.cpp:410] norm2 <- pool2
I0718 01:15:21.062001 13041 net.cpp:368] norm2 -> norm2
I0718 01:15:21.062010 13041 net.cpp:120] Setting up norm2
I0718 01:15:21.062021 13041 net.cpp:127] Top shape: 50 256 13 13 (2163200)
I0718 01:15:21.062027 13041 layer_factory.hpp:74] Creating layer conv3
I0718 01:15:21.062036 13041 net.cpp:90] Creating Layer conv3
I0718 01:15:21.062043 13041 net.cpp:410] conv3 <- norm2
I0718 01:15:21.062050 13041 net.cpp:368] conv3 -> conv3
I0718 01:15:21.062058 13041 net.cpp:120] Setting up conv3
I0718 01:15:21.084167 13041 net.cpp:127] Top shape: 50 384 13 13 (3244800)
I0718 01:15:21.084193 13041 layer_factory.hpp:74] Creating layer relu3
I0718 01:15:21.084205 13041 net.cpp:90] Creating Layer relu3
I0718 01:15:21.084213 13041 net.cpp:410] relu3 <- conv3
I0718 01:15:21.084223 13041 net.cpp:357] relu3 -> conv3 (in-place)
I0718 01:15:21.084233 13041 net.cpp:120] Setting up relu3
I0718 01:15:21.084239 13041 net.cpp:127] Top shape: 50 384 13 13 (3244800)
I0718 01:15:21.084250 13041 layer_factory.hpp:74] Creating layer conv4
I0718 01:15:21.084260 13041 net.cpp:90] Creating Layer conv4
I0718 01:15:21.084265 13041 net.cpp:410] conv4 <- conv3
I0718 01:15:21.084275 13041 net.cpp:368] conv4 -> conv4
I0718 01:15:21.084286 13041 net.cpp:120] Setting up conv4
I0718 01:15:21.100855 13041 net.cpp:127] Top shape: 50 384 13 13 (3244800)
I0718 01:15:21.100886 13041 layer_factory.hpp:74] Creating layer relu4
I0718 01:15:21.100921 13041 net.cpp:90] Creating Layer relu4
I0718 01:15:21.100929 13041 net.cpp:410] relu4 <- conv4
I0718 01:15:21.100937 13041 net.cpp:357] relu4 -> conv4 (in-place)
I0718 01:15:21.100945 13041 net.cpp:120] Setting up relu4
I0718 01:15:21.100952 13041 net.cpp:127] Top shape: 50 384 13 13 (3244800)
I0718 01:15:21.100965 13041 layer_factory.hpp:74] Creating layer conv5
I0718 01:15:21.100975 13041 net.cpp:90] Creating Layer conv5
I0718 01:15:21.100980 13041 net.cpp:410] conv5 <- conv4
I0718 01:15:21.100988 13041 net.cpp:368] conv5 -> conv5
I0718 01:15:21.100997 13041 net.cpp:120] Setting up conv5
I0718 01:15:21.112025 13041 net.cpp:127] Top shape: 50 256 13 13 (2163200)
I0718 01:15:21.112042 13041 layer_factory.hpp:74] Creating layer relu5
I0718 01:15:21.112052 13041 net.cpp:90] Creating Layer relu5
I0718 01:15:21.112058 13041 net.cpp:410] relu5 <- conv5
I0718 01:15:21.112066 13041 net.cpp:357] relu5 -> conv5 (in-place)
I0718 01:15:21.112072 13041 net.cpp:120] Setting up relu5
I0718 01:15:21.112079 13041 net.cpp:127] Top shape: 50 256 13 13 (2163200)
I0718 01:15:21.112084 13041 layer_factory.hpp:74] Creating layer pool5
I0718 01:15:21.112095 13041 net.cpp:90] Creating Layer pool5
I0718 01:15:21.112102 13041 net.cpp:410] pool5 <- conv5
I0718 01:15:21.112108 13041 net.cpp:368] pool5 -> pool5
I0718 01:15:21.112117 13041 net.cpp:120] Setting up pool5
I0718 01:15:21.112126 13041 net.cpp:127] Top shape: 50 256 6 6 (460800)
I0718 01:15:21.112134 13041 layer_factory.hpp:74] Creating layer fc6
I0718 01:15:21.112144 13041 net.cpp:90] Creating Layer fc6
I0718 01:15:21.112149 13041 net.cpp:410] fc6 <- pool5
I0718 01:15:21.112159 13041 net.cpp:368] fc6 -> fc6
I0718 01:15:21.112166 13041 net.cpp:120] Setting up fc6
I0718 01:15:22.036442 13041 net.cpp:127] Top shape: 50 4096 (204800)
I0718 01:15:22.036485 13041 layer_factory.hpp:74] Creating layer relu6
I0718 01:15:22.036499 13041 net.cpp:90] Creating Layer relu6
I0718 01:15:22.036506 13041 net.cpp:410] relu6 <- fc6
I0718 01:15:22.036515 13041 net.cpp:357] relu6 -> fc6 (in-place)
I0718 01:15:22.036525 13041 net.cpp:120] Setting up relu6
I0718 01:15:22.036531 13041 net.cpp:127] Top shape: 50 4096 (204800)
I0718 01:15:22.036537 13041 layer_factory.hpp:74] Creating layer drop6
I0718 01:15:22.036546 13041 net.cpp:90] Creating Layer drop6
I0718 01:15:22.036556 13041 net.cpp:410] drop6 <- fc6
I0718 01:15:22.036564 13041 net.cpp:357] drop6 -> fc6 (in-place)
I0718 01:15:22.036576 13041 net.cpp:120] Setting up drop6
I0718 01:15:22.036583 13041 net.cpp:127] Top shape: 50 4096 (204800)
I0718 01:15:22.036589 13041 layer_factory.hpp:74] Creating layer fc7
I0718 01:15:22.036599 13041 net.cpp:90] Creating Layer fc7
I0718 01:15:22.036607 13041 net.cpp:410] fc7 <- fc6
I0718 01:15:22.036613 13041 net.cpp:368] fc7 -> fc7
I0718 01:15:22.036623 13041 net.cpp:120] Setting up fc7
I0718 01:15:22.443569 13041 net.cpp:127] Top shape: 50 4096 (204800)
I0718 01:15:22.443603 13041 layer_factory.hpp:74] Creating layer relu7
I0718 01:15:22.443615 13041 net.cpp:90] Creating Layer relu7
I0718 01:15:22.443622 13041 net.cpp:410] relu7 <- fc7
I0718 01:15:22.443634 13041 net.cpp:357] relu7 -> fc7 (in-place)
I0718 01:15:22.443644 13041 net.cpp:120] Setting up relu7
I0718 01:15:22.443651 13041 net.cpp:127] Top shape: 50 4096 (204800)
I0718 01:15:22.443656 13041 layer_factory.hpp:74] Creating layer drop7
I0718 01:15:22.443665 13041 net.cpp:90] Creating Layer drop7
I0718 01:15:22.443670 13041 net.cpp:410] drop7 <- fc7
I0718 01:15:22.443677 13041 net.cpp:357] drop7 -> fc7 (in-place)
I0718 01:15:22.443686 13041 net.cpp:120] Setting up drop7
I0718 01:15:22.443696 13041 net.cpp:127] Top shape: 50 4096 (204800)
I0718 01:15:22.443701 13041 layer_factory.hpp:74] Creating layer fc8_flickr
I0718 01:15:22.443712 13041 net.cpp:90] Creating Layer fc8_flickr
I0718 01:15:22.443720 13041 net.cpp:410] fc8_flickr <- fc7
I0718 01:15:22.443729 13041 net.cpp:368] fc8_flickr -> fc8_flickr
I0718 01:15:22.443743 13041 net.cpp:120] Setting up fc8_flickr
I0718 01:15:22.461351 13041 net.cpp:127] Top shape: 50 167 (8350)
I0718 01:15:22.461410 13041 layer_factory.hpp:74] Creating layer fc8_flickr_fc8_flickr_0_split
I0718 01:15:22.461422 13041 net.cpp:90] Creating Layer fc8_flickr_fc8_flickr_0_split
I0718 01:15:22.461429 13041 net.cpp:410] fc8_flickr_fc8_flickr_0_split <- fc8_flickr
I0718 01:15:22.461437 13041 net.cpp:368] fc8_flickr_fc8_flickr_0_split -> fc8_flickr_fc8_flickr_0_split_0
I0718 01:15:22.461447 13041 net.cpp:368] fc8_flickr_fc8_flickr_0_split -> fc8_flickr_fc8_flickr_0_split_1
I0718 01:15:22.461455 13041 net.cpp:120] Setting up fc8_flickr_fc8_flickr_0_split
I0718 01:15:22.461463 13041 net.cpp:127] Top shape: 50 167 (8350)
I0718 01:15:22.461472 13041 net.cpp:127] Top shape: 50 167 (8350)
I0718 01:15:22.461477 13041 layer_factory.hpp:74] Creating layer loss
I0718 01:15:22.461489 13041 net.cpp:90] Creating Layer loss
I0718 01:15:22.461498 13041 net.cpp:410] loss <- fc8_flickr_fc8_flickr_0_split_0
I0718 01:15:22.461503 13041 net.cpp:410] loss <- label_data_1_split_0
I0718 01:15:22.461511 13041 net.cpp:368] loss -> (automatic)
I0718 01:15:22.461529 13041 net.cpp:120] Setting up loss
…
